{"format": "graph-model", "generatedBy": "2.12.0", "convertedBy": "TensorFlow.js Converter v4.7.0", "signature": {"inputs": {"truncation": {"name": "truncation:0", "dtype": "DT_FLOAT", "tensorShape": {}}, "y:0": {"name": "y:0", "dtype": "DT_FLOAT", "tensorShape": {"dim": [{"size": "-1"}, {"size": "128"}]}}, "z:0": {"name": "z:0", "dtype": "DT_FLOAT", "tensorShape": {"dim": [{"size": "-1"}, {"size": "128"}]}}}, "outputs": {"output_1": {"name": "Identity:0", "dtype": "DT_FLOAT", "tensorShape": {"dim": [{"size": "-1"}, {"size": "512"}, {"size": "512"}, {"size": "3"}]}}}}, "modelTopology": {"node": [{"name": "StatefulPartitionedCall/BigGAN/Generator/GBlock_13/BatchNorm_0/strided_slice/stack", "op": "Const", "attr": {"dtype": {"type": "DT_INT32"}, "value": {"tensor": {"dtype": "DT_INT32", "tensorShape": {"dim": [{"size": "4"}]}}}}}, {"name": "StatefulPartitionedCall/BigGAN/Generator/GBlock_13/BatchNorm_0/strided_slice/stack_1", "op": "Const", "attr": {"value": {"tensor": {"dtype": "DT_INT32", "tensorShape": {"dim": [{"size": "4"}]}}}, "dtype": {"type": "DT_INT32"}}}, {"name": "StatefulPartitionedCall/BigGAN/Generator/GBlock_13/BatchNorm_0/strided_slice/stack_2", "op": "Const", "attr": {"dtype": {"type": "DT_INT32"}, "value": {"tensor": {"dtype": "DT_INT32", "tensorShape": {"dim": [{"size": "4"}]}}}}}, {"name": "StatefulPartitionedCall/BigGAN/Generator/GBlock_13/BatchNorm_0/strided_slice_1/stack", "op": "Const", "attr": {"value": {"tensor": {"dtype": "DT_INT32", "tensorShape": {"dim": [{"size": "4"}]}}}, "dtype": {"type": "DT_INT32"}}}, {"name": "StatefulPartitionedCall/BigGAN/Generator/GBlock_13/BatchNorm_0/strided_slice_1/stack_1", "op": "Const", "attr": {"value": {"tensor": {"dtype": "DT_INT32", "tensorShape": {"dim": [{"size": "4"}]}}}, "dtype": {"type": "DT_INT32"}}}, {"name": "StatefulPartitionedCall/BigGAN/Generator/GBlock_13/BatchNorm_0/strided_slice_1/stack_2", "op": "Const", "attr": {"dtype": {"type": "DT_INT32"}, "value": {"tensor": {"dtype": "DT_INT32", "tensorShape": {"dim": [{"size": "4"}]}}}}}, {"name": "StatefulPartitionedCall/BigGAN/Generator/GBlock_13/BatchNorm_0/add_1/y", "op": "Const", "attr": {"dtype": {"type": "DT_FLOAT"}, "value": {"tensor": {"dtype": "DT_FLOAT", "tensorShape": {}}}}}, {"name": "StatefulPartitionedCall/BigGAN/Generator/GBlock_13/BatchNorm_0/add/x", "op": "Const", "attr": {"value": {"tensor": {"dtype": "DT_FLOAT", "tensorShape": {}}}, "dtype": {"type": "DT_FLOAT"}}}, {"name": "StatefulPartitionedCall/BigGAN/Generator/GBlock_13/BatchNorm_0/sn/scale/dense_218/MatMul/ReadVariableOp", "op": "Const", "attr": {"dtype": {"type": "DT_FLOAT"}, "value": {"tensor": {"dtype": "DT_FLOAT", "tensorShape": {"dim": [{"size": "256"}, {"size": "128"}]}}}}}, {"name": "StatefulPartitionedCall/BigGAN/Generator/GBlock_13/BatchNorm_0/strided_slice_2/stack", "op": "Const", "attr": {"dtype": {"type": "DT_INT32"}, "value": {"tensor": {"dtype": "DT_INT32", "tensorShape": {"dim": [{"size": "4"}]}}}}}, {"name": "StatefulPartitionedCall/BigGAN/Generator/GBlock_13/BatchNorm_0/strided_slice_2/stack_1", "op": "Const", "attr": {"dtype": {"type": "DT_INT32"}, "value": {"tensor": {"dtype": "DT_INT32", "tensorShape": {"dim": [{"size": "4"}]}}}}}, {"name": "StatefulPartitionedCall/BigGAN/Generator/GBlock_13/BatchNorm_0/strided_slice_2/stack_2", "op": "Const", "attr": {"value": {"tensor": {"dtype": "DT_INT32", "tensorShape": {"dim": [{"size": "4"}]}}}, "dtype": {"type": "DT_INT32"}}}, {"name": "StatefulPartitionedCall/BigGAN/Generator/GBlock_13/BatchNorm_0/sn/offset/dense_219/MatMul/ReadVariableOp", "op": "Const", "attr": {"value": {"tensor": {"dtype": "DT_FLOAT", "tensorShape": {"dim": [{"size": "256"}, {"size": "128"}]}}}, "dtype": {"type": "DT_FLOAT"}}}, {"name": "StatefulPartitionedCall/BigGAN/Generator/GBlock_13/BatchNorm_0/strided_slice_3/stack", "op": "Const", "attr": {"dtype": {"type": "DT_INT32"}, "value": {"tensor": {"dtype": "DT_INT32", "tensorShape": {"dim": [{"size": "4"}]}}}}}, {"name": "StatefulPartitionedCall/BigGAN/Generator/GBlock_13/BatchNorm_0/strided_slice_3/stack_1", "op": "Const", "attr": {"dtype": {"type": "DT_INT32"}, "value": {"tensor": {"dtype": "DT_INT32", "tensorShape": {"dim": [{"size": "4"}]}}}}}, {"name": "StatefulPartitionedCall/BigGAN/Generator/GBlock_13/BatchNorm_0/strided_slice_3/stack_2", "op": "Const", "attr": {"dtype": {"type": "DT_INT32"}, "value": {"tensor": {"dtype": "DT_INT32", "tensorShape": {"dim": [{"size": "4"}]}}}}}, {"name": "StatefulPartitionedCall/BigGAN/Generator/GBlock_13/sn/conv0/conv2d_117/Conv2D/ReadVariableOp", "op": "Const", "attr": {"value": {"tensor": {"dtype": "DT_FLOAT", "tensorShape": {"dim": [{"size": "1"}, {"size": "1"}, {"size": "128"}, {"size": "32"}]}}}, "dtype": {"type": "DT_FLOAT"}}}, {"name": "StatefulPartitionedCall/BigGAN/Generator/GBlock_13/sn/conv0/conv2d_117/BiasAdd/ReadVariableOp", "op": "Const", "attr": {"dtype": {"type": "DT_FLOAT"}, "value": {"tensor": {"dtype": "DT_FLOAT", "tensorShape": {"dim": [{"size": "32"}]}}}}}, {"name": "StatefulPartitionedCall/BigGAN/Generator/GBlock_13/BatchNorm_1/strided_slice/stack", "op": "Const", "attr": {"dtype": {"type": "DT_INT32"}, "value": {"tensor": {"dtype": "DT_INT32", "tensorShape": {"dim": [{"size": "4"}]}}}}}, {"name": "StatefulPartitionedCall/BigGAN/Generator/GBlock_13/BatchNorm_1/strided_slice/stack_1", "op": "Const", "attr": {"value": {"tensor": {"dtype": "DT_INT32", "tensorShape": {"dim": [{"size": "4"}]}}}, "dtype": {"type": "DT_INT32"}}}, {"name": "StatefulPartitionedCall/BigGAN/Generator/GBlock_13/BatchNorm_1/strided_slice/stack_2", "op": "Const", "attr": {"dtype": {"type": "DT_INT32"}, "value": {"tensor": {"dtype": "DT_INT32", "tensorShape": {"dim": [{"size": "4"}]}}}}}, {"name": "StatefulPartitionedCall/BigGAN/Generator/GBlock_13/BatchNorm_1/strided_slice_1/stack", "op": "Const", "attr": {"value": {"tensor": {"dtype": "DT_INT32", "tensorShape": {"dim": [{"size": "4"}]}}}, "dtype": {"type": "DT_INT32"}}}, {"name": "StatefulPartitionedCall/BigGAN/Generator/GBlock_13/BatchNorm_1/strided_slice_1/stack_1", "op": "Const", "attr": {"dtype": {"type": "DT_INT32"}, "value": {"tensor": {"dtype": "DT_INT32", "tensorShape": {"dim": [{"size": "4"}]}}}}}, {"name": "StatefulPartitionedCall/BigGAN/Generator/GBlock_13/BatchNorm_1/strided_slice_1/stack_2", "op": "Const", "attr": {"value": {"tensor": {"dtype": "DT_INT32", "tensorShape": {"dim": [{"size": "4"}]}}}, "dtype": {"type": "DT_INT32"}}}, {"name": "StatefulPartitionedCall/BigGAN/Generator/GBlock_13/BatchNorm_1/add_1/y", "op": "Const", "attr": {"value": {"tensor": {"dtype": "DT_FLOAT", "tensorShape": {}}}, "dtype": {"type": "DT_FLOAT"}}}, {"name": "StatefulPartitionedCall/BigGAN/Generator/GBlock_13/BatchNorm_1/add/x", "op": "Const", "attr": {"dtype": {"type": "DT_FLOAT"}, "value": {"tensor": {"dtype": "DT_FLOAT", "tensorShape": {}}}}}, {"name": "StatefulPartitionedCall/BigGAN/Generator/GBlock_13/BatchNorm_1/sn/scale/dense_220/MatMul/ReadVariableOp", "op": "Const", "attr": {"dtype": {"type": "DT_FLOAT"}, "value": {"tensor": {"dtype": "DT_FLOAT", "tensorShape": {"dim": [{"size": "256"}, {"size": "32"}]}}}}}, {"name": "StatefulPartitionedCall/BigGAN/Generator/GBlock_13/BatchNorm_1/strided_slice_2/stack", "op": "Const", "attr": {"value": {"tensor": {"dtype": "DT_INT32", "tensorShape": {"dim": [{"size": "4"}]}}}, "dtype": {"type": "DT_INT32"}}}, {"name": "StatefulPartitionedCall/BigGAN/Generator/GBlock_13/BatchNorm_1/strided_slice_2/stack_1", "op": "Const", "attr": {"dtype": {"type": "DT_INT32"}, "value": {"tensor": {"dtype": "DT_INT32", "tensorShape": {"dim": [{"size": "4"}]}}}}}, {"name": "StatefulPartitionedCall/BigGAN/Generator/GBlock_13/BatchNorm_1/strided_slice_2/stack_2", "op": "Const", "attr": {"dtype": {"type": "DT_INT32"}, "value": {"tensor": {"dtype": "DT_INT32", "tensorShape": {"dim": [{"size": "4"}]}}}}}, {"name": "StatefulPartitionedCall/BigGAN/Generator/GBlock_13/BatchNorm_1/sn/offset/dense_221/MatMul/ReadVariableOp", "op": "Const", "attr": {"value": {"tensor": {"dtype": "DT_FLOAT", "tensorShape": {"dim": [{"size": "256"}, {"size": "32"}]}}}, "dtype": {"type": "DT_FLOAT"}}}, {"name": "StatefulPartitionedCall/BigGAN/Generator/GBlock_13/BatchNorm_1/strided_slice_3/stack", "op": "Const", "attr": {"dtype": {"type": "DT_INT32"}, "value": {"tensor": {"dtype": "DT_INT32", "tensorShape": {"dim": [{"size": "4"}]}}}}}, {"name": "StatefulPartitionedCall/BigGAN/Generator/GBlock_13/BatchNorm_1/strided_slice_3/stack_1", "op": "Const", "attr": {"dtype": {"type": "DT_INT32"}, "value": {"tensor": {"dtype": "DT_INT32", "tensorShape": {"dim": [{"size": "4"}]}}}}}, {"name": "StatefulPartitionedCall/BigGAN/Generator/GBlock_13/BatchNorm_1/strided_slice_3/stack_2", "op": "Const", "attr": {"dtype": {"type": "DT_INT32"}, "value": {"tensor": {"dtype": "DT_INT32", "tensorShape": {"dim": [{"size": "4"}]}}}}}, {"name": "StatefulPartitionedCall/BigGAN/Generator/GBlock_13/up_sampling2d_54/mul", "op": "Const", "attr": {"value": {"tensor": {"dtype": "DT_INT32", "tensorShape": {"dim": [{"size": "2"}]}}}, "dtype": {"type": "DT_INT32"}}}, {"name": "StatefulPartitionedCall/BigGAN/Generator/GBlock_13/sn/conv1/conv2d_118/Conv2D/ReadVariableOp", "op": "Const", "attr": {"dtype": {"type": "DT_FLOAT"}, "value": {"tensor": {"dtype": "DT_FLOAT", "tensorShape": {"dim": [{"size": "3"}, {"size": "3"}, {"size": "32"}, {"size": "32"}]}}}}}, {"name": "StatefulPartitionedCall/BigGAN/Generator/GBlock_13/sn/conv1/conv2d_118/BiasAdd/ReadVariableOp", "op": "Const", "attr": {"dtype": {"type": "DT_FLOAT"}, "value": {"tensor": {"dtype": "DT_FLOAT", "tensorShape": {"dim": [{"size": "32"}]}}}}}, {"name": "StatefulPartitionedCall/BigGAN/Generator/GBlock_13/BatchNorm_2/strided_slice/stack", "op": "Const", "attr": {"value": {"tensor": {"dtype": "DT_INT32", "tensorShape": {"dim": [{"size": "4"}]}}}, "dtype": {"type": "DT_INT32"}}}, {"name": "StatefulPartitionedCall/BigGAN/Generator/GBlock_13/BatchNorm_2/strided_slice/stack_1", "op": "Const", "attr": {"value": {"tensor": {"dtype": "DT_INT32", "tensorShape": {"dim": [{"size": "4"}]}}}, "dtype": {"type": "DT_INT32"}}}, {"name": "StatefulPartitionedCall/BigGAN/Generator/GBlock_13/BatchNorm_2/strided_slice/stack_2", "op": "Const", "attr": {"value": {"tensor": {"dtype": "DT_INT32", "tensorShape": {"dim": [{"size": "4"}]}}}, "dtype": {"type": "DT_INT32"}}}, {"name": "StatefulPartitionedCall/BigGAN/Generator/GBlock_13/BatchNorm_2/strided_slice_1/stack", "op": "Const", "attr": {"value": {"tensor": {"dtype": "DT_INT32", "tensorShape": {"dim": [{"size": "4"}]}}}, "dtype": {"type": "DT_INT32"}}}, {"name": "StatefulPartitionedCall/BigGAN/Generator/GBlock_13/BatchNorm_2/strided_slice_1/stack_1", "op": "Const", "attr": {"dtype": {"type": "DT_INT32"}, "value": {"tensor": {"dtype": "DT_INT32", "tensorShape": {"dim": [{"size": "4"}]}}}}}, {"name": "StatefulPartitionedCall/BigGAN/Generator/GBlock_13/BatchNorm_2/strided_slice_1/stack_2", "op": "Const", "attr": {"dtype": {"type": "DT_INT32"}, "value": {"tensor": {"dtype": "DT_INT32", "tensorShape": {"dim": [{"size": "4"}]}}}}}, {"name": "StatefulPartitionedCall/BigGAN/Generator/GBlock_13/BatchNorm_2/add_1/y", "op": "Const", "attr": {"dtype": {"type": "DT_FLOAT"}, "value": {"tensor": {"dtype": "DT_FLOAT", "tensorShape": {}}}}}, {"name": "StatefulPartitionedCall/BigGAN/Generator/GBlock_13/BatchNorm_2/add/x", "op": "Const", "attr": {"value": {"tensor": {"dtype": "DT_FLOAT", "tensorShape": {}}}, "dtype": {"type": "DT_FLOAT"}}}, {"name": "StatefulPartitionedCall/BigGAN/Generator/GBlock_13/BatchNorm_2/sn/scale/dense_222/MatMul/ReadVariableOp", "op": "Const", "attr": {"dtype": {"type": "DT_FLOAT"}, "value": {"tensor": {"dtype": "DT_FLOAT", "tensorShape": {"dim": [{"size": "256"}, {"size": "32"}]}}}}}, {"name": "StatefulPartitionedCall/BigGAN/Generator/GBlock_13/BatchNorm_2/strided_slice_2/stack", "op": "Const", "attr": {"dtype": {"type": "DT_INT32"}, "value": {"tensor": {"dtype": "DT_INT32", "tensorShape": {"dim": [{"size": "4"}]}}}}}, {"name": "StatefulPartitionedCall/BigGAN/Generator/GBlock_13/BatchNorm_2/strided_slice_2/stack_1", "op": "Const", "attr": {"dtype": {"type": "DT_INT32"}, "value": {"tensor": {"dtype": "DT_INT32", "tensorShape": {"dim": [{"size": "4"}]}}}}}, {"name": "StatefulPartitionedCall/BigGAN/Generator/GBlock_13/BatchNorm_2/strided_slice_2/stack_2", "op": "Const", "attr": {"value": {"tensor": {"dtype": "DT_INT32", "tensorShape": {"dim": [{"size": "4"}]}}}, "dtype": {"type": "DT_INT32"}}}, {"name": "StatefulPartitionedCall/BigGAN/Generator/GBlock_13/BatchNorm_2/sn/offset/dense_223/MatMul/ReadVariableOp", "op": "Const", "attr": {"dtype": {"type": "DT_FLOAT"}, "value": {"tensor": {"dtype": "DT_FLOAT", "tensorShape": {"dim": [{"size": "256"}, {"size": "32"}]}}}}}, {"name": "StatefulPartitionedCall/BigGAN/Generator/GBlock_13/BatchNorm_2/strided_slice_3/stack", "op": "Const", "attr": {"value": {"tensor": {"dtype": "DT_INT32", "tensorShape": {"dim": [{"size": "4"}]}}}, "dtype": {"type": "DT_INT32"}}}, {"name": "StatefulPartitionedCall/BigGAN/Generator/GBlock_13/BatchNorm_2/strided_slice_3/stack_1", "op": "Const", "attr": {"dtype": {"type": "DT_INT32"}, "value": {"tensor": {"dtype": "DT_INT32", "tensorShape": {"dim": [{"size": "4"}]}}}}}, {"name": "StatefulPartitionedCall/BigGAN/Generator/GBlock_13/BatchNorm_2/strided_slice_3/stack_2", "op": "Const", "attr": {"value": {"tensor": {"dtype": "DT_INT32", "tensorShape": {"dim": [{"size": "4"}]}}}, "dtype": {"type": "DT_INT32"}}}, {"name": "StatefulPartitionedCall/BigGAN/Generator/GBlock_13/sn/conv2/conv2d_119/Conv2D/ReadVariableOp", "op": "Const", "attr": {"dtype": {"type": "DT_FLOAT"}, "value": {"tensor": {"dtype": "DT_FLOAT", "tensorShape": {"dim": [{"size": "3"}, {"size": "3"}, {"size": "32"}, {"size": "32"}]}}}}}, {"name": "StatefulPartitionedCall/BigGAN/Generator/GBlock_13/sn/conv2/conv2d_119/BiasAdd/ReadVariableOp", "op": "Const", "attr": {"dtype": {"type": "DT_FLOAT"}, "value": {"tensor": {"dtype": "DT_FLOAT", "tensorShape": {"dim": [{"size": "32"}]}}}}}, {"name": "StatefulPartitionedCall/BigGAN/Generator/GBlock_13/BatchNorm_3/strided_slice/stack", "op": "Const", "attr": {"value": {"tensor": {"dtype": "DT_INT32", "tensorShape": {"dim": [{"size": "4"}]}}}, "dtype": {"type": "DT_INT32"}}}, {"name": "StatefulPartitionedCall/BigGAN/Generator/GBlock_13/BatchNorm_3/strided_slice/stack_1", "op": "Const", "attr": {"dtype": {"type": "DT_INT32"}, "value": {"tensor": {"dtype": "DT_INT32", "tensorShape": {"dim": [{"size": "4"}]}}}}}, {"name": "StatefulPartitionedCall/BigGAN/Generator/GBlock_13/BatchNorm_3/strided_slice/stack_2", "op": "Const", "attr": {"dtype": {"type": "DT_INT32"}, "value": {"tensor": {"dtype": "DT_INT32", "tensorShape": {"dim": [{"size": "4"}]}}}}}, {"name": "StatefulPartitionedCall/BigGAN/Generator/GBlock_13/BatchNorm_3/strided_slice_1/stack", "op": "Const", "attr": {"value": {"tensor": {"dtype": "DT_INT32", "tensorShape": {"dim": [{"size": "4"}]}}}, "dtype": {"type": "DT_INT32"}}}, {"name": "StatefulPartitionedCall/BigGAN/Generator/GBlock_13/BatchNorm_3/strided_slice_1/stack_1", "op": "Const", "attr": {"value": {"tensor": {"dtype": "DT_INT32", "tensorShape": {"dim": [{"size": "4"}]}}}, "dtype": {"type": "DT_INT32"}}}, {"name": "StatefulPartitionedCall/BigGAN/Generator/GBlock_13/BatchNorm_3/strided_slice_1/stack_2", "op": "Const", "attr": {"dtype": {"type": "DT_INT32"}, "value": {"tensor": {"dtype": "DT_INT32", "tensorShape": {"dim": [{"size": "4"}]}}}}}, {"name": "StatefulPartitionedCall/BigGAN/Generator/GBlock_13/BatchNorm_3/add_1/y", "op": "Const", "attr": {"dtype": {"type": "DT_FLOAT"}, "value": {"tensor": {"dtype": "DT_FLOAT", "tensorShape": {}}}}}, {"name": "StatefulPartitionedCall/BigGAN/Generator/GBlock_13/BatchNorm_3/add/x", "op": "Const", "attr": {"value": {"tensor": {"dtype": "DT_FLOAT", "tensorShape": {}}}, "dtype": {"type": "DT_FLOAT"}}}, {"name": "StatefulPartitionedCall/BigGAN/Generator/GBlock_13/BatchNorm_3/sn/scale/dense_224/MatMul/ReadVariableOp", "op": "Const", "attr": {"dtype": {"type": "DT_FLOAT"}, "value": {"tensor": {"dtype": "DT_FLOAT", "tensorShape": {"dim": [{"size": "256"}, {"size": "32"}]}}}}}, {"name": "StatefulPartitionedCall/BigGAN/Generator/GBlock_13/BatchNorm_3/strided_slice_2/stack", "op": "Const", "attr": {"dtype": {"type": "DT_INT32"}, "value": {"tensor": {"dtype": "DT_INT32", "tensorShape": {"dim": [{"size": "4"}]}}}}}, {"name": "StatefulPartitionedCall/BigGAN/Generator/GBlock_13/BatchNorm_3/strided_slice_2/stack_1", "op": "Const", "attr": {"value": {"tensor": {"dtype": "DT_INT32", "tensorShape": {"dim": [{"size": "4"}]}}}, "dtype": {"type": "DT_INT32"}}}, {"name": "StatefulPartitionedCall/BigGAN/Generator/GBlock_13/BatchNorm_3/strided_slice_2/stack_2", "op": "Const", "attr": {"dtype": {"type": "DT_INT32"}, "value": {"tensor": {"dtype": "DT_INT32", "tensorShape": {"dim": [{"size": "4"}]}}}}}, {"name": "StatefulPartitionedCall/BigGAN/Generator/GBlock_13/BatchNorm_3/sn/offset/dense_225/MatMul/ReadVariableOp", "op": "Const", "attr": {"dtype": {"type": "DT_FLOAT"}, "value": {"tensor": {"dtype": "DT_FLOAT", "tensorShape": {"dim": [{"size": "256"}, {"size": "32"}]}}}}}, {"name": "StatefulPartitionedCall/BigGAN/Generator/GBlock_13/BatchNorm_3/strided_slice_3/stack", "op": "Const", "attr": {"value": {"tensor": {"dtype": "DT_INT32", "tensorShape": {"dim": [{"size": "4"}]}}}, "dtype": {"type": "DT_INT32"}}}, {"name": "StatefulPartitionedCall/BigGAN/Generator/GBlock_13/BatchNorm_3/strided_slice_3/stack_1", "op": "Const", "attr": {"dtype": {"type": "DT_INT32"}, "value": {"tensor": {"dtype": "DT_INT32", "tensorShape": {"dim": [{"size": "4"}]}}}}}, {"name": "StatefulPartitionedCall/BigGAN/Generator/GBlock_13/BatchNorm_3/strided_slice_3/stack_2", "op": "Const", "attr": {"dtype": {"type": "DT_INT32"}, "value": {"tensor": {"dtype": "DT_INT32", "tensorShape": {"dim": [{"size": "4"}]}}}}}, {"name": "StatefulPartitionedCall/BigGAN/Generator/GBlock_13/sn/conv3/conv2d_120/Conv2D/ReadVariableOp", "op": "Const", "attr": {"value": {"tensor": {"dtype": "DT_FLOAT", "tensorShape": {"dim": [{"size": "1"}, {"size": "1"}, {"size": "32"}, {"size": "128"}]}}}, "dtype": {"type": "DT_FLOAT"}}}, {"name": "StatefulPartitionedCall/BigGAN/Generator/GBlock_13/sn/conv3/conv2d_120/BiasAdd/ReadVariableOp", "op": "Const", "attr": {"value": {"tensor": {"dtype": "DT_FLOAT", "tensorShape": {"dim": [{"size": "128"}]}}}, "dtype": {"type": "DT_FLOAT"}}}, {"name": "StatefulPartitionedCall/BigGAN/Generator/GBlock_12/BatchNorm_0/strided_slice/stack", "op": "Const", "attr": {"value": {"tensor": {"dtype": "DT_INT32", "tensorShape": {"dim": [{"size": "4"}]}}}, "dtype": {"type": "DT_INT32"}}}, {"name": "StatefulPartitionedCall/BigGAN/Generator/GBlock_12/BatchNorm_0/strided_slice/stack_1", "op": "Const", "attr": {"value": {"tensor": {"dtype": "DT_INT32", "tensorShape": {"dim": [{"size": "4"}]}}}, "dtype": {"type": "DT_INT32"}}}, {"name": "StatefulPartitionedCall/BigGAN/Generator/GBlock_12/BatchNorm_0/strided_slice/stack_2", "op": "Const", "attr": {"dtype": {"type": "DT_INT32"}, "value": {"tensor": {"dtype": "DT_INT32", "tensorShape": {"dim": [{"size": "4"}]}}}}}, {"name": "StatefulPartitionedCall/BigGAN/Generator/GBlock_12/BatchNorm_0/strided_slice_1/stack", "op": "Const", "attr": {"dtype": {"type": "DT_INT32"}, "value": {"tensor": {"dtype": "DT_INT32", "tensorShape": {"dim": [{"size": "4"}]}}}}}, {"name": "StatefulPartitionedCall/BigGAN/Generator/GBlock_12/BatchNorm_0/strided_slice_1/stack_1", "op": "Const", "attr": {"dtype": {"type": "DT_INT32"}, "value": {"tensor": {"dtype": "DT_INT32", "tensorShape": {"dim": [{"size": "4"}]}}}}}, {"name": "StatefulPartitionedCall/BigGAN/Generator/GBlock_12/BatchNorm_0/strided_slice_1/stack_2", "op": "Const", "attr": {"dtype": {"type": "DT_INT32"}, "value": {"tensor": {"dtype": "DT_INT32", "tensorShape": {"dim": [{"size": "4"}]}}}}}, {"name": "StatefulPartitionedCall/BigGAN/Generator/GBlock_12/BatchNorm_0/add_1/y", "op": "Const", "attr": {"value": {"tensor": {"dtype": "DT_FLOAT", "tensorShape": {}}}, "dtype": {"type": "DT_FLOAT"}}}, {"name": "StatefulPartitionedCall/BigGAN/Generator/GBlock_12/BatchNorm_0/add/x", "op": "Const", "attr": {"dtype": {"type": "DT_FLOAT"}, "value": {"tensor": {"dtype": "DT_FLOAT", "tensorShape": {}}}}}, {"name": "StatefulPartitionedCall/BigGAN/Generator/GBlock_12/BatchNorm_0/sn/scale/dense_210/MatMul/ReadVariableOp", "op": "Const", "attr": {"dtype": {"type": "DT_FLOAT"}, "value": {"tensor": {"dtype": "DT_FLOAT", "tensorShape": {"dim": [{"size": "256"}, {"size": "128"}]}}}}}, {"name": "StatefulPartitionedCall/BigGAN/Generator/GBlock_12/BatchNorm_0/strided_slice_2/stack", "op": "Const", "attr": {"value": {"tensor": {"dtype": "DT_INT32", "tensorShape": {"dim": [{"size": "4"}]}}}, "dtype": {"type": "DT_INT32"}}}, {"name": "StatefulPartitionedCall/BigGAN/Generator/GBlock_12/BatchNorm_0/strided_slice_2/stack_1", "op": "Const", "attr": {"value": {"tensor": {"dtype": "DT_INT32", "tensorShape": {"dim": [{"size": "4"}]}}}, "dtype": {"type": "DT_INT32"}}}, {"name": "StatefulPartitionedCall/BigGAN/Generator/GBlock_12/BatchNorm_0/strided_slice_2/stack_2", "op": "Const", "attr": {"dtype": {"type": "DT_INT32"}, "value": {"tensor": {"dtype": "DT_INT32", "tensorShape": {"dim": [{"size": "4"}]}}}}}, {"name": "StatefulPartitionedCall/BigGAN/Generator/GBlock_12/BatchNorm_0/sn/offset/dense_211/MatMul/ReadVariableOp", "op": "Const", "attr": {"dtype": {"type": "DT_FLOAT"}, "value": {"tensor": {"dtype": "DT_FLOAT", "tensorShape": {"dim": [{"size": "256"}, {"size": "128"}]}}}}}, {"name": "StatefulPartitionedCall/BigGAN/Generator/GBlock_12/BatchNorm_0/strided_slice_3/stack", "op": "Const", "attr": {"value": {"tensor": {"dtype": "DT_INT32", "tensorShape": {"dim": [{"size": "4"}]}}}, "dtype": {"type": "DT_INT32"}}}, {"name": "StatefulPartitionedCall/BigGAN/Generator/GBlock_12/BatchNorm_0/strided_slice_3/stack_1", "op": "Const", "attr": {"dtype": {"type": "DT_INT32"}, "value": {"tensor": {"dtype": "DT_INT32", "tensorShape": {"dim": [{"size": "4"}]}}}}}, {"name": "StatefulPartitionedCall/BigGAN/Generator/GBlock_12/BatchNorm_0/strided_slice_3/stack_2", "op": "Const", "attr": {"value": {"tensor": {"dtype": "DT_INT32", "tensorShape": {"dim": [{"size": "4"}]}}}, "dtype": {"type": "DT_INT32"}}}, {"name": "StatefulPartitionedCall/BigGAN/Generator/GBlock_12/sn/conv0/conv2d_113/Conv2D/ReadVariableOp", "op": "Const", "attr": {"dtype": {"type": "DT_FLOAT"}, "value": {"tensor": {"dtype": "DT_FLOAT", "tensorShape": {"dim": [{"size": "1"}, {"size": "1"}, {"size": "128"}, {"size": "32"}]}}}}}, {"name": "StatefulPartitionedCall/BigGAN/Generator/GBlock_12/sn/conv0/conv2d_113/BiasAdd/ReadVariableOp", "op": "Const", "attr": {"value": {"tensor": {"dtype": "DT_FLOAT", "tensorShape": {"dim": [{"size": "32"}]}}}, "dtype": {"type": "DT_FLOAT"}}}, {"name": "StatefulPartitionedCall/BigGAN/Generator/GBlock_12/BatchNorm_1/strided_slice/stack", "op": "Const", "attr": {"dtype": {"type": "DT_INT32"}, "value": {"tensor": {"dtype": "DT_INT32", "tensorShape": {"dim": [{"size": "4"}]}}}}}, {"name": "StatefulPartitionedCall/BigGAN/Generator/GBlock_12/BatchNorm_1/strided_slice/stack_1", "op": "Const", "attr": {"value": {"tensor": {"dtype": "DT_INT32", "tensorShape": {"dim": [{"size": "4"}]}}}, "dtype": {"type": "DT_INT32"}}}, {"name": "StatefulPartitionedCall/BigGAN/Generator/GBlock_12/BatchNorm_1/strided_slice/stack_2", "op": "Const", "attr": {"value": {"tensor": {"dtype": "DT_INT32", "tensorShape": {"dim": [{"size": "4"}]}}}, "dtype": {"type": "DT_INT32"}}}, {"name": "StatefulPartitionedCall/BigGAN/Generator/GBlock_12/BatchNorm_1/strided_slice_1/stack", "op": "Const", "attr": {"value": {"tensor": {"dtype": "DT_INT32", "tensorShape": {"dim": [{"size": "4"}]}}}, "dtype": {"type": "DT_INT32"}}}, {"name": "StatefulPartitionedCall/BigGAN/Generator/GBlock_12/BatchNorm_1/strided_slice_1/stack_1", "op": "Const", "attr": {"value": {"tensor": {"dtype": "DT_INT32", "tensorShape": {"dim": [{"size": "4"}]}}}, "dtype": {"type": "DT_INT32"}}}, {"name": "StatefulPartitionedCall/BigGAN/Generator/GBlock_12/BatchNorm_1/strided_slice_1/stack_2", "op": "Const", "attr": {"dtype": {"type": "DT_INT32"}, "value": {"tensor": {"dtype": "DT_INT32", "tensorShape": {"dim": [{"size": "4"}]}}}}}, {"name": "StatefulPartitionedCall/BigGAN/Generator/GBlock_12/BatchNorm_1/add_1/y", "op": "Const", "attr": {"dtype": {"type": "DT_FLOAT"}, "value": {"tensor": {"dtype": "DT_FLOAT", "tensorShape": {}}}}}, {"name": "StatefulPartitionedCall/BigGAN/Generator/GBlock_12/BatchNorm_1/add/x", "op": "Const", "attr": {"dtype": {"type": "DT_FLOAT"}, "value": {"tensor": {"dtype": "DT_FLOAT", "tensorShape": {}}}}}, {"name": "StatefulPartitionedCall/BigGAN/Generator/GBlock_12/BatchNorm_1/sn/scale/dense_212/MatMul/ReadVariableOp", "op": "Const", "attr": {"value": {"tensor": {"dtype": "DT_FLOAT", "tensorShape": {"dim": [{"size": "256"}, {"size": "32"}]}}}, "dtype": {"type": "DT_FLOAT"}}}, {"name": "StatefulPartitionedCall/BigGAN/Generator/GBlock_12/BatchNorm_1/strided_slice_2/stack", "op": "Const", "attr": {"value": {"tensor": {"dtype": "DT_INT32", "tensorShape": {"dim": [{"size": "4"}]}}}, "dtype": {"type": "DT_INT32"}}}, {"name": "StatefulPartitionedCall/BigGAN/Generator/GBlock_12/BatchNorm_1/strided_slice_2/stack_1", "op": "Const", "attr": {"dtype": {"type": "DT_INT32"}, "value": {"tensor": {"dtype": "DT_INT32", "tensorShape": {"dim": [{"size": "4"}]}}}}}, {"name": "StatefulPartitionedCall/BigGAN/Generator/GBlock_12/BatchNorm_1/strided_slice_2/stack_2", "op": "Const", "attr": {"dtype": {"type": "DT_INT32"}, "value": {"tensor": {"dtype": "DT_INT32", "tensorShape": {"dim": [{"size": "4"}]}}}}}, {"name": "StatefulPartitionedCall/BigGAN/Generator/GBlock_12/BatchNorm_1/sn/offset/dense_213/MatMul/ReadVariableOp", "op": "Const", "attr": {"dtype": {"type": "DT_FLOAT"}, "value": {"tensor": {"dtype": "DT_FLOAT", "tensorShape": {"dim": [{"size": "256"}, {"size": "32"}]}}}}}, {"name": "StatefulPartitionedCall/BigGAN/Generator/GBlock_12/BatchNorm_1/strided_slice_3/stack", "op": "Const", "attr": {"value": {"tensor": {"dtype": "DT_INT32", "tensorShape": {"dim": [{"size": "4"}]}}}, "dtype": {"type": "DT_INT32"}}}, {"name": "StatefulPartitionedCall/BigGAN/Generator/GBlock_12/BatchNorm_1/strided_slice_3/stack_1", "op": "Const", "attr": {"dtype": {"type": "DT_INT32"}, "value": {"tensor": {"dtype": "DT_INT32", "tensorShape": {"dim": [{"size": "4"}]}}}}}, {"name": "StatefulPartitionedCall/BigGAN/Generator/GBlock_12/BatchNorm_1/strided_slice_3/stack_2", "op": "Const", "attr": {"value": {"tensor": {"dtype": "DT_INT32", "tensorShape": {"dim": [{"size": "4"}]}}}, "dtype": {"type": "DT_INT32"}}}, {"name": "StatefulPartitionedCall/BigGAN/Generator/GBlock_12/sn/conv1/conv2d_114/Conv2D/ReadVariableOp", "op": "Const", "attr": {"dtype": {"type": "DT_FLOAT"}, "value": {"tensor": {"dtype": "DT_FLOAT", "tensorShape": {"dim": [{"size": "3"}, {"size": "3"}, {"size": "32"}, {"size": "32"}]}}}}}, {"name": "StatefulPartitionedCall/BigGAN/Generator/GBlock_12/sn/conv1/conv2d_114/BiasAdd/ReadVariableOp", "op": "Const", "attr": {"value": {"tensor": {"dtype": "DT_FLOAT", "tensorShape": {"dim": [{"size": "32"}]}}}, "dtype": {"type": "DT_FLOAT"}}}, {"name": "StatefulPartitionedCall/BigGAN/Generator/GBlock_12/BatchNorm_2/strided_slice/stack", "op": "Const", "attr": {"dtype": {"type": "DT_INT32"}, "value": {"tensor": {"dtype": "DT_INT32", "tensorShape": {"dim": [{"size": "4"}]}}}}}, {"name": "StatefulPartitionedCall/BigGAN/Generator/GBlock_12/BatchNorm_2/strided_slice/stack_1", "op": "Const", "attr": {"value": {"tensor": {"dtype": "DT_INT32", "tensorShape": {"dim": [{"size": "4"}]}}}, "dtype": {"type": "DT_INT32"}}}, {"name": "StatefulPartitionedCall/BigGAN/Generator/GBlock_12/BatchNorm_2/strided_slice/stack_2", "op": "Const", "attr": {"value": {"tensor": {"dtype": "DT_INT32", "tensorShape": {"dim": [{"size": "4"}]}}}, "dtype": {"type": "DT_INT32"}}}, {"name": "StatefulPartitionedCall/BigGAN/Generator/GBlock_12/BatchNorm_2/strided_slice_1/stack", "op": "Const", "attr": {"value": {"tensor": {"dtype": "DT_INT32", "tensorShape": {"dim": [{"size": "4"}]}}}, "dtype": {"type": "DT_INT32"}}}, {"name": "StatefulPartitionedCall/BigGAN/Generator/GBlock_12/BatchNorm_2/strided_slice_1/stack_1", "op": "Const", "attr": {"value": {"tensor": {"dtype": "DT_INT32", "tensorShape": {"dim": [{"size": "4"}]}}}, "dtype": {"type": "DT_INT32"}}}, {"name": "StatefulPartitionedCall/BigGAN/Generator/GBlock_12/BatchNorm_2/strided_slice_1/stack_2", "op": "Const", "attr": {"value": {"tensor": {"dtype": "DT_INT32", "tensorShape": {"dim": [{"size": "4"}]}}}, "dtype": {"type": "DT_INT32"}}}, {"name": "StatefulPartitionedCall/BigGAN/Generator/GBlock_12/BatchNorm_2/add_1/y", "op": "Const", "attr": {"value": {"tensor": {"dtype": "DT_FLOAT", "tensorShape": {}}}, "dtype": {"type": "DT_FLOAT"}}}, {"name": "StatefulPartitionedCall/BigGAN/Generator/GBlock_12/BatchNorm_2/add/x", "op": "Const", "attr": {"dtype": {"type": "DT_FLOAT"}, "value": {"tensor": {"dtype": "DT_FLOAT", "tensorShape": {}}}}}, {"name": "StatefulPartitionedCall/BigGAN/Generator/GBlock_12/BatchNorm_2/sn/scale/dense_214/MatMul/ReadVariableOp", "op": "Const", "attr": {"value": {"tensor": {"dtype": "DT_FLOAT", "tensorShape": {"dim": [{"size": "256"}, {"size": "32"}]}}}, "dtype": {"type": "DT_FLOAT"}}}, {"name": "StatefulPartitionedCall/BigGAN/Generator/GBlock_12/BatchNorm_2/strided_slice_2/stack", "op": "Const", "attr": {"value": {"tensor": {"dtype": "DT_INT32", "tensorShape": {"dim": [{"size": "4"}]}}}, "dtype": {"type": "DT_INT32"}}}, {"name": "StatefulPartitionedCall/BigGAN/Generator/GBlock_12/BatchNorm_2/strided_slice_2/stack_1", "op": "Const", "attr": {"value": {"tensor": {"dtype": "DT_INT32", "tensorShape": {"dim": [{"size": "4"}]}}}, "dtype": {"type": "DT_INT32"}}}, {"name": "StatefulPartitionedCall/BigGAN/Generator/GBlock_12/BatchNorm_2/strided_slice_2/stack_2", "op": "Const", "attr": {"value": {"tensor": {"dtype": "DT_INT32", "tensorShape": {"dim": [{"size": "4"}]}}}, "dtype": {"type": "DT_INT32"}}}, {"name": "StatefulPartitionedCall/BigGAN/Generator/GBlock_12/BatchNorm_2/sn/offset/dense_215/MatMul/ReadVariableOp", "op": "Const", "attr": {"dtype": {"type": "DT_FLOAT"}, "value": {"tensor": {"dtype": "DT_FLOAT", "tensorShape": {"dim": [{"size": "256"}, {"size": "32"}]}}}}}, {"name": "StatefulPartitionedCall/BigGAN/Generator/GBlock_12/BatchNorm_2/strided_slice_3/stack", "op": "Const", "attr": {"value": {"tensor": {"dtype": "DT_INT32", "tensorShape": {"dim": [{"size": "4"}]}}}, "dtype": {"type": "DT_INT32"}}}, {"name": "StatefulPartitionedCall/BigGAN/Generator/GBlock_12/BatchNorm_2/strided_slice_3/stack_1", "op": "Const", "attr": {"value": {"tensor": {"dtype": "DT_INT32", "tensorShape": {"dim": [{"size": "4"}]}}}, "dtype": {"type": "DT_INT32"}}}, {"name": "StatefulPartitionedCall/BigGAN/Generator/GBlock_12/BatchNorm_2/strided_slice_3/stack_2", "op": "Const", "attr": {"value": {"tensor": {"dtype": "DT_INT32", "tensorShape": {"dim": [{"size": "4"}]}}}, "dtype": {"type": "DT_INT32"}}}, {"name": "StatefulPartitionedCall/BigGAN/Generator/GBlock_12/sn/conv2/conv2d_115/Conv2D/ReadVariableOp", "op": "Const", "attr": {"value": {"tensor": {"dtype": "DT_FLOAT", "tensorShape": {"dim": [{"size": "3"}, {"size": "3"}, {"size": "32"}, {"size": "32"}]}}}, "dtype": {"type": "DT_FLOAT"}}}, {"name": "StatefulPartitionedCall/BigGAN/Generator/GBlock_12/sn/conv2/conv2d_115/BiasAdd/ReadVariableOp", "op": "Const", "attr": {"value": {"tensor": {"dtype": "DT_FLOAT", "tensorShape": {"dim": [{"size": "32"}]}}}, "dtype": {"type": "DT_FLOAT"}}}, {"name": "StatefulPartitionedCall/BigGAN/Generator/GBlock_12/BatchNorm_3/strided_slice/stack", "op": "Const", "attr": {"value": {"tensor": {"dtype": "DT_INT32", "tensorShape": {"dim": [{"size": "4"}]}}}, "dtype": {"type": "DT_INT32"}}}, {"name": "StatefulPartitionedCall/BigGAN/Generator/GBlock_12/BatchNorm_3/strided_slice/stack_1", "op": "Const", "attr": {"dtype": {"type": "DT_INT32"}, "value": {"tensor": {"dtype": "DT_INT32", "tensorShape": {"dim": [{"size": "4"}]}}}}}, {"name": "StatefulPartitionedCall/BigGAN/Generator/GBlock_12/BatchNorm_3/strided_slice/stack_2", "op": "Const", "attr": {"dtype": {"type": "DT_INT32"}, "value": {"tensor": {"dtype": "DT_INT32", "tensorShape": {"dim": [{"size": "4"}]}}}}}, {"name": "StatefulPartitionedCall/BigGAN/Generator/GBlock_12/BatchNorm_3/strided_slice_1/stack", "op": "Const", "attr": {"dtype": {"type": "DT_INT32"}, "value": {"tensor": {"dtype": "DT_INT32", "tensorShape": {"dim": [{"size": "4"}]}}}}}, {"name": "StatefulPartitionedCall/BigGAN/Generator/GBlock_12/BatchNorm_3/strided_slice_1/stack_1", "op": "Const", "attr": {"dtype": {"type": "DT_INT32"}, "value": {"tensor": {"dtype": "DT_INT32", "tensorShape": {"dim": [{"size": "4"}]}}}}}, {"name": "StatefulPartitionedCall/BigGAN/Generator/GBlock_12/BatchNorm_3/strided_slice_1/stack_2", "op": "Const", "attr": {"dtype": {"type": "DT_INT32"}, "value": {"tensor": {"dtype": "DT_INT32", "tensorShape": {"dim": [{"size": "4"}]}}}}}, {"name": "StatefulPartitionedCall/BigGAN/Generator/GBlock_12/BatchNorm_3/add_1/y", "op": "Const", "attr": {"value": {"tensor": {"dtype": "DT_FLOAT", "tensorShape": {}}}, "dtype": {"type": "DT_FLOAT"}}}, {"name": "StatefulPartitionedCall/BigGAN/Generator/GBlock_12/BatchNorm_3/add/x", "op": "Const", "attr": {"value": {"tensor": {"dtype": "DT_FLOAT", "tensorShape": {}}}, "dtype": {"type": "DT_FLOAT"}}}, {"name": "StatefulPartitionedCall/BigGAN/Generator/GBlock_12/BatchNorm_3/sn/scale/dense_216/MatMul/ReadVariableOp", "op": "Const", "attr": {"dtype": {"type": "DT_FLOAT"}, "value": {"tensor": {"dtype": "DT_FLOAT", "tensorShape": {"dim": [{"size": "256"}, {"size": "32"}]}}}}}, {"name": "StatefulPartitionedCall/BigGAN/Generator/GBlock_12/BatchNorm_3/strided_slice_2/stack", "op": "Const", "attr": {"value": {"tensor": {"dtype": "DT_INT32", "tensorShape": {"dim": [{"size": "4"}]}}}, "dtype": {"type": "DT_INT32"}}}, {"name": "StatefulPartitionedCall/BigGAN/Generator/GBlock_12/BatchNorm_3/strided_slice_2/stack_1", "op": "Const", "attr": {"value": {"tensor": {"dtype": "DT_INT32", "tensorShape": {"dim": [{"size": "4"}]}}}, "dtype": {"type": "DT_INT32"}}}, {"name": "StatefulPartitionedCall/BigGAN/Generator/GBlock_12/BatchNorm_3/strided_slice_2/stack_2", "op": "Const", "attr": {"dtype": {"type": "DT_INT32"}, "value": {"tensor": {"dtype": "DT_INT32", "tensorShape": {"dim": [{"size": "4"}]}}}}}, {"name": "StatefulPartitionedCall/BigGAN/Generator/GBlock_12/BatchNorm_3/sn/offset/dense_217/MatMul/ReadVariableOp", "op": "Const", "attr": {"dtype": {"type": "DT_FLOAT"}, "value": {"tensor": {"dtype": "DT_FLOAT", "tensorShape": {"dim": [{"size": "256"}, {"size": "32"}]}}}}}, {"name": "StatefulPartitionedCall/BigGAN/Generator/GBlock_12/BatchNorm_3/strided_slice_3/stack", "op": "Const", "attr": {"dtype": {"type": "DT_INT32"}, "value": {"tensor": {"dtype": "DT_INT32", "tensorShape": {"dim": [{"size": "4"}]}}}}}, {"name": "StatefulPartitionedCall/BigGAN/Generator/GBlock_12/BatchNorm_3/strided_slice_3/stack_1", "op": "Const", "attr": {"dtype": {"type": "DT_INT32"}, "value": {"tensor": {"dtype": "DT_INT32", "tensorShape": {"dim": [{"size": "4"}]}}}}}, {"name": "StatefulPartitionedCall/BigGAN/Generator/GBlock_12/BatchNorm_3/strided_slice_3/stack_2", "op": "Const", "attr": {"dtype": {"type": "DT_INT32"}, "value": {"tensor": {"dtype": "DT_INT32", "tensorShape": {"dim": [{"size": "4"}]}}}}}, {"name": "StatefulPartitionedCall/BigGAN/Generator/GBlock_12/sn/conv3/conv2d_116/Conv2D/ReadVariableOp", "op": "Const", "attr": {"dtype": {"type": "DT_FLOAT"}, "value": {"tensor": {"dtype": "DT_FLOAT", "tensorShape": {"dim": [{"size": "1"}, {"size": "1"}, {"size": "32"}, {"size": "128"}]}}}}}, {"name": "StatefulPartitionedCall/BigGAN/Generator/GBlock_12/sn/conv3/conv2d_116/BiasAdd/ReadVariableOp", "op": "Const", "attr": {"value": {"tensor": {"dtype": "DT_FLOAT", "tensorShape": {"dim": [{"size": "128"}]}}}, "dtype": {"type": "DT_FLOAT"}}}, {"name": "StatefulPartitionedCall/BigGAN/Generator/GBlock_11/BatchNorm_0/strided_slice/stack", "op": "Const", "attr": {"dtype": {"type": "DT_INT32"}, "value": {"tensor": {"dtype": "DT_INT32", "tensorShape": {"dim": [{"size": "4"}]}}}}}, {"name": "StatefulPartitionedCall/BigGAN/Generator/GBlock_11/BatchNorm_0/strided_slice/stack_1", "op": "Const", "attr": {"value": {"tensor": {"dtype": "DT_INT32", "tensorShape": {"dim": [{"size": "4"}]}}}, "dtype": {"type": "DT_INT32"}}}, {"name": "StatefulPartitionedCall/BigGAN/Generator/GBlock_11/BatchNorm_0/strided_slice/stack_2", "op": "Const", "attr": {"dtype": {"type": "DT_INT32"}, "value": {"tensor": {"dtype": "DT_INT32", "tensorShape": {"dim": [{"size": "4"}]}}}}}, {"name": "StatefulPartitionedCall/BigGAN/Generator/GBlock_11/BatchNorm_0/strided_slice_1/stack", "op": "Const", "attr": {"value": {"tensor": {"dtype": "DT_INT32", "tensorShape": {"dim": [{"size": "4"}]}}}, "dtype": {"type": "DT_INT32"}}}, {"name": "StatefulPartitionedCall/BigGAN/Generator/GBlock_11/BatchNorm_0/strided_slice_1/stack_1", "op": "Const", "attr": {"dtype": {"type": "DT_INT32"}, "value": {"tensor": {"dtype": "DT_INT32", "tensorShape": {"dim": [{"size": "4"}]}}}}}, {"name": "StatefulPartitionedCall/BigGAN/Generator/GBlock_11/BatchNorm_0/strided_slice_1/stack_2", "op": "Const", "attr": {"value": {"tensor": {"dtype": "DT_INT32", "tensorShape": {"dim": [{"size": "4"}]}}}, "dtype": {"type": "DT_INT32"}}}, {"name": "StatefulPartitionedCall/BigGAN/Generator/GBlock_11/BatchNorm_0/add_1/y", "op": "Const", "attr": {"value": {"tensor": {"dtype": "DT_FLOAT", "tensorShape": {}}}, "dtype": {"type": "DT_FLOAT"}}}, {"name": "StatefulPartitionedCall/BigGAN/Generator/GBlock_11/BatchNorm_0/add/x", "op": "Const", "attr": {"dtype": {"type": "DT_FLOAT"}, "value": {"tensor": {"dtype": "DT_FLOAT", "tensorShape": {}}}}}, {"name": "StatefulPartitionedCall/BigGAN/Generator/GBlock_11/BatchNorm_0/sn/scale/dense_202/MatMul/ReadVariableOp", "op": "Const", "attr": {"value": {"tensor": {"dtype": "DT_FLOAT", "tensorShape": {"dim": [{"size": "256"}, {"size": "256"}]}}}, "dtype": {"type": "DT_FLOAT"}}}, {"name": "StatefulPartitionedCall/BigGAN/Generator/GBlock_11/BatchNorm_0/strided_slice_2/stack", "op": "Const", "attr": {"dtype": {"type": "DT_INT32"}, "value": {"tensor": {"dtype": "DT_INT32", "tensorShape": {"dim": [{"size": "4"}]}}}}}, {"name": "StatefulPartitionedCall/BigGAN/Generator/GBlock_11/BatchNorm_0/strided_slice_2/stack_1", "op": "Const", "attr": {"dtype": {"type": "DT_INT32"}, "value": {"tensor": {"dtype": "DT_INT32", "tensorShape": {"dim": [{"size": "4"}]}}}}}, {"name": "StatefulPartitionedCall/BigGAN/Generator/GBlock_11/BatchNorm_0/strided_slice_2/stack_2", "op": "Const", "attr": {"value": {"tensor": {"dtype": "DT_INT32", "tensorShape": {"dim": [{"size": "4"}]}}}, "dtype": {"type": "DT_INT32"}}}, {"name": "StatefulPartitionedCall/BigGAN/Generator/GBlock_11/BatchNorm_0/sn/offset/dense_203/MatMul/ReadVariableOp", "op": "Const", "attr": {"value": {"tensor": {"dtype": "DT_FLOAT", "tensorShape": {"dim": [{"size": "256"}, {"size": "256"}]}}}, "dtype": {"type": "DT_FLOAT"}}}, {"name": "StatefulPartitionedCall/BigGAN/Generator/GBlock_11/BatchNorm_0/strided_slice_3/stack", "op": "Const", "attr": {"value": {"tensor": {"dtype": "DT_INT32", "tensorShape": {"dim": [{"size": "4"}]}}}, "dtype": {"type": "DT_INT32"}}}, {"name": "StatefulPartitionedCall/BigGAN/Generator/GBlock_11/BatchNorm_0/strided_slice_3/stack_1", "op": "Const", "attr": {"dtype": {"type": "DT_INT32"}, "value": {"tensor": {"dtype": "DT_INT32", "tensorShape": {"dim": [{"size": "4"}]}}}}}, {"name": "StatefulPartitionedCall/BigGAN/Generator/GBlock_11/BatchNorm_0/strided_slice_3/stack_2", "op": "Const", "attr": {"value": {"tensor": {"dtype": "DT_INT32", "tensorShape": {"dim": [{"size": "4"}]}}}, "dtype": {"type": "DT_INT32"}}}, {"name": "StatefulPartitionedCall/BigGAN/Generator/GBlock_11/sn/conv0/conv2d_109/Conv2D/ReadVariableOp", "op": "Const", "attr": {"dtype": {"type": "DT_FLOAT"}, "value": {"tensor": {"dtype": "DT_FLOAT", "tensorShape": {"dim": [{"size": "1"}, {"size": "1"}, {"size": "256"}, {"size": "64"}]}}}}}, {"name": "StatefulPartitionedCall/BigGAN/Generator/GBlock_11/sn/conv0/conv2d_109/BiasAdd/ReadVariableOp", "op": "Const", "attr": {"value": {"tensor": {"dtype": "DT_FLOAT", "tensorShape": {"dim": [{"size": "64"}]}}}, "dtype": {"type": "DT_FLOAT"}}}, {"name": "StatefulPartitionedCall/BigGAN/Generator/GBlock_11/BatchNorm_1/strided_slice/stack", "op": "Const", "attr": {"dtype": {"type": "DT_INT32"}, "value": {"tensor": {"dtype": "DT_INT32", "tensorShape": {"dim": [{"size": "4"}]}}}}}, {"name": "StatefulPartitionedCall/BigGAN/Generator/GBlock_11/BatchNorm_1/strided_slice/stack_1", "op": "Const", "attr": {"value": {"tensor": {"dtype": "DT_INT32", "tensorShape": {"dim": [{"size": "4"}]}}}, "dtype": {"type": "DT_INT32"}}}, {"name": "StatefulPartitionedCall/BigGAN/Generator/GBlock_11/BatchNorm_1/strided_slice/stack_2", "op": "Const", "attr": {"dtype": {"type": "DT_INT32"}, "value": {"tensor": {"dtype": "DT_INT32", "tensorShape": {"dim": [{"size": "4"}]}}}}}, {"name": "StatefulPartitionedCall/BigGAN/Generator/GBlock_11/BatchNorm_1/strided_slice_1/stack", "op": "Const", "attr": {"dtype": {"type": "DT_INT32"}, "value": {"tensor": {"dtype": "DT_INT32", "tensorShape": {"dim": [{"size": "4"}]}}}}}, {"name": "StatefulPartitionedCall/BigGAN/Generator/GBlock_11/BatchNorm_1/strided_slice_1/stack_1", "op": "Const", "attr": {"value": {"tensor": {"dtype": "DT_INT32", "tensorShape": {"dim": [{"size": "4"}]}}}, "dtype": {"type": "DT_INT32"}}}, {"name": "StatefulPartitionedCall/BigGAN/Generator/GBlock_11/BatchNorm_1/strided_slice_1/stack_2", "op": "Const", "attr": {"dtype": {"type": "DT_INT32"}, "value": {"tensor": {"dtype": "DT_INT32", "tensorShape": {"dim": [{"size": "4"}]}}}}}, {"name": "StatefulPartitionedCall/BigGAN/Generator/GBlock_11/BatchNorm_1/add_1/y", "op": "Const", "attr": {"dtype": {"type": "DT_FLOAT"}, "value": {"tensor": {"dtype": "DT_FLOAT", "tensorShape": {}}}}}, {"name": "StatefulPartitionedCall/BigGAN/Generator/GBlock_11/BatchNorm_1/add/x", "op": "Const", "attr": {"dtype": {"type": "DT_FLOAT"}, "value": {"tensor": {"dtype": "DT_FLOAT", "tensorShape": {}}}}}, {"name": "StatefulPartitionedCall/BigGAN/Generator/GBlock_11/BatchNorm_1/sn/scale/dense_204/MatMul/ReadVariableOp", "op": "Const", "attr": {"dtype": {"type": "DT_FLOAT"}, "value": {"tensor": {"dtype": "DT_FLOAT", "tensorShape": {"dim": [{"size": "256"}, {"size": "64"}]}}}}}, {"name": "StatefulPartitionedCall/BigGAN/Generator/GBlock_11/BatchNorm_1/strided_slice_2/stack", "op": "Const", "attr": {"value": {"tensor": {"dtype": "DT_INT32", "tensorShape": {"dim": [{"size": "4"}]}}}, "dtype": {"type": "DT_INT32"}}}, {"name": "StatefulPartitionedCall/BigGAN/Generator/GBlock_11/BatchNorm_1/strided_slice_2/stack_1", "op": "Const", "attr": {"dtype": {"type": "DT_INT32"}, "value": {"tensor": {"dtype": "DT_INT32", "tensorShape": {"dim": [{"size": "4"}]}}}}}, {"name": "StatefulPartitionedCall/BigGAN/Generator/GBlock_11/BatchNorm_1/strided_slice_2/stack_2", "op": "Const", "attr": {"dtype": {"type": "DT_INT32"}, "value": {"tensor": {"dtype": "DT_INT32", "tensorShape": {"dim": [{"size": "4"}]}}}}}, {"name": "StatefulPartitionedCall/BigGAN/Generator/GBlock_11/BatchNorm_1/sn/offset/dense_205/MatMul/ReadVariableOp", "op": "Const", "attr": {"value": {"tensor": {"dtype": "DT_FLOAT", "tensorShape": {"dim": [{"size": "256"}, {"size": "64"}]}}}, "dtype": {"type": "DT_FLOAT"}}}, {"name": "StatefulPartitionedCall/BigGAN/Generator/GBlock_11/BatchNorm_1/strided_slice_3/stack", "op": "Const", "attr": {"value": {"tensor": {"dtype": "DT_INT32", "tensorShape": {"dim": [{"size": "4"}]}}}, "dtype": {"type": "DT_INT32"}}}, {"name": "StatefulPartitionedCall/BigGAN/Generator/GBlock_11/BatchNorm_1/strided_slice_3/stack_1", "op": "Const", "attr": {"value": {"tensor": {"dtype": "DT_INT32", "tensorShape": {"dim": [{"size": "4"}]}}}, "dtype": {"type": "DT_INT32"}}}, {"name": "StatefulPartitionedCall/BigGAN/Generator/GBlock_11/BatchNorm_1/strided_slice_3/stack_2", "op": "Const", "attr": {"dtype": {"type": "DT_INT32"}, "value": {"tensor": {"dtype": "DT_INT32", "tensorShape": {"dim": [{"size": "4"}]}}}}}, {"name": "StatefulPartitionedCall/BigGAN/Generator/GBlock_11/up_sampling2d_50/mul", "op": "Const", "attr": {"value": {"tensor": {"dtype": "DT_INT32", "tensorShape": {"dim": [{"size": "2"}]}}}, "dtype": {"type": "DT_INT32"}}}, {"name": "StatefulPartitionedCall/BigGAN/Generator/GBlock_11/sn/conv1/conv2d_110/Conv2D/ReadVariableOp", "op": "Const", "attr": {"dtype": {"type": "DT_FLOAT"}, "value": {"tensor": {"dtype": "DT_FLOAT", "tensorShape": {"dim": [{"size": "3"}, {"size": "3"}, {"size": "64"}, {"size": "64"}]}}}}}, {"name": "StatefulPartitionedCall/BigGAN/Generator/GBlock_11/sn/conv1/conv2d_110/BiasAdd/ReadVariableOp", "op": "Const", "attr": {"dtype": {"type": "DT_FLOAT"}, "value": {"tensor": {"dtype": "DT_FLOAT", "tensorShape": {"dim": [{"size": "64"}]}}}}}, {"name": "StatefulPartitionedCall/BigGAN/Generator/GBlock_11/BatchNorm_2/strided_slice/stack", "op": "Const", "attr": {"value": {"tensor": {"dtype": "DT_INT32", "tensorShape": {"dim": [{"size": "4"}]}}}, "dtype": {"type": "DT_INT32"}}}, {"name": "StatefulPartitionedCall/BigGAN/Generator/GBlock_11/BatchNorm_2/strided_slice/stack_1", "op": "Const", "attr": {"dtype": {"type": "DT_INT32"}, "value": {"tensor": {"dtype": "DT_INT32", "tensorShape": {"dim": [{"size": "4"}]}}}}}, {"name": "StatefulPartitionedCall/BigGAN/Generator/GBlock_11/BatchNorm_2/strided_slice/stack_2", "op": "Const", "attr": {"value": {"tensor": {"dtype": "DT_INT32", "tensorShape": {"dim": [{"size": "4"}]}}}, "dtype": {"type": "DT_INT32"}}}, {"name": "StatefulPartitionedCall/BigGAN/Generator/GBlock_11/BatchNorm_2/strided_slice_1/stack", "op": "Const", "attr": {"dtype": {"type": "DT_INT32"}, "value": {"tensor": {"dtype": "DT_INT32", "tensorShape": {"dim": [{"size": "4"}]}}}}}, {"name": "StatefulPartitionedCall/BigGAN/Generator/GBlock_11/BatchNorm_2/strided_slice_1/stack_1", "op": "Const", "attr": {"value": {"tensor": {"dtype": "DT_INT32", "tensorShape": {"dim": [{"size": "4"}]}}}, "dtype": {"type": "DT_INT32"}}}, {"name": "StatefulPartitionedCall/BigGAN/Generator/GBlock_11/BatchNorm_2/strided_slice_1/stack_2", "op": "Const", "attr": {"dtype": {"type": "DT_INT32"}, "value": {"tensor": {"dtype": "DT_INT32", "tensorShape": {"dim": [{"size": "4"}]}}}}}, {"name": "StatefulPartitionedCall/BigGAN/Generator/GBlock_11/BatchNorm_2/add_1/y", "op": "Const", "attr": {"value": {"tensor": {"dtype": "DT_FLOAT", "tensorShape": {}}}, "dtype": {"type": "DT_FLOAT"}}}, {"name": "StatefulPartitionedCall/BigGAN/Generator/GBlock_11/BatchNorm_2/add/x", "op": "Const", "attr": {"dtype": {"type": "DT_FLOAT"}, "value": {"tensor": {"dtype": "DT_FLOAT", "tensorShape": {}}}}}, {"name": "StatefulPartitionedCall/BigGAN/Generator/GBlock_11/BatchNorm_2/sn/scale/dense_206/MatMul/ReadVariableOp", "op": "Const", "attr": {"value": {"tensor": {"dtype": "DT_FLOAT", "tensorShape": {"dim": [{"size": "256"}, {"size": "64"}]}}}, "dtype": {"type": "DT_FLOAT"}}}, {"name": "StatefulPartitionedCall/BigGAN/Generator/GBlock_11/BatchNorm_2/strided_slice_2/stack", "op": "Const", "attr": {"dtype": {"type": "DT_INT32"}, "value": {"tensor": {"dtype": "DT_INT32", "tensorShape": {"dim": [{"size": "4"}]}}}}}, {"name": "StatefulPartitionedCall/BigGAN/Generator/GBlock_11/BatchNorm_2/strided_slice_2/stack_1", "op": "Const", "attr": {"dtype": {"type": "DT_INT32"}, "value": {"tensor": {"dtype": "DT_INT32", "tensorShape": {"dim": [{"size": "4"}]}}}}}, {"name": "StatefulPartitionedCall/BigGAN/Generator/GBlock_11/BatchNorm_2/strided_slice_2/stack_2", "op": "Const", "attr": {"value": {"tensor": {"dtype": "DT_INT32", "tensorShape": {"dim": [{"size": "4"}]}}}, "dtype": {"type": "DT_INT32"}}}, {"name": "StatefulPartitionedCall/BigGAN/Generator/GBlock_11/BatchNorm_2/sn/offset/dense_207/MatMul/ReadVariableOp", "op": "Const", "attr": {"value": {"tensor": {"dtype": "DT_FLOAT", "tensorShape": {"dim": [{"size": "256"}, {"size": "64"}]}}}, "dtype": {"type": "DT_FLOAT"}}}, {"name": "StatefulPartitionedCall/BigGAN/Generator/GBlock_11/BatchNorm_2/strided_slice_3/stack", "op": "Const", "attr": {"dtype": {"type": "DT_INT32"}, "value": {"tensor": {"dtype": "DT_INT32", "tensorShape": {"dim": [{"size": "4"}]}}}}}, {"name": "StatefulPartitionedCall/BigGAN/Generator/GBlock_11/BatchNorm_2/strided_slice_3/stack_1", "op": "Const", "attr": {"value": {"tensor": {"dtype": "DT_INT32", "tensorShape": {"dim": [{"size": "4"}]}}}, "dtype": {"type": "DT_INT32"}}}, {"name": "StatefulPartitionedCall/BigGAN/Generator/GBlock_11/BatchNorm_2/strided_slice_3/stack_2", "op": "Const", "attr": {"dtype": {"type": "DT_INT32"}, "value": {"tensor": {"dtype": "DT_INT32", "tensorShape": {"dim": [{"size": "4"}]}}}}}, {"name": "StatefulPartitionedCall/BigGAN/Generator/GBlock_11/sn/conv2/conv2d_111/Conv2D/ReadVariableOp", "op": "Const", "attr": {"value": {"tensor": {"dtype": "DT_FLOAT", "tensorShape": {"dim": [{"size": "3"}, {"size": "3"}, {"size": "64"}, {"size": "64"}]}}}, "dtype": {"type": "DT_FLOAT"}}}, {"name": "StatefulPartitionedCall/BigGAN/Generator/GBlock_11/sn/conv2/conv2d_111/BiasAdd/ReadVariableOp", "op": "Const", "attr": {"dtype": {"type": "DT_FLOAT"}, "value": {"tensor": {"dtype": "DT_FLOAT", "tensorShape": {"dim": [{"size": "64"}]}}}}}, {"name": "StatefulPartitionedCall/BigGAN/Generator/GBlock_11/BatchNorm_3/strided_slice/stack", "op": "Const", "attr": {"value": {"tensor": {"dtype": "DT_INT32", "tensorShape": {"dim": [{"size": "4"}]}}}, "dtype": {"type": "DT_INT32"}}}, {"name": "StatefulPartitionedCall/BigGAN/Generator/GBlock_11/BatchNorm_3/strided_slice/stack_1", "op": "Const", "attr": {"dtype": {"type": "DT_INT32"}, "value": {"tensor": {"dtype": "DT_INT32", "tensorShape": {"dim": [{"size": "4"}]}}}}}, {"name": "StatefulPartitionedCall/BigGAN/Generator/GBlock_11/BatchNorm_3/strided_slice/stack_2", "op": "Const", "attr": {"value": {"tensor": {"dtype": "DT_INT32", "tensorShape": {"dim": [{"size": "4"}]}}}, "dtype": {"type": "DT_INT32"}}}, {"name": "StatefulPartitionedCall/BigGAN/Generator/GBlock_11/BatchNorm_3/strided_slice_1/stack", "op": "Const", "attr": {"dtype": {"type": "DT_INT32"}, "value": {"tensor": {"dtype": "DT_INT32", "tensorShape": {"dim": [{"size": "4"}]}}}}}, {"name": "StatefulPartitionedCall/BigGAN/Generator/GBlock_11/BatchNorm_3/strided_slice_1/stack_1", "op": "Const", "attr": {"value": {"tensor": {"dtype": "DT_INT32", "tensorShape": {"dim": [{"size": "4"}]}}}, "dtype": {"type": "DT_INT32"}}}, {"name": "StatefulPartitionedCall/BigGAN/Generator/GBlock_11/BatchNorm_3/strided_slice_1/stack_2", "op": "Const", "attr": {"value": {"tensor": {"dtype": "DT_INT32", "tensorShape": {"dim": [{"size": "4"}]}}}, "dtype": {"type": "DT_INT32"}}}, {"name": "StatefulPartitionedCall/BigGAN/Generator/GBlock_11/BatchNorm_3/add_1/y", "op": "Const", "attr": {"dtype": {"type": "DT_FLOAT"}, "value": {"tensor": {"dtype": "DT_FLOAT", "tensorShape": {}}}}}, {"name": "StatefulPartitionedCall/BigGAN/Generator/GBlock_11/BatchNorm_3/add/x", "op": "Const", "attr": {"dtype": {"type": "DT_FLOAT"}, "value": {"tensor": {"dtype": "DT_FLOAT", "tensorShape": {}}}}}, {"name": "StatefulPartitionedCall/BigGAN/Generator/GBlock_11/BatchNorm_3/sn/scale/dense_208/MatMul/ReadVariableOp", "op": "Const", "attr": {"dtype": {"type": "DT_FLOAT"}, "value": {"tensor": {"dtype": "DT_FLOAT", "tensorShape": {"dim": [{"size": "256"}, {"size": "64"}]}}}}}, {"name": "StatefulPartitionedCall/BigGAN/Generator/GBlock_11/BatchNorm_3/strided_slice_2/stack", "op": "Const", "attr": {"dtype": {"type": "DT_INT32"}, "value": {"tensor": {"dtype": "DT_INT32", "tensorShape": {"dim": [{"size": "4"}]}}}}}, {"name": "StatefulPartitionedCall/BigGAN/Generator/GBlock_11/BatchNorm_3/strided_slice_2/stack_1", "op": "Const", "attr": {"value": {"tensor": {"dtype": "DT_INT32", "tensorShape": {"dim": [{"size": "4"}]}}}, "dtype": {"type": "DT_INT32"}}}, {"name": "StatefulPartitionedCall/BigGAN/Generator/GBlock_11/BatchNorm_3/strided_slice_2/stack_2", "op": "Const", "attr": {"dtype": {"type": "DT_INT32"}, "value": {"tensor": {"dtype": "DT_INT32", "tensorShape": {"dim": [{"size": "4"}]}}}}}, {"name": "StatefulPartitionedCall/BigGAN/Generator/GBlock_11/BatchNorm_3/sn/offset/dense_209/MatMul/ReadVariableOp", "op": "Const", "attr": {"value": {"tensor": {"dtype": "DT_FLOAT", "tensorShape": {"dim": [{"size": "256"}, {"size": "64"}]}}}, "dtype": {"type": "DT_FLOAT"}}}, {"name": "StatefulPartitionedCall/BigGAN/Generator/GBlock_11/BatchNorm_3/strided_slice_3/stack", "op": "Const", "attr": {"dtype": {"type": "DT_INT32"}, "value": {"tensor": {"dtype": "DT_INT32", "tensorShape": {"dim": [{"size": "4"}]}}}}}, {"name": "StatefulPartitionedCall/BigGAN/Generator/GBlock_11/BatchNorm_3/strided_slice_3/stack_1", "op": "Const", "attr": {"dtype": {"type": "DT_INT32"}, "value": {"tensor": {"dtype": "DT_INT32", "tensorShape": {"dim": [{"size": "4"}]}}}}}, {"name": "StatefulPartitionedCall/BigGAN/Generator/GBlock_11/BatchNorm_3/strided_slice_3/stack_2", "op": "Const", "attr": {"value": {"tensor": {"dtype": "DT_INT32", "tensorShape": {"dim": [{"size": "4"}]}}}, "dtype": {"type": "DT_INT32"}}}, {"name": "StatefulPartitionedCall/BigGAN/Generator/GBlock_11/sn/conv3/conv2d_112/Conv2D/ReadVariableOp", "op": "Const", "attr": {"dtype": {"type": "DT_FLOAT"}, "value": {"tensor": {"dtype": "DT_FLOAT", "tensorShape": {"dim": [{"size": "1"}, {"size": "1"}, {"size": "64"}, {"size": "128"}]}}}}}, {"name": "StatefulPartitionedCall/BigGAN/Generator/GBlock_11/sn/conv3/conv2d_112/BiasAdd/ReadVariableOp", "op": "Const", "attr": {"dtype": {"type": "DT_FLOAT"}, "value": {"tensor": {"dtype": "DT_FLOAT", "tensorShape": {"dim": [{"size": "128"}]}}}}}, {"name": "StatefulPartitionedCall/BigGAN/Generator/GBlock_10/BatchNorm_0/strided_slice/stack", "op": "Const", "attr": {"value": {"tensor": {"dtype": "DT_INT32", "tensorShape": {"dim": [{"size": "4"}]}}}, "dtype": {"type": "DT_INT32"}}}, {"name": "StatefulPartitionedCall/BigGAN/Generator/GBlock_10/BatchNorm_0/strided_slice/stack_1", "op": "Const", "attr": {"value": {"tensor": {"dtype": "DT_INT32", "tensorShape": {"dim": [{"size": "4"}]}}}, "dtype": {"type": "DT_INT32"}}}, {"name": "StatefulPartitionedCall/BigGAN/Generator/GBlock_10/BatchNorm_0/strided_slice/stack_2", "op": "Const", "attr": {"dtype": {"type": "DT_INT32"}, "value": {"tensor": {"dtype": "DT_INT32", "tensorShape": {"dim": [{"size": "4"}]}}}}}, {"name": "StatefulPartitionedCall/BigGAN/Generator/GBlock_10/BatchNorm_0/strided_slice_1/stack", "op": "Const", "attr": {"value": {"tensor": {"dtype": "DT_INT32", "tensorShape": {"dim": [{"size": "4"}]}}}, "dtype": {"type": "DT_INT32"}}}, {"name": "StatefulPartitionedCall/BigGAN/Generator/GBlock_10/BatchNorm_0/strided_slice_1/stack_1", "op": "Const", "attr": {"value": {"tensor": {"dtype": "DT_INT32", "tensorShape": {"dim": [{"size": "4"}]}}}, "dtype": {"type": "DT_INT32"}}}, {"name": "StatefulPartitionedCall/BigGAN/Generator/GBlock_10/BatchNorm_0/strided_slice_1/stack_2", "op": "Const", "attr": {"dtype": {"type": "DT_INT32"}, "value": {"tensor": {"dtype": "DT_INT32", "tensorShape": {"dim": [{"size": "4"}]}}}}}, {"name": "StatefulPartitionedCall/BigGAN/Generator/GBlock_10/BatchNorm_0/add_1/y", "op": "Const", "attr": {"dtype": {"type": "DT_FLOAT"}, "value": {"tensor": {"dtype": "DT_FLOAT", "tensorShape": {}}}}}, {"name": "StatefulPartitionedCall/BigGAN/Generator/GBlock_10/BatchNorm_0/add/x", "op": "Const", "attr": {"dtype": {"type": "DT_FLOAT"}, "value": {"tensor": {"dtype": "DT_FLOAT", "tensorShape": {}}}}}, {"name": "StatefulPartitionedCall/BigGAN/Generator/GBlock_10/BatchNorm_0/sn/scale/dense_194/MatMul/ReadVariableOp", "op": "Const", "attr": {"dtype": {"type": "DT_FLOAT"}, "value": {"tensor": {"dtype": "DT_FLOAT", "tensorShape": {"dim": [{"size": "256"}, {"size": "256"}]}}}}}, {"name": "StatefulPartitionedCall/BigGAN/Generator/GBlock_10/BatchNorm_0/strided_slice_2/stack", "op": "Const", "attr": {"dtype": {"type": "DT_INT32"}, "value": {"tensor": {"dtype": "DT_INT32", "tensorShape": {"dim": [{"size": "4"}]}}}}}, {"name": "StatefulPartitionedCall/BigGAN/Generator/GBlock_10/BatchNorm_0/strided_slice_2/stack_1", "op": "Const", "attr": {"value": {"tensor": {"dtype": "DT_INT32", "tensorShape": {"dim": [{"size": "4"}]}}}, "dtype": {"type": "DT_INT32"}}}, {"name": "StatefulPartitionedCall/BigGAN/Generator/GBlock_10/BatchNorm_0/strided_slice_2/stack_2", "op": "Const", "attr": {"value": {"tensor": {"dtype": "DT_INT32", "tensorShape": {"dim": [{"size": "4"}]}}}, "dtype": {"type": "DT_INT32"}}}, {"name": "StatefulPartitionedCall/BigGAN/Generator/GBlock_10/BatchNorm_0/sn/offset/dense_195/MatMul/ReadVariableOp", "op": "Const", "attr": {"dtype": {"type": "DT_FLOAT"}, "value": {"tensor": {"dtype": "DT_FLOAT", "tensorShape": {"dim": [{"size": "256"}, {"size": "256"}]}}}}}, {"name": "StatefulPartitionedCall/BigGAN/Generator/GBlock_10/BatchNorm_0/strided_slice_3/stack", "op": "Const", "attr": {"value": {"tensor": {"dtype": "DT_INT32", "tensorShape": {"dim": [{"size": "4"}]}}}, "dtype": {"type": "DT_INT32"}}}, {"name": "StatefulPartitionedCall/BigGAN/Generator/GBlock_10/BatchNorm_0/strided_slice_3/stack_1", "op": "Const", "attr": {"dtype": {"type": "DT_INT32"}, "value": {"tensor": {"dtype": "DT_INT32", "tensorShape": {"dim": [{"size": "4"}]}}}}}, {"name": "StatefulPartitionedCall/BigGAN/Generator/GBlock_10/BatchNorm_0/strided_slice_3/stack_2", "op": "Const", "attr": {"value": {"tensor": {"dtype": "DT_INT32", "tensorShape": {"dim": [{"size": "4"}]}}}, "dtype": {"type": "DT_INT32"}}}, {"name": "StatefulPartitionedCall/BigGAN/Generator/GBlock_10/sn/conv0/conv2d_105/Conv2D/ReadVariableOp", "op": "Const", "attr": {"value": {"tensor": {"dtype": "DT_FLOAT", "tensorShape": {"dim": [{"size": "1"}, {"size": "1"}, {"size": "256"}, {"size": "64"}]}}}, "dtype": {"type": "DT_FLOAT"}}}, {"name": "StatefulPartitionedCall/BigGAN/Generator/GBlock_10/sn/conv0/conv2d_105/BiasAdd/ReadVariableOp", "op": "Const", "attr": {"value": {"tensor": {"dtype": "DT_FLOAT", "tensorShape": {"dim": [{"size": "64"}]}}}, "dtype": {"type": "DT_FLOAT"}}}, {"name": "StatefulPartitionedCall/BigGAN/Generator/GBlock_10/BatchNorm_1/strided_slice/stack", "op": "Const", "attr": {"dtype": {"type": "DT_INT32"}, "value": {"tensor": {"dtype": "DT_INT32", "tensorShape": {"dim": [{"size": "4"}]}}}}}, {"name": "StatefulPartitionedCall/BigGAN/Generator/GBlock_10/BatchNorm_1/strided_slice/stack_1", "op": "Const", "attr": {"dtype": {"type": "DT_INT32"}, "value": {"tensor": {"dtype": "DT_INT32", "tensorShape": {"dim": [{"size": "4"}]}}}}}, {"name": "StatefulPartitionedCall/BigGAN/Generator/GBlock_10/BatchNorm_1/strided_slice/stack_2", "op": "Const", "attr": {"dtype": {"type": "DT_INT32"}, "value": {"tensor": {"dtype": "DT_INT32", "tensorShape": {"dim": [{"size": "4"}]}}}}}, {"name": "StatefulPartitionedCall/BigGAN/Generator/GBlock_10/BatchNorm_1/strided_slice_1/stack", "op": "Const", "attr": {"dtype": {"type": "DT_INT32"}, "value": {"tensor": {"dtype": "DT_INT32", "tensorShape": {"dim": [{"size": "4"}]}}}}}, {"name": "StatefulPartitionedCall/BigGAN/Generator/GBlock_10/BatchNorm_1/strided_slice_1/stack_1", "op": "Const", "attr": {"dtype": {"type": "DT_INT32"}, "value": {"tensor": {"dtype": "DT_INT32", "tensorShape": {"dim": [{"size": "4"}]}}}}}, {"name": "StatefulPartitionedCall/BigGAN/Generator/GBlock_10/BatchNorm_1/strided_slice_1/stack_2", "op": "Const", "attr": {"dtype": {"type": "DT_INT32"}, "value": {"tensor": {"dtype": "DT_INT32", "tensorShape": {"dim": [{"size": "4"}]}}}}}, {"name": "StatefulPartitionedCall/BigGAN/Generator/GBlock_10/BatchNorm_1/add_1/y", "op": "Const", "attr": {"value": {"tensor": {"dtype": "DT_FLOAT", "tensorShape": {}}}, "dtype": {"type": "DT_FLOAT"}}}, {"name": "StatefulPartitionedCall/BigGAN/Generator/GBlock_10/BatchNorm_1/add/x", "op": "Const", "attr": {"value": {"tensor": {"dtype": "DT_FLOAT", "tensorShape": {}}}, "dtype": {"type": "DT_FLOAT"}}}, {"name": "StatefulPartitionedCall/BigGAN/Generator/GBlock_10/BatchNorm_1/sn/scale/dense_196/MatMul/ReadVariableOp", "op": "Const", "attr": {"value": {"tensor": {"dtype": "DT_FLOAT", "tensorShape": {"dim": [{"size": "256"}, {"size": "64"}]}}}, "dtype": {"type": "DT_FLOAT"}}}, {"name": "StatefulPartitionedCall/BigGAN/Generator/GBlock_10/BatchNorm_1/strided_slice_2/stack", "op": "Const", "attr": {"value": {"tensor": {"dtype": "DT_INT32", "tensorShape": {"dim": [{"size": "4"}]}}}, "dtype": {"type": "DT_INT32"}}}, {"name": "StatefulPartitionedCall/BigGAN/Generator/GBlock_10/BatchNorm_1/strided_slice_2/stack_1", "op": "Const", "attr": {"dtype": {"type": "DT_INT32"}, "value": {"tensor": {"dtype": "DT_INT32", "tensorShape": {"dim": [{"size": "4"}]}}}}}, {"name": "StatefulPartitionedCall/BigGAN/Generator/GBlock_10/BatchNorm_1/strided_slice_2/stack_2", "op": "Const", "attr": {"value": {"tensor": {"dtype": "DT_INT32", "tensorShape": {"dim": [{"size": "4"}]}}}, "dtype": {"type": "DT_INT32"}}}, {"name": "StatefulPartitionedCall/BigGAN/Generator/GBlock_10/BatchNorm_1/sn/offset/dense_197/MatMul/ReadVariableOp", "op": "Const", "attr": {"dtype": {"type": "DT_FLOAT"}, "value": {"tensor": {"dtype": "DT_FLOAT", "tensorShape": {"dim": [{"size": "256"}, {"size": "64"}]}}}}}, {"name": "StatefulPartitionedCall/BigGAN/Generator/GBlock_10/BatchNorm_1/strided_slice_3/stack", "op": "Const", "attr": {"value": {"tensor": {"dtype": "DT_INT32", "tensorShape": {"dim": [{"size": "4"}]}}}, "dtype": {"type": "DT_INT32"}}}, {"name": "StatefulPartitionedCall/BigGAN/Generator/GBlock_10/BatchNorm_1/strided_slice_3/stack_1", "op": "Const", "attr": {"dtype": {"type": "DT_INT32"}, "value": {"tensor": {"dtype": "DT_INT32", "tensorShape": {"dim": [{"size": "4"}]}}}}}, {"name": "StatefulPartitionedCall/BigGAN/Generator/GBlock_10/BatchNorm_1/strided_slice_3/stack_2", "op": "Const", "attr": {"value": {"tensor": {"dtype": "DT_INT32", "tensorShape": {"dim": [{"size": "4"}]}}}, "dtype": {"type": "DT_INT32"}}}, {"name": "StatefulPartitionedCall/BigGAN/Generator/GBlock_10/sn/conv1/conv2d_106/Conv2D/ReadVariableOp", "op": "Const", "attr": {"value": {"tensor": {"dtype": "DT_FLOAT", "tensorShape": {"dim": [{"size": "3"}, {"size": "3"}, {"size": "64"}, {"size": "64"}]}}}, "dtype": {"type": "DT_FLOAT"}}}, {"name": "StatefulPartitionedCall/BigGAN/Generator/GBlock_10/sn/conv1/conv2d_106/BiasAdd/ReadVariableOp", "op": "Const", "attr": {"value": {"tensor": {"dtype": "DT_FLOAT", "tensorShape": {"dim": [{"size": "64"}]}}}, "dtype": {"type": "DT_FLOAT"}}}, {"name": "StatefulPartitionedCall/BigGAN/Generator/GBlock_10/BatchNorm_2/strided_slice/stack", "op": "Const", "attr": {"value": {"tensor": {"dtype": "DT_INT32", "tensorShape": {"dim": [{"size": "4"}]}}}, "dtype": {"type": "DT_INT32"}}}, {"name": "StatefulPartitionedCall/BigGAN/Generator/GBlock_10/BatchNorm_2/strided_slice/stack_1", "op": "Const", "attr": {"value": {"tensor": {"dtype": "DT_INT32", "tensorShape": {"dim": [{"size": "4"}]}}}, "dtype": {"type": "DT_INT32"}}}, {"name": "StatefulPartitionedCall/BigGAN/Generator/GBlock_10/BatchNorm_2/strided_slice/stack_2", "op": "Const", "attr": {"dtype": {"type": "DT_INT32"}, "value": {"tensor": {"dtype": "DT_INT32", "tensorShape": {"dim": [{"size": "4"}]}}}}}, {"name": "StatefulPartitionedCall/BigGAN/Generator/GBlock_10/BatchNorm_2/strided_slice_1/stack", "op": "Const", "attr": {"dtype": {"type": "DT_INT32"}, "value": {"tensor": {"dtype": "DT_INT32", "tensorShape": {"dim": [{"size": "4"}]}}}}}, {"name": "StatefulPartitionedCall/BigGAN/Generator/GBlock_10/BatchNorm_2/strided_slice_1/stack_1", "op": "Const", "attr": {"dtype": {"type": "DT_INT32"}, "value": {"tensor": {"dtype": "DT_INT32", "tensorShape": {"dim": [{"size": "4"}]}}}}}, {"name": "StatefulPartitionedCall/BigGAN/Generator/GBlock_10/BatchNorm_2/strided_slice_1/stack_2", "op": "Const", "attr": {"value": {"tensor": {"dtype": "DT_INT32", "tensorShape": {"dim": [{"size": "4"}]}}}, "dtype": {"type": "DT_INT32"}}}, {"name": "StatefulPartitionedCall/BigGAN/Generator/GBlock_10/BatchNorm_2/add_1/y", "op": "Const", "attr": {"dtype": {"type": "DT_FLOAT"}, "value": {"tensor": {"dtype": "DT_FLOAT", "tensorShape": {}}}}}, {"name": "StatefulPartitionedCall/BigGAN/Generator/GBlock_10/BatchNorm_2/add/x", "op": "Const", "attr": {"dtype": {"type": "DT_FLOAT"}, "value": {"tensor": {"dtype": "DT_FLOAT", "tensorShape": {}}}}}, {"name": "StatefulPartitionedCall/BigGAN/Generator/GBlock_10/BatchNorm_2/sn/scale/dense_198/MatMul/ReadVariableOp", "op": "Const", "attr": {"dtype": {"type": "DT_FLOAT"}, "value": {"tensor": {"dtype": "DT_FLOAT", "tensorShape": {"dim": [{"size": "256"}, {"size": "64"}]}}}}}, {"name": "StatefulPartitionedCall/BigGAN/Generator/GBlock_10/BatchNorm_2/strided_slice_2/stack", "op": "Const", "attr": {"value": {"tensor": {"dtype": "DT_INT32", "tensorShape": {"dim": [{"size": "4"}]}}}, "dtype": {"type": "DT_INT32"}}}, {"name": "StatefulPartitionedCall/BigGAN/Generator/GBlock_10/BatchNorm_2/strided_slice_2/stack_1", "op": "Const", "attr": {"dtype": {"type": "DT_INT32"}, "value": {"tensor": {"dtype": "DT_INT32", "tensorShape": {"dim": [{"size": "4"}]}}}}}, {"name": "StatefulPartitionedCall/BigGAN/Generator/GBlock_10/BatchNorm_2/strided_slice_2/stack_2", "op": "Const", "attr": {"value": {"tensor": {"dtype": "DT_INT32", "tensorShape": {"dim": [{"size": "4"}]}}}, "dtype": {"type": "DT_INT32"}}}, {"name": "StatefulPartitionedCall/BigGAN/Generator/GBlock_10/BatchNorm_2/sn/offset/dense_199/MatMul/ReadVariableOp", "op": "Const", "attr": {"value": {"tensor": {"dtype": "DT_FLOAT", "tensorShape": {"dim": [{"size": "256"}, {"size": "64"}]}}}, "dtype": {"type": "DT_FLOAT"}}}, {"name": "StatefulPartitionedCall/BigGAN/Generator/GBlock_10/BatchNorm_2/strided_slice_3/stack", "op": "Const", "attr": {"value": {"tensor": {"dtype": "DT_INT32", "tensorShape": {"dim": [{"size": "4"}]}}}, "dtype": {"type": "DT_INT32"}}}, {"name": "StatefulPartitionedCall/BigGAN/Generator/GBlock_10/BatchNorm_2/strided_slice_3/stack_1", "op": "Const", "attr": {"value": {"tensor": {"dtype": "DT_INT32", "tensorShape": {"dim": [{"size": "4"}]}}}, "dtype": {"type": "DT_INT32"}}}, {"name": "StatefulPartitionedCall/BigGAN/Generator/GBlock_10/BatchNorm_2/strided_slice_3/stack_2", "op": "Const", "attr": {"dtype": {"type": "DT_INT32"}, "value": {"tensor": {"dtype": "DT_INT32", "tensorShape": {"dim": [{"size": "4"}]}}}}}, {"name": "StatefulPartitionedCall/BigGAN/Generator/GBlock_10/sn/conv2/conv2d_107/Conv2D/ReadVariableOp", "op": "Const", "attr": {"dtype": {"type": "DT_FLOAT"}, "value": {"tensor": {"dtype": "DT_FLOAT", "tensorShape": {"dim": [{"size": "3"}, {"size": "3"}, {"size": "64"}, {"size": "64"}]}}}}}, {"name": "StatefulPartitionedCall/BigGAN/Generator/GBlock_10/sn/conv2/conv2d_107/BiasAdd/ReadVariableOp", "op": "Const", "attr": {"dtype": {"type": "DT_FLOAT"}, "value": {"tensor": {"dtype": "DT_FLOAT", "tensorShape": {"dim": [{"size": "64"}]}}}}}, {"name": "StatefulPartitionedCall/BigGAN/Generator/GBlock_10/BatchNorm_3/strided_slice/stack", "op": "Const", "attr": {"dtype": {"type": "DT_INT32"}, "value": {"tensor": {"dtype": "DT_INT32", "tensorShape": {"dim": [{"size": "4"}]}}}}}, {"name": "StatefulPartitionedCall/BigGAN/Generator/GBlock_10/BatchNorm_3/strided_slice/stack_1", "op": "Const", "attr": {"value": {"tensor": {"dtype": "DT_INT32", "tensorShape": {"dim": [{"size": "4"}]}}}, "dtype": {"type": "DT_INT32"}}}, {"name": "StatefulPartitionedCall/BigGAN/Generator/GBlock_10/BatchNorm_3/strided_slice/stack_2", "op": "Const", "attr": {"dtype": {"type": "DT_INT32"}, "value": {"tensor": {"dtype": "DT_INT32", "tensorShape": {"dim": [{"size": "4"}]}}}}}, {"name": "StatefulPartitionedCall/BigGAN/Generator/GBlock_10/BatchNorm_3/strided_slice_1/stack", "op": "Const", "attr": {"value": {"tensor": {"dtype": "DT_INT32", "tensorShape": {"dim": [{"size": "4"}]}}}, "dtype": {"type": "DT_INT32"}}}, {"name": "StatefulPartitionedCall/BigGAN/Generator/GBlock_10/BatchNorm_3/strided_slice_1/stack_1", "op": "Const", "attr": {"dtype": {"type": "DT_INT32"}, "value": {"tensor": {"dtype": "DT_INT32", "tensorShape": {"dim": [{"size": "4"}]}}}}}, {"name": "StatefulPartitionedCall/BigGAN/Generator/GBlock_10/BatchNorm_3/strided_slice_1/stack_2", "op": "Const", "attr": {"value": {"tensor": {"dtype": "DT_INT32", "tensorShape": {"dim": [{"size": "4"}]}}}, "dtype": {"type": "DT_INT32"}}}, {"name": "StatefulPartitionedCall/BigGAN/Generator/GBlock_10/BatchNorm_3/add_1/y", "op": "Const", "attr": {"dtype": {"type": "DT_FLOAT"}, "value": {"tensor": {"dtype": "DT_FLOAT", "tensorShape": {}}}}}, {"name": "StatefulPartitionedCall/BigGAN/Generator/GBlock_10/BatchNorm_3/add/x", "op": "Const", "attr": {"value": {"tensor": {"dtype": "DT_FLOAT", "tensorShape": {}}}, "dtype": {"type": "DT_FLOAT"}}}, {"name": "StatefulPartitionedCall/BigGAN/Generator/GBlock_10/BatchNorm_3/sn/scale/dense_200/MatMul/ReadVariableOp", "op": "Const", "attr": {"dtype": {"type": "DT_FLOAT"}, "value": {"tensor": {"dtype": "DT_FLOAT", "tensorShape": {"dim": [{"size": "256"}, {"size": "64"}]}}}}}, {"name": "StatefulPartitionedCall/BigGAN/Generator/GBlock_10/BatchNorm_3/strided_slice_2/stack", "op": "Const", "attr": {"dtype": {"type": "DT_INT32"}, "value": {"tensor": {"dtype": "DT_INT32", "tensorShape": {"dim": [{"size": "4"}]}}}}}, {"name": "StatefulPartitionedCall/BigGAN/Generator/GBlock_10/BatchNorm_3/strided_slice_2/stack_1", "op": "Const", "attr": {"dtype": {"type": "DT_INT32"}, "value": {"tensor": {"dtype": "DT_INT32", "tensorShape": {"dim": [{"size": "4"}]}}}}}, {"name": "StatefulPartitionedCall/BigGAN/Generator/GBlock_10/BatchNorm_3/strided_slice_2/stack_2", "op": "Const", "attr": {"value": {"tensor": {"dtype": "DT_INT32", "tensorShape": {"dim": [{"size": "4"}]}}}, "dtype": {"type": "DT_INT32"}}}, {"name": "StatefulPartitionedCall/BigGAN/Generator/GBlock_10/BatchNorm_3/sn/offset/dense_201/MatMul/ReadVariableOp", "op": "Const", "attr": {"dtype": {"type": "DT_FLOAT"}, "value": {"tensor": {"dtype": "DT_FLOAT", "tensorShape": {"dim": [{"size": "256"}, {"size": "64"}]}}}}}, {"name": "StatefulPartitionedCall/BigGAN/Generator/GBlock_10/BatchNorm_3/strided_slice_3/stack", "op": "Const", "attr": {"dtype": {"type": "DT_INT32"}, "value": {"tensor": {"dtype": "DT_INT32", "tensorShape": {"dim": [{"size": "4"}]}}}}}, {"name": "StatefulPartitionedCall/BigGAN/Generator/GBlock_10/BatchNorm_3/strided_slice_3/stack_1", "op": "Const", "attr": {"dtype": {"type": "DT_INT32"}, "value": {"tensor": {"dtype": "DT_INT32", "tensorShape": {"dim": [{"size": "4"}]}}}}}, {"name": "StatefulPartitionedCall/BigGAN/Generator/GBlock_10/BatchNorm_3/strided_slice_3/stack_2", "op": "Const", "attr": {"value": {"tensor": {"dtype": "DT_INT32", "tensorShape": {"dim": [{"size": "4"}]}}}, "dtype": {"type": "DT_INT32"}}}, {"name": "StatefulPartitionedCall/BigGAN/Generator/GBlock_10/sn/conv3/conv2d_108/Conv2D/ReadVariableOp", "op": "Const", "attr": {"value": {"tensor": {"dtype": "DT_FLOAT", "tensorShape": {"dim": [{"size": "1"}, {"size": "1"}, {"size": "64"}, {"size": "256"}]}}}, "dtype": {"type": "DT_FLOAT"}}}, {"name": "StatefulPartitionedCall/BigGAN/Generator/GBlock_10/sn/conv3/conv2d_108/BiasAdd/ReadVariableOp", "op": "Const", "attr": {"value": {"tensor": {"dtype": "DT_FLOAT", "tensorShape": {"dim": [{"size": "256"}]}}}, "dtype": {"type": "DT_FLOAT"}}}, {"name": "StatefulPartitionedCall/BigGAN/Generator/GBlock_9/BatchNorm_0/strided_slice/stack", "op": "Const", "attr": {"dtype": {"type": "DT_INT32"}, "value": {"tensor": {"dtype": "DT_INT32", "tensorShape": {"dim": [{"size": "4"}]}}}}}, {"name": "StatefulPartitionedCall/BigGAN/Generator/GBlock_9/BatchNorm_0/strided_slice/stack_1", "op": "Const", "attr": {"dtype": {"type": "DT_INT32"}, "value": {"tensor": {"dtype": "DT_INT32", "tensorShape": {"dim": [{"size": "4"}]}}}}}, {"name": "StatefulPartitionedCall/BigGAN/Generator/GBlock_9/BatchNorm_0/strided_slice/stack_2", "op": "Const", "attr": {"value": {"tensor": {"dtype": "DT_INT32", "tensorShape": {"dim": [{"size": "4"}]}}}, "dtype": {"type": "DT_INT32"}}}, {"name": "StatefulPartitionedCall/BigGAN/Generator/GBlock_9/BatchNorm_0/strided_slice_1/stack", "op": "Const", "attr": {"value": {"tensor": {"dtype": "DT_INT32", "tensorShape": {"dim": [{"size": "4"}]}}}, "dtype": {"type": "DT_INT32"}}}, {"name": "StatefulPartitionedCall/BigGAN/Generator/GBlock_9/BatchNorm_0/strided_slice_1/stack_1", "op": "Const", "attr": {"value": {"tensor": {"dtype": "DT_INT32", "tensorShape": {"dim": [{"size": "4"}]}}}, "dtype": {"type": "DT_INT32"}}}, {"name": "StatefulPartitionedCall/BigGAN/Generator/GBlock_9/BatchNorm_0/strided_slice_1/stack_2", "op": "Const", "attr": {"value": {"tensor": {"dtype": "DT_INT32", "tensorShape": {"dim": [{"size": "4"}]}}}, "dtype": {"type": "DT_INT32"}}}, {"name": "StatefulPartitionedCall/BigGAN/Generator/GBlock_9/BatchNorm_0/add_1/y", "op": "Const", "attr": {"value": {"tensor": {"dtype": "DT_FLOAT", "tensorShape": {}}}, "dtype": {"type": "DT_FLOAT"}}}, {"name": "StatefulPartitionedCall/BigGAN/Generator/GBlock_9/BatchNorm_0/add/x", "op": "Const", "attr": {"value": {"tensor": {"dtype": "DT_FLOAT", "tensorShape": {}}}, "dtype": {"type": "DT_FLOAT"}}}, {"name": "StatefulPartitionedCall/BigGAN/Generator/GBlock_9/BatchNorm_0/sn/scale/dense_186/MatMul/ReadVariableOp", "op": "Const", "attr": {"dtype": {"type": "DT_FLOAT"}, "value": {"tensor": {"dtype": "DT_FLOAT", "tensorShape": {"dim": [{"size": "256"}, {"size": "512"}]}}}}}, {"name": "StatefulPartitionedCall/BigGAN/Generator/GBlock_9/BatchNorm_0/strided_slice_2/stack", "op": "Const", "attr": {"dtype": {"type": "DT_INT32"}, "value": {"tensor": {"dtype": "DT_INT32", "tensorShape": {"dim": [{"size": "4"}]}}}}}, {"name": "StatefulPartitionedCall/BigGAN/Generator/GBlock_9/BatchNorm_0/strided_slice_2/stack_1", "op": "Const", "attr": {"value": {"tensor": {"dtype": "DT_INT32", "tensorShape": {"dim": [{"size": "4"}]}}}, "dtype": {"type": "DT_INT32"}}}, {"name": "StatefulPartitionedCall/BigGAN/Generator/GBlock_9/BatchNorm_0/strided_slice_2/stack_2", "op": "Const", "attr": {"dtype": {"type": "DT_INT32"}, "value": {"tensor": {"dtype": "DT_INT32", "tensorShape": {"dim": [{"size": "4"}]}}}}}, {"name": "StatefulPartitionedCall/BigGAN/Generator/GBlock_9/BatchNorm_0/sn/offset/dense_187/MatMul/ReadVariableOp", "op": "Const", "attr": {"value": {"tensor": {"dtype": "DT_FLOAT", "tensorShape": {"dim": [{"size": "256"}, {"size": "512"}]}}}, "dtype": {"type": "DT_FLOAT"}}}, {"name": "StatefulPartitionedCall/BigGAN/Generator/GBlock_9/BatchNorm_0/strided_slice_3/stack", "op": "Const", "attr": {"value": {"tensor": {"dtype": "DT_INT32", "tensorShape": {"dim": [{"size": "4"}]}}}, "dtype": {"type": "DT_INT32"}}}, {"name": "StatefulPartitionedCall/BigGAN/Generator/GBlock_9/BatchNorm_0/strided_slice_3/stack_1", "op": "Const", "attr": {"value": {"tensor": {"dtype": "DT_INT32", "tensorShape": {"dim": [{"size": "4"}]}}}, "dtype": {"type": "DT_INT32"}}}, {"name": "StatefulPartitionedCall/BigGAN/Generator/GBlock_9/BatchNorm_0/strided_slice_3/stack_2", "op": "Const", "attr": {"value": {"tensor": {"dtype": "DT_INT32", "tensorShape": {"dim": [{"size": "4"}]}}}, "dtype": {"type": "DT_INT32"}}}, {"name": "StatefulPartitionedCall/BigGAN/Generator/GBlock_9/sn/conv0/conv2d_101/Conv2D/ReadVariableOp", "op": "Const", "attr": {"value": {"tensor": {"dtype": "DT_FLOAT", "tensorShape": {"dim": [{"size": "1"}, {"size": "1"}, {"size": "512"}, {"size": "128"}]}}}, "dtype": {"type": "DT_FLOAT"}}}, {"name": "StatefulPartitionedCall/BigGAN/Generator/GBlock_9/sn/conv0/conv2d_101/BiasAdd/ReadVariableOp", "op": "Const", "attr": {"dtype": {"type": "DT_FLOAT"}, "value": {"tensor": {"dtype": "DT_FLOAT", "tensorShape": {"dim": [{"size": "128"}]}}}}}, {"name": "StatefulPartitionedCall/BigGAN/Generator/GBlock_9/BatchNorm_1/strided_slice/stack", "op": "Const", "attr": {"value": {"tensor": {"dtype": "DT_INT32", "tensorShape": {"dim": [{"size": "4"}]}}}, "dtype": {"type": "DT_INT32"}}}, {"name": "StatefulPartitionedCall/BigGAN/Generator/GBlock_9/BatchNorm_1/strided_slice/stack_1", "op": "Const", "attr": {"value": {"tensor": {"dtype": "DT_INT32", "tensorShape": {"dim": [{"size": "4"}]}}}, "dtype": {"type": "DT_INT32"}}}, {"name": "StatefulPartitionedCall/BigGAN/Generator/GBlock_9/BatchNorm_1/strided_slice/stack_2", "op": "Const", "attr": {"value": {"tensor": {"dtype": "DT_INT32", "tensorShape": {"dim": [{"size": "4"}]}}}, "dtype": {"type": "DT_INT32"}}}, {"name": "StatefulPartitionedCall/BigGAN/Generator/GBlock_9/BatchNorm_1/strided_slice_1/stack", "op": "Const", "attr": {"value": {"tensor": {"dtype": "DT_INT32", "tensorShape": {"dim": [{"size": "4"}]}}}, "dtype": {"type": "DT_INT32"}}}, {"name": "StatefulPartitionedCall/BigGAN/Generator/GBlock_9/BatchNorm_1/strided_slice_1/stack_1", "op": "Const", "attr": {"value": {"tensor": {"dtype": "DT_INT32", "tensorShape": {"dim": [{"size": "4"}]}}}, "dtype": {"type": "DT_INT32"}}}, {"name": "StatefulPartitionedCall/BigGAN/Generator/GBlock_9/BatchNorm_1/strided_slice_1/stack_2", "op": "Const", "attr": {"value": {"tensor": {"dtype": "DT_INT32", "tensorShape": {"dim": [{"size": "4"}]}}}, "dtype": {"type": "DT_INT32"}}}, {"name": "StatefulPartitionedCall/BigGAN/Generator/GBlock_9/BatchNorm_1/add_1/y", "op": "Const", "attr": {"value": {"tensor": {"dtype": "DT_FLOAT", "tensorShape": {}}}, "dtype": {"type": "DT_FLOAT"}}}, {"name": "StatefulPartitionedCall/BigGAN/Generator/GBlock_9/BatchNorm_1/add/x", "op": "Const", "attr": {"dtype": {"type": "DT_FLOAT"}, "value": {"tensor": {"dtype": "DT_FLOAT", "tensorShape": {}}}}}, {"name": "StatefulPartitionedCall/BigGAN/Generator/GBlock_9/BatchNorm_1/sn/scale/dense_188/MatMul/ReadVariableOp", "op": "Const", "attr": {"dtype": {"type": "DT_FLOAT"}, "value": {"tensor": {"dtype": "DT_FLOAT", "tensorShape": {"dim": [{"size": "256"}, {"size": "128"}]}}}}}, {"name": "StatefulPartitionedCall/BigGAN/Generator/GBlock_9/BatchNorm_1/strided_slice_2/stack", "op": "Const", "attr": {"dtype": {"type": "DT_INT32"}, "value": {"tensor": {"dtype": "DT_INT32", "tensorShape": {"dim": [{"size": "4"}]}}}}}, {"name": "StatefulPartitionedCall/BigGAN/Generator/GBlock_9/BatchNorm_1/strided_slice_2/stack_1", "op": "Const", "attr": {"dtype": {"type": "DT_INT32"}, "value": {"tensor": {"dtype": "DT_INT32", "tensorShape": {"dim": [{"size": "4"}]}}}}}, {"name": "StatefulPartitionedCall/BigGAN/Generator/GBlock_9/BatchNorm_1/strided_slice_2/stack_2", "op": "Const", "attr": {"value": {"tensor": {"dtype": "DT_INT32", "tensorShape": {"dim": [{"size": "4"}]}}}, "dtype": {"type": "DT_INT32"}}}, {"name": "StatefulPartitionedCall/BigGAN/Generator/GBlock_9/BatchNorm_1/sn/offset/dense_189/MatMul/ReadVariableOp", "op": "Const", "attr": {"dtype": {"type": "DT_FLOAT"}, "value": {"tensor": {"dtype": "DT_FLOAT", "tensorShape": {"dim": [{"size": "256"}, {"size": "128"}]}}}}}, {"name": "StatefulPartitionedCall/BigGAN/Generator/GBlock_9/BatchNorm_1/strided_slice_3/stack", "op": "Const", "attr": {"value": {"tensor": {"dtype": "DT_INT32", "tensorShape": {"dim": [{"size": "4"}]}}}, "dtype": {"type": "DT_INT32"}}}, {"name": "StatefulPartitionedCall/BigGAN/Generator/GBlock_9/BatchNorm_1/strided_slice_3/stack_1", "op": "Const", "attr": {"value": {"tensor": {"dtype": "DT_INT32", "tensorShape": {"dim": [{"size": "4"}]}}}, "dtype": {"type": "DT_INT32"}}}, {"name": "StatefulPartitionedCall/BigGAN/Generator/GBlock_9/BatchNorm_1/strided_slice_3/stack_2", "op": "Const", "attr": {"value": {"tensor": {"dtype": "DT_INT32", "tensorShape": {"dim": [{"size": "4"}]}}}, "dtype": {"type": "DT_INT32"}}}, {"name": "StatefulPartitionedCall/BigGAN/Generator/GBlock_9/up_sampling2d_46/mul", "op": "Const", "attr": {"value": {"tensor": {"dtype": "DT_INT32", "tensorShape": {"dim": [{"size": "2"}]}}}, "dtype": {"type": "DT_INT32"}}}, {"name": "StatefulPartitionedCall/BigGAN/Generator/GBlock_9/sn/conv1/conv2d_102/Conv2D/ReadVariableOp", "op": "Const", "attr": {"dtype": {"type": "DT_FLOAT"}, "value": {"tensor": {"dtype": "DT_FLOAT", "tensorShape": {"dim": [{"size": "3"}, {"size": "3"}, {"size": "128"}, {"size": "128"}]}}}}}, {"name": "StatefulPartitionedCall/BigGAN/Generator/GBlock_9/sn/conv1/conv2d_102/BiasAdd/ReadVariableOp", "op": "Const", "attr": {"value": {"tensor": {"dtype": "DT_FLOAT", "tensorShape": {"dim": [{"size": "128"}]}}}, "dtype": {"type": "DT_FLOAT"}}}, {"name": "StatefulPartitionedCall/BigGAN/Generator/GBlock_9/BatchNorm_2/strided_slice/stack", "op": "Const", "attr": {"value": {"tensor": {"dtype": "DT_INT32", "tensorShape": {"dim": [{"size": "4"}]}}}, "dtype": {"type": "DT_INT32"}}}, {"name": "StatefulPartitionedCall/BigGAN/Generator/GBlock_9/BatchNorm_2/strided_slice/stack_1", "op": "Const", "attr": {"value": {"tensor": {"dtype": "DT_INT32", "tensorShape": {"dim": [{"size": "4"}]}}}, "dtype": {"type": "DT_INT32"}}}, {"name": "StatefulPartitionedCall/BigGAN/Generator/GBlock_9/BatchNorm_2/strided_slice/stack_2", "op": "Const", "attr": {"dtype": {"type": "DT_INT32"}, "value": {"tensor": {"dtype": "DT_INT32", "tensorShape": {"dim": [{"size": "4"}]}}}}}, {"name": "StatefulPartitionedCall/BigGAN/Generator/GBlock_9/BatchNorm_2/strided_slice_1/stack", "op": "Const", "attr": {"dtype": {"type": "DT_INT32"}, "value": {"tensor": {"dtype": "DT_INT32", "tensorShape": {"dim": [{"size": "4"}]}}}}}, {"name": "StatefulPartitionedCall/BigGAN/Generator/GBlock_9/BatchNorm_2/strided_slice_1/stack_1", "op": "Const", "attr": {"value": {"tensor": {"dtype": "DT_INT32", "tensorShape": {"dim": [{"size": "4"}]}}}, "dtype": {"type": "DT_INT32"}}}, {"name": "StatefulPartitionedCall/BigGAN/Generator/GBlock_9/BatchNorm_2/strided_slice_1/stack_2", "op": "Const", "attr": {"value": {"tensor": {"dtype": "DT_INT32", "tensorShape": {"dim": [{"size": "4"}]}}}, "dtype": {"type": "DT_INT32"}}}, {"name": "StatefulPartitionedCall/BigGAN/Generator/GBlock_9/BatchNorm_2/add_1/y", "op": "Const", "attr": {"value": {"tensor": {"dtype": "DT_FLOAT", "tensorShape": {}}}, "dtype": {"type": "DT_FLOAT"}}}, {"name": "StatefulPartitionedCall/BigGAN/Generator/GBlock_9/BatchNorm_2/add/x", "op": "Const", "attr": {"dtype": {"type": "DT_FLOAT"}, "value": {"tensor": {"dtype": "DT_FLOAT", "tensorShape": {}}}}}, {"name": "StatefulPartitionedCall/BigGAN/Generator/GBlock_9/BatchNorm_2/sn/scale/dense_190/MatMul/ReadVariableOp", "op": "Const", "attr": {"dtype": {"type": "DT_FLOAT"}, "value": {"tensor": {"dtype": "DT_FLOAT", "tensorShape": {"dim": [{"size": "256"}, {"size": "128"}]}}}}}, {"name": "StatefulPartitionedCall/BigGAN/Generator/GBlock_9/BatchNorm_2/strided_slice_2/stack", "op": "Const", "attr": {"dtype": {"type": "DT_INT32"}, "value": {"tensor": {"dtype": "DT_INT32", "tensorShape": {"dim": [{"size": "4"}]}}}}}, {"name": "StatefulPartitionedCall/BigGAN/Generator/GBlock_9/BatchNorm_2/strided_slice_2/stack_1", "op": "Const", "attr": {"dtype": {"type": "DT_INT32"}, "value": {"tensor": {"dtype": "DT_INT32", "tensorShape": {"dim": [{"size": "4"}]}}}}}, {"name": "StatefulPartitionedCall/BigGAN/Generator/GBlock_9/BatchNorm_2/strided_slice_2/stack_2", "op": "Const", "attr": {"dtype": {"type": "DT_INT32"}, "value": {"tensor": {"dtype": "DT_INT32", "tensorShape": {"dim": [{"size": "4"}]}}}}}, {"name": "StatefulPartitionedCall/BigGAN/Generator/GBlock_9/BatchNorm_2/sn/offset/dense_191/MatMul/ReadVariableOp", "op": "Const", "attr": {"dtype": {"type": "DT_FLOAT"}, "value": {"tensor": {"dtype": "DT_FLOAT", "tensorShape": {"dim": [{"size": "256"}, {"size": "128"}]}}}}}, {"name": "StatefulPartitionedCall/BigGAN/Generator/GBlock_9/BatchNorm_2/strided_slice_3/stack", "op": "Const", "attr": {"dtype": {"type": "DT_INT32"}, "value": {"tensor": {"dtype": "DT_INT32", "tensorShape": {"dim": [{"size": "4"}]}}}}}, {"name": "StatefulPartitionedCall/BigGAN/Generator/GBlock_9/BatchNorm_2/strided_slice_3/stack_1", "op": "Const", "attr": {"value": {"tensor": {"dtype": "DT_INT32", "tensorShape": {"dim": [{"size": "4"}]}}}, "dtype": {"type": "DT_INT32"}}}, {"name": "StatefulPartitionedCall/BigGAN/Generator/GBlock_9/BatchNorm_2/strided_slice_3/stack_2", "op": "Const", "attr": {"dtype": {"type": "DT_INT32"}, "value": {"tensor": {"dtype": "DT_INT32", "tensorShape": {"dim": [{"size": "4"}]}}}}}, {"name": "StatefulPartitionedCall/BigGAN/Generator/GBlock_9/sn/conv2/conv2d_103/Conv2D/ReadVariableOp", "op": "Const", "attr": {"dtype": {"type": "DT_FLOAT"}, "value": {"tensor": {"dtype": "DT_FLOAT", "tensorShape": {"dim": [{"size": "3"}, {"size": "3"}, {"size": "128"}, {"size": "128"}]}}}}}, {"name": "StatefulPartitionedCall/BigGAN/Generator/GBlock_9/sn/conv2/conv2d_103/BiasAdd/ReadVariableOp", "op": "Const", "attr": {"value": {"tensor": {"dtype": "DT_FLOAT", "tensorShape": {"dim": [{"size": "128"}]}}}, "dtype": {"type": "DT_FLOAT"}}}, {"name": "StatefulPartitionedCall/BigGAN/Generator/GBlock_9/BatchNorm_3/strided_slice/stack", "op": "Const", "attr": {"value": {"tensor": {"dtype": "DT_INT32", "tensorShape": {"dim": [{"size": "4"}]}}}, "dtype": {"type": "DT_INT32"}}}, {"name": "StatefulPartitionedCall/BigGAN/Generator/GBlock_9/BatchNorm_3/strided_slice/stack_1", "op": "Const", "attr": {"value": {"tensor": {"dtype": "DT_INT32", "tensorShape": {"dim": [{"size": "4"}]}}}, "dtype": {"type": "DT_INT32"}}}, {"name": "StatefulPartitionedCall/BigGAN/Generator/GBlock_9/BatchNorm_3/strided_slice/stack_2", "op": "Const", "attr": {"value": {"tensor": {"dtype": "DT_INT32", "tensorShape": {"dim": [{"size": "4"}]}}}, "dtype": {"type": "DT_INT32"}}}, {"name": "StatefulPartitionedCall/BigGAN/Generator/GBlock_9/BatchNorm_3/strided_slice_1/stack", "op": "Const", "attr": {"dtype": {"type": "DT_INT32"}, "value": {"tensor": {"dtype": "DT_INT32", "tensorShape": {"dim": [{"size": "4"}]}}}}}, {"name": "StatefulPartitionedCall/BigGAN/Generator/GBlock_9/BatchNorm_3/strided_slice_1/stack_1", "op": "Const", "attr": {"dtype": {"type": "DT_INT32"}, "value": {"tensor": {"dtype": "DT_INT32", "tensorShape": {"dim": [{"size": "4"}]}}}}}, {"name": "StatefulPartitionedCall/BigGAN/Generator/GBlock_9/BatchNorm_3/strided_slice_1/stack_2", "op": "Const", "attr": {"value": {"tensor": {"dtype": "DT_INT32", "tensorShape": {"dim": [{"size": "4"}]}}}, "dtype": {"type": "DT_INT32"}}}, {"name": "StatefulPartitionedCall/BigGAN/Generator/GBlock_9/BatchNorm_3/add_1/y", "op": "Const", "attr": {"dtype": {"type": "DT_FLOAT"}, "value": {"tensor": {"dtype": "DT_FLOAT", "tensorShape": {}}}}}, {"name": "StatefulPartitionedCall/BigGAN/Generator/GBlock_9/BatchNorm_3/add/x", "op": "Const", "attr": {"dtype": {"type": "DT_FLOAT"}, "value": {"tensor": {"dtype": "DT_FLOAT", "tensorShape": {}}}}}, {"name": "StatefulPartitionedCall/BigGAN/Generator/GBlock_9/BatchNorm_3/sn/scale/dense_192/MatMul/ReadVariableOp", "op": "Const", "attr": {"value": {"tensor": {"dtype": "DT_FLOAT", "tensorShape": {"dim": [{"size": "256"}, {"size": "128"}]}}}, "dtype": {"type": "DT_FLOAT"}}}, {"name": "StatefulPartitionedCall/BigGAN/Generator/GBlock_9/BatchNorm_3/strided_slice_2/stack", "op": "Const", "attr": {"value": {"tensor": {"dtype": "DT_INT32", "tensorShape": {"dim": [{"size": "4"}]}}}, "dtype": {"type": "DT_INT32"}}}, {"name": "StatefulPartitionedCall/BigGAN/Generator/GBlock_9/BatchNorm_3/strided_slice_2/stack_1", "op": "Const", "attr": {"dtype": {"type": "DT_INT32"}, "value": {"tensor": {"dtype": "DT_INT32", "tensorShape": {"dim": [{"size": "4"}]}}}}}, {"name": "StatefulPartitionedCall/BigGAN/Generator/GBlock_9/BatchNorm_3/strided_slice_2/stack_2", "op": "Const", "attr": {"value": {"tensor": {"dtype": "DT_INT32", "tensorShape": {"dim": [{"size": "4"}]}}}, "dtype": {"type": "DT_INT32"}}}, {"name": "StatefulPartitionedCall/BigGAN/Generator/GBlock_9/BatchNorm_3/sn/offset/dense_193/MatMul/ReadVariableOp", "op": "Const", "attr": {"value": {"tensor": {"dtype": "DT_FLOAT", "tensorShape": {"dim": [{"size": "256"}, {"size": "128"}]}}}, "dtype": {"type": "DT_FLOAT"}}}, {"name": "StatefulPartitionedCall/BigGAN/Generator/GBlock_9/BatchNorm_3/strided_slice_3/stack", "op": "Const", "attr": {"dtype": {"type": "DT_INT32"}, "value": {"tensor": {"dtype": "DT_INT32", "tensorShape": {"dim": [{"size": "4"}]}}}}}, {"name": "StatefulPartitionedCall/BigGAN/Generator/GBlock_9/BatchNorm_3/strided_slice_3/stack_1", "op": "Const", "attr": {"dtype": {"type": "DT_INT32"}, "value": {"tensor": {"dtype": "DT_INT32", "tensorShape": {"dim": [{"size": "4"}]}}}}}, {"name": "StatefulPartitionedCall/BigGAN/Generator/GBlock_9/BatchNorm_3/strided_slice_3/stack_2", "op": "Const", "attr": {"dtype": {"type": "DT_INT32"}, "value": {"tensor": {"dtype": "DT_INT32", "tensorShape": {"dim": [{"size": "4"}]}}}}}, {"name": "StatefulPartitionedCall/BigGAN/Generator/GBlock_9/sn/conv3/conv2d_104/Conv2D/ReadVariableOp", "op": "Const", "attr": {"dtype": {"type": "DT_FLOAT"}, "value": {"tensor": {"dtype": "DT_FLOAT", "tensorShape": {"dim": [{"size": "1"}, {"size": "1"}, {"size": "128"}, {"size": "256"}]}}}}}, {"name": "StatefulPartitionedCall/BigGAN/Generator/GBlock_9/sn/conv3/conv2d_104/BiasAdd/ReadVariableOp", "op": "Const", "attr": {"value": {"tensor": {"dtype": "DT_FLOAT", "tensorShape": {"dim": [{"size": "256"}]}}}, "dtype": {"type": "DT_FLOAT"}}}, {"name": "StatefulPartitionedCall/BigGAN/Generator/GBlock_8/BatchNorm_0/strided_slice/stack", "op": "Const", "attr": {"dtype": {"type": "DT_INT32"}, "value": {"tensor": {"dtype": "DT_INT32", "tensorShape": {"dim": [{"size": "4"}]}}}}}, {"name": "StatefulPartitionedCall/BigGAN/Generator/GBlock_8/BatchNorm_0/strided_slice/stack_1", "op": "Const", "attr": {"value": {"tensor": {"dtype": "DT_INT32", "tensorShape": {"dim": [{"size": "4"}]}}}, "dtype": {"type": "DT_INT32"}}}, {"name": "StatefulPartitionedCall/BigGAN/Generator/GBlock_8/BatchNorm_0/strided_slice/stack_2", "op": "Const", "attr": {"dtype": {"type": "DT_INT32"}, "value": {"tensor": {"dtype": "DT_INT32", "tensorShape": {"dim": [{"size": "4"}]}}}}}, {"name": "StatefulPartitionedCall/BigGAN/Generator/GBlock_8/BatchNorm_0/strided_slice_1/stack", "op": "Const", "attr": {"dtype": {"type": "DT_INT32"}, "value": {"tensor": {"dtype": "DT_INT32", "tensorShape": {"dim": [{"size": "4"}]}}}}}, {"name": "StatefulPartitionedCall/BigGAN/Generator/GBlock_8/BatchNorm_0/strided_slice_1/stack_1", "op": "Const", "attr": {"value": {"tensor": {"dtype": "DT_INT32", "tensorShape": {"dim": [{"size": "4"}]}}}, "dtype": {"type": "DT_INT32"}}}, {"name": "StatefulPartitionedCall/BigGAN/Generator/GBlock_8/BatchNorm_0/strided_slice_1/stack_2", "op": "Const", "attr": {"dtype": {"type": "DT_INT32"}, "value": {"tensor": {"dtype": "DT_INT32", "tensorShape": {"dim": [{"size": "4"}]}}}}}, {"name": "StatefulPartitionedCall/BigGAN/Generator/GBlock_8/BatchNorm_0/add_1/y", "op": "Const", "attr": {"value": {"tensor": {"dtype": "DT_FLOAT", "tensorShape": {}}}, "dtype": {"type": "DT_FLOAT"}}}, {"name": "StatefulPartitionedCall/BigGAN/Generator/GBlock_8/BatchNorm_0/add/x", "op": "Const", "attr": {"value": {"tensor": {"dtype": "DT_FLOAT", "tensorShape": {}}}, "dtype": {"type": "DT_FLOAT"}}}, {"name": "StatefulPartitionedCall/BigGAN/Generator/GBlock_8/BatchNorm_0/sn/scale/dense_178/MatMul/ReadVariableOp", "op": "Const", "attr": {"value": {"tensor": {"dtype": "DT_FLOAT", "tensorShape": {"dim": [{"size": "256"}, {"size": "512"}]}}}, "dtype": {"type": "DT_FLOAT"}}}, {"name": "StatefulPartitionedCall/BigGAN/Generator/GBlock_8/BatchNorm_0/strided_slice_2/stack", "op": "Const", "attr": {"dtype": {"type": "DT_INT32"}, "value": {"tensor": {"dtype": "DT_INT32", "tensorShape": {"dim": [{"size": "4"}]}}}}}, {"name": "StatefulPartitionedCall/BigGAN/Generator/GBlock_8/BatchNorm_0/strided_slice_2/stack_1", "op": "Const", "attr": {"dtype": {"type": "DT_INT32"}, "value": {"tensor": {"dtype": "DT_INT32", "tensorShape": {"dim": [{"size": "4"}]}}}}}, {"name": "StatefulPartitionedCall/BigGAN/Generator/GBlock_8/BatchNorm_0/strided_slice_2/stack_2", "op": "Const", "attr": {"dtype": {"type": "DT_INT32"}, "value": {"tensor": {"dtype": "DT_INT32", "tensorShape": {"dim": [{"size": "4"}]}}}}}, {"name": "StatefulPartitionedCall/BigGAN/Generator/GBlock_8/BatchNorm_0/sn/offset/dense_179/MatMul/ReadVariableOp", "op": "Const", "attr": {"value": {"tensor": {"dtype": "DT_FLOAT", "tensorShape": {"dim": [{"size": "256"}, {"size": "512"}]}}}, "dtype": {"type": "DT_FLOAT"}}}, {"name": "StatefulPartitionedCall/BigGAN/Generator/GBlock_8/BatchNorm_0/strided_slice_3/stack", "op": "Const", "attr": {"dtype": {"type": "DT_INT32"}, "value": {"tensor": {"dtype": "DT_INT32", "tensorShape": {"dim": [{"size": "4"}]}}}}}, {"name": "StatefulPartitionedCall/BigGAN/Generator/GBlock_8/BatchNorm_0/strided_slice_3/stack_1", "op": "Const", "attr": {"dtype": {"type": "DT_INT32"}, "value": {"tensor": {"dtype": "DT_INT32", "tensorShape": {"dim": [{"size": "4"}]}}}}}, {"name": "StatefulPartitionedCall/BigGAN/Generator/GBlock_8/BatchNorm_0/strided_slice_3/stack_2", "op": "Const", "attr": {"dtype": {"type": "DT_INT32"}, "value": {"tensor": {"dtype": "DT_INT32", "tensorShape": {"dim": [{"size": "4"}]}}}}}, {"name": "StatefulPartitionedCall/BigGAN/Generator/GBlock_8/sn/conv0/conv2d_97/Conv2D/ReadVariableOp", "op": "Const", "attr": {"dtype": {"type": "DT_FLOAT"}, "value": {"tensor": {"dtype": "DT_FLOAT", "tensorShape": {"dim": [{"size": "1"}, {"size": "1"}, {"size": "512"}, {"size": "128"}]}}}}}, {"name": "StatefulPartitionedCall/BigGAN/Generator/GBlock_8/sn/conv0/conv2d_97/BiasAdd/ReadVariableOp", "op": "Const", "attr": {"dtype": {"type": "DT_FLOAT"}, "value": {"tensor": {"dtype": "DT_FLOAT", "tensorShape": {"dim": [{"size": "128"}]}}}}}, {"name": "StatefulPartitionedCall/BigGAN/Generator/GBlock_8/BatchNorm_1/strided_slice/stack", "op": "Const", "attr": {"dtype": {"type": "DT_INT32"}, "value": {"tensor": {"dtype": "DT_INT32", "tensorShape": {"dim": [{"size": "4"}]}}}}}, {"name": "StatefulPartitionedCall/BigGAN/Generator/GBlock_8/BatchNorm_1/strided_slice/stack_1", "op": "Const", "attr": {"value": {"tensor": {"dtype": "DT_INT32", "tensorShape": {"dim": [{"size": "4"}]}}}, "dtype": {"type": "DT_INT32"}}}, {"name": "StatefulPartitionedCall/BigGAN/Generator/GBlock_8/BatchNorm_1/strided_slice/stack_2", "op": "Const", "attr": {"dtype": {"type": "DT_INT32"}, "value": {"tensor": {"dtype": "DT_INT32", "tensorShape": {"dim": [{"size": "4"}]}}}}}, {"name": "StatefulPartitionedCall/BigGAN/Generator/GBlock_8/BatchNorm_1/strided_slice_1/stack", "op": "Const", "attr": {"dtype": {"type": "DT_INT32"}, "value": {"tensor": {"dtype": "DT_INT32", "tensorShape": {"dim": [{"size": "4"}]}}}}}, {"name": "StatefulPartitionedCall/BigGAN/Generator/GBlock_8/BatchNorm_1/strided_slice_1/stack_1", "op": "Const", "attr": {"dtype": {"type": "DT_INT32"}, "value": {"tensor": {"dtype": "DT_INT32", "tensorShape": {"dim": [{"size": "4"}]}}}}}, {"name": "StatefulPartitionedCall/BigGAN/Generator/GBlock_8/BatchNorm_1/strided_slice_1/stack_2", "op": "Const", "attr": {"value": {"tensor": {"dtype": "DT_INT32", "tensorShape": {"dim": [{"size": "4"}]}}}, "dtype": {"type": "DT_INT32"}}}, {"name": "StatefulPartitionedCall/BigGAN/Generator/GBlock_8/BatchNorm_1/add_1/y", "op": "Const", "attr": {"dtype": {"type": "DT_FLOAT"}, "value": {"tensor": {"dtype": "DT_FLOAT", "tensorShape": {}}}}}, {"name": "StatefulPartitionedCall/BigGAN/Generator/GBlock_8/BatchNorm_1/add/x", "op": "Const", "attr": {"dtype": {"type": "DT_FLOAT"}, "value": {"tensor": {"dtype": "DT_FLOAT", "tensorShape": {}}}}}, {"name": "StatefulPartitionedCall/BigGAN/Generator/GBlock_8/BatchNorm_1/sn/scale/dense_180/MatMul/ReadVariableOp", "op": "Const", "attr": {"dtype": {"type": "DT_FLOAT"}, "value": {"tensor": {"dtype": "DT_FLOAT", "tensorShape": {"dim": [{"size": "256"}, {"size": "128"}]}}}}}, {"name": "StatefulPartitionedCall/BigGAN/Generator/GBlock_8/BatchNorm_1/strided_slice_2/stack", "op": "Const", "attr": {"value": {"tensor": {"dtype": "DT_INT32", "tensorShape": {"dim": [{"size": "4"}]}}}, "dtype": {"type": "DT_INT32"}}}, {"name": "StatefulPartitionedCall/BigGAN/Generator/GBlock_8/BatchNorm_1/strided_slice_2/stack_1", "op": "Const", "attr": {"dtype": {"type": "DT_INT32"}, "value": {"tensor": {"dtype": "DT_INT32", "tensorShape": {"dim": [{"size": "4"}]}}}}}, {"name": "StatefulPartitionedCall/BigGAN/Generator/GBlock_8/BatchNorm_1/strided_slice_2/stack_2", "op": "Const", "attr": {"value": {"tensor": {"dtype": "DT_INT32", "tensorShape": {"dim": [{"size": "4"}]}}}, "dtype": {"type": "DT_INT32"}}}, {"name": "StatefulPartitionedCall/BigGAN/Generator/GBlock_8/BatchNorm_1/sn/offset/dense_181/MatMul/ReadVariableOp", "op": "Const", "attr": {"dtype": {"type": "DT_FLOAT"}, "value": {"tensor": {"dtype": "DT_FLOAT", "tensorShape": {"dim": [{"size": "256"}, {"size": "128"}]}}}}}, {"name": "StatefulPartitionedCall/BigGAN/Generator/GBlock_8/BatchNorm_1/strided_slice_3/stack", "op": "Const", "attr": {"value": {"tensor": {"dtype": "DT_INT32", "tensorShape": {"dim": [{"size": "4"}]}}}, "dtype": {"type": "DT_INT32"}}}, {"name": "StatefulPartitionedCall/BigGAN/Generator/GBlock_8/BatchNorm_1/strided_slice_3/stack_1", "op": "Const", "attr": {"value": {"tensor": {"dtype": "DT_INT32", "tensorShape": {"dim": [{"size": "4"}]}}}, "dtype": {"type": "DT_INT32"}}}, {"name": "StatefulPartitionedCall/BigGAN/Generator/GBlock_8/BatchNorm_1/strided_slice_3/stack_2", "op": "Const", "attr": {"value": {"tensor": {"dtype": "DT_INT32", "tensorShape": {"dim": [{"size": "4"}]}}}, "dtype": {"type": "DT_INT32"}}}, {"name": "StatefulPartitionedCall/BigGAN/Generator/GBlock_8/sn/conv1/conv2d_98/Conv2D/ReadVariableOp", "op": "Const", "attr": {"value": {"tensor": {"dtype": "DT_FLOAT", "tensorShape": {"dim": [{"size": "3"}, {"size": "3"}, {"size": "128"}, {"size": "128"}]}}}, "dtype": {"type": "DT_FLOAT"}}}, {"name": "StatefulPartitionedCall/BigGAN/Generator/GBlock_8/sn/conv1/conv2d_98/BiasAdd/ReadVariableOp", "op": "Const", "attr": {"value": {"tensor": {"dtype": "DT_FLOAT", "tensorShape": {"dim": [{"size": "128"}]}}}, "dtype": {"type": "DT_FLOAT"}}}, {"name": "StatefulPartitionedCall/BigGAN/Generator/GBlock_8/BatchNorm_2/strided_slice/stack", "op": "Const", "attr": {"dtype": {"type": "DT_INT32"}, "value": {"tensor": {"dtype": "DT_INT32", "tensorShape": {"dim": [{"size": "4"}]}}}}}, {"name": "StatefulPartitionedCall/BigGAN/Generator/GBlock_8/BatchNorm_2/strided_slice/stack_1", "op": "Const", "attr": {"dtype": {"type": "DT_INT32"}, "value": {"tensor": {"dtype": "DT_INT32", "tensorShape": {"dim": [{"size": "4"}]}}}}}, {"name": "StatefulPartitionedCall/BigGAN/Generator/GBlock_8/BatchNorm_2/strided_slice/stack_2", "op": "Const", "attr": {"dtype": {"type": "DT_INT32"}, "value": {"tensor": {"dtype": "DT_INT32", "tensorShape": {"dim": [{"size": "4"}]}}}}}, {"name": "StatefulPartitionedCall/BigGAN/Generator/GBlock_8/BatchNorm_2/strided_slice_1/stack", "op": "Const", "attr": {"value": {"tensor": {"dtype": "DT_INT32", "tensorShape": {"dim": [{"size": "4"}]}}}, "dtype": {"type": "DT_INT32"}}}, {"name": "StatefulPartitionedCall/BigGAN/Generator/GBlock_8/BatchNorm_2/strided_slice_1/stack_1", "op": "Const", "attr": {"dtype": {"type": "DT_INT32"}, "value": {"tensor": {"dtype": "DT_INT32", "tensorShape": {"dim": [{"size": "4"}]}}}}}, {"name": "StatefulPartitionedCall/BigGAN/Generator/GBlock_8/BatchNorm_2/strided_slice_1/stack_2", "op": "Const", "attr": {"dtype": {"type": "DT_INT32"}, "value": {"tensor": {"dtype": "DT_INT32", "tensorShape": {"dim": [{"size": "4"}]}}}}}, {"name": "StatefulPartitionedCall/BigGAN/Generator/GBlock_8/BatchNorm_2/add_1/y", "op": "Const", "attr": {"dtype": {"type": "DT_FLOAT"}, "value": {"tensor": {"dtype": "DT_FLOAT", "tensorShape": {}}}}}, {"name": "StatefulPartitionedCall/BigGAN/Generator/GBlock_8/BatchNorm_2/add/x", "op": "Const", "attr": {"dtype": {"type": "DT_FLOAT"}, "value": {"tensor": {"dtype": "DT_FLOAT", "tensorShape": {}}}}}, {"name": "StatefulPartitionedCall/BigGAN/Generator/GBlock_8/BatchNorm_2/sn/scale/dense_182/MatMul/ReadVariableOp", "op": "Const", "attr": {"value": {"tensor": {"dtype": "DT_FLOAT", "tensorShape": {"dim": [{"size": "256"}, {"size": "128"}]}}}, "dtype": {"type": "DT_FLOAT"}}}, {"name": "StatefulPartitionedCall/BigGAN/Generator/GBlock_8/BatchNorm_2/strided_slice_2/stack", "op": "Const", "attr": {"value": {"tensor": {"dtype": "DT_INT32", "tensorShape": {"dim": [{"size": "4"}]}}}, "dtype": {"type": "DT_INT32"}}}, {"name": "StatefulPartitionedCall/BigGAN/Generator/GBlock_8/BatchNorm_2/strided_slice_2/stack_1", "op": "Const", "attr": {"value": {"tensor": {"dtype": "DT_INT32", "tensorShape": {"dim": [{"size": "4"}]}}}, "dtype": {"type": "DT_INT32"}}}, {"name": "StatefulPartitionedCall/BigGAN/Generator/GBlock_8/BatchNorm_2/strided_slice_2/stack_2", "op": "Const", "attr": {"value": {"tensor": {"dtype": "DT_INT32", "tensorShape": {"dim": [{"size": "4"}]}}}, "dtype": {"type": "DT_INT32"}}}, {"name": "StatefulPartitionedCall/BigGAN/Generator/GBlock_8/BatchNorm_2/sn/offset/dense_183/MatMul/ReadVariableOp", "op": "Const", "attr": {"value": {"tensor": {"dtype": "DT_FLOAT", "tensorShape": {"dim": [{"size": "256"}, {"size": "128"}]}}}, "dtype": {"type": "DT_FLOAT"}}}, {"name": "StatefulPartitionedCall/BigGAN/Generator/GBlock_8/BatchNorm_2/strided_slice_3/stack", "op": "Const", "attr": {"dtype": {"type": "DT_INT32"}, "value": {"tensor": {"dtype": "DT_INT32", "tensorShape": {"dim": [{"size": "4"}]}}}}}, {"name": "StatefulPartitionedCall/BigGAN/Generator/GBlock_8/BatchNorm_2/strided_slice_3/stack_1", "op": "Const", "attr": {"value": {"tensor": {"dtype": "DT_INT32", "tensorShape": {"dim": [{"size": "4"}]}}}, "dtype": {"type": "DT_INT32"}}}, {"name": "StatefulPartitionedCall/BigGAN/Generator/GBlock_8/BatchNorm_2/strided_slice_3/stack_2", "op": "Const", "attr": {"value": {"tensor": {"dtype": "DT_INT32", "tensorShape": {"dim": [{"size": "4"}]}}}, "dtype": {"type": "DT_INT32"}}}, {"name": "StatefulPartitionedCall/BigGAN/Generator/GBlock_8/sn/conv2/conv2d_99/Conv2D/ReadVariableOp", "op": "Const", "attr": {"dtype": {"type": "DT_FLOAT"}, "value": {"tensor": {"dtype": "DT_FLOAT", "tensorShape": {"dim": [{"size": "3"}, {"size": "3"}, {"size": "128"}, {"size": "128"}]}}}}}, {"name": "StatefulPartitionedCall/BigGAN/Generator/GBlock_8/sn/conv2/conv2d_99/BiasAdd/ReadVariableOp", "op": "Const", "attr": {"value": {"tensor": {"dtype": "DT_FLOAT", "tensorShape": {"dim": [{"size": "128"}]}}}, "dtype": {"type": "DT_FLOAT"}}}, {"name": "StatefulPartitionedCall/BigGAN/Generator/GBlock_8/BatchNorm_3/strided_slice/stack", "op": "Const", "attr": {"dtype": {"type": "DT_INT32"}, "value": {"tensor": {"dtype": "DT_INT32", "tensorShape": {"dim": [{"size": "4"}]}}}}}, {"name": "StatefulPartitionedCall/BigGAN/Generator/GBlock_8/BatchNorm_3/strided_slice/stack_1", "op": "Const", "attr": {"value": {"tensor": {"dtype": "DT_INT32", "tensorShape": {"dim": [{"size": "4"}]}}}, "dtype": {"type": "DT_INT32"}}}, {"name": "StatefulPartitionedCall/BigGAN/Generator/GBlock_8/BatchNorm_3/strided_slice/stack_2", "op": "Const", "attr": {"value": {"tensor": {"dtype": "DT_INT32", "tensorShape": {"dim": [{"size": "4"}]}}}, "dtype": {"type": "DT_INT32"}}}, {"name": "StatefulPartitionedCall/BigGAN/Generator/GBlock_8/BatchNorm_3/strided_slice_1/stack", "op": "Const", "attr": {"value": {"tensor": {"dtype": "DT_INT32", "tensorShape": {"dim": [{"size": "4"}]}}}, "dtype": {"type": "DT_INT32"}}}, {"name": "StatefulPartitionedCall/BigGAN/Generator/GBlock_8/BatchNorm_3/strided_slice_1/stack_1", "op": "Const", "attr": {"value": {"tensor": {"dtype": "DT_INT32", "tensorShape": {"dim": [{"size": "4"}]}}}, "dtype": {"type": "DT_INT32"}}}, {"name": "StatefulPartitionedCall/BigGAN/Generator/GBlock_8/BatchNorm_3/strided_slice_1/stack_2", "op": "Const", "attr": {"value": {"tensor": {"dtype": "DT_INT32", "tensorShape": {"dim": [{"size": "4"}]}}}, "dtype": {"type": "DT_INT32"}}}, {"name": "StatefulPartitionedCall/BigGAN/Generator/GBlock_8/BatchNorm_3/add_1/y", "op": "Const", "attr": {"dtype": {"type": "DT_FLOAT"}, "value": {"tensor": {"dtype": "DT_FLOAT", "tensorShape": {}}}}}, {"name": "StatefulPartitionedCall/BigGAN/Generator/GBlock_8/BatchNorm_3/add/x", "op": "Const", "attr": {"dtype": {"type": "DT_FLOAT"}, "value": {"tensor": {"dtype": "DT_FLOAT", "tensorShape": {}}}}}, {"name": "StatefulPartitionedCall/BigGAN/Generator/GBlock_8/BatchNorm_3/sn/scale/dense_184/MatMul/ReadVariableOp", "op": "Const", "attr": {"dtype": {"type": "DT_FLOAT"}, "value": {"tensor": {"dtype": "DT_FLOAT", "tensorShape": {"dim": [{"size": "256"}, {"size": "128"}]}}}}}, {"name": "StatefulPartitionedCall/BigGAN/Generator/GBlock_8/BatchNorm_3/strided_slice_2/stack", "op": "Const", "attr": {"value": {"tensor": {"dtype": "DT_INT32", "tensorShape": {"dim": [{"size": "4"}]}}}, "dtype": {"type": "DT_INT32"}}}, {"name": "StatefulPartitionedCall/BigGAN/Generator/GBlock_8/BatchNorm_3/strided_slice_2/stack_1", "op": "Const", "attr": {"dtype": {"type": "DT_INT32"}, "value": {"tensor": {"dtype": "DT_INT32", "tensorShape": {"dim": [{"size": "4"}]}}}}}, {"name": "StatefulPartitionedCall/BigGAN/Generator/GBlock_8/BatchNorm_3/strided_slice_2/stack_2", "op": "Const", "attr": {"value": {"tensor": {"dtype": "DT_INT32", "tensorShape": {"dim": [{"size": "4"}]}}}, "dtype": {"type": "DT_INT32"}}}, {"name": "StatefulPartitionedCall/BigGAN/Generator/GBlock_8/BatchNorm_3/sn/offset/dense_185/MatMul/ReadVariableOp", "op": "Const", "attr": {"dtype": {"type": "DT_FLOAT"}, "value": {"tensor": {"dtype": "DT_FLOAT", "tensorShape": {"dim": [{"size": "256"}, {"size": "128"}]}}}}}, {"name": "StatefulPartitionedCall/BigGAN/Generator/GBlock_8/BatchNorm_3/strided_slice_3/stack", "op": "Const", "attr": {"dtype": {"type": "DT_INT32"}, "value": {"tensor": {"dtype": "DT_INT32", "tensorShape": {"dim": [{"size": "4"}]}}}}}, {"name": "StatefulPartitionedCall/BigGAN/Generator/GBlock_8/BatchNorm_3/strided_slice_3/stack_1", "op": "Const", "attr": {"dtype": {"type": "DT_INT32"}, "value": {"tensor": {"dtype": "DT_INT32", "tensorShape": {"dim": [{"size": "4"}]}}}}}, {"name": "StatefulPartitionedCall/BigGAN/Generator/GBlock_8/BatchNorm_3/strided_slice_3/stack_2", "op": "Const", "attr": {"value": {"tensor": {"dtype": "DT_INT32", "tensorShape": {"dim": [{"size": "4"}]}}}, "dtype": {"type": "DT_INT32"}}}, {"name": "StatefulPartitionedCall/BigGAN/Generator/GBlock_8/sn/conv3/conv2d_100/Conv2D/ReadVariableOp", "op": "Const", "attr": {"dtype": {"type": "DT_FLOAT"}, "value": {"tensor": {"dtype": "DT_FLOAT", "tensorShape": {"dim": [{"size": "1"}, {"size": "1"}, {"size": "128"}, {"size": "512"}]}}}}}, {"name": "StatefulPartitionedCall/BigGAN/Generator/GBlock_8/sn/conv3/conv2d_100/BiasAdd/ReadVariableOp", "op": "Const", "attr": {"value": {"tensor": {"dtype": "DT_FLOAT", "tensorShape": {"dim": [{"size": "512"}]}}}, "dtype": {"type": "DT_FLOAT"}}}, {"name": "StatefulPartitionedCall/BigGAN/Generator/attention/sn/conv_g/conv2d_95/Conv2D/ReadVariableOp", "op": "Const", "attr": {"value": {"tensor": {"dtype": "DT_FLOAT", "tensorShape": {"dim": [{"size": "1"}, {"size": "1"}, {"size": "512"}, {"size": "256"}]}}}, "dtype": {"type": "DT_FLOAT"}}}, {"name": "StatefulPartitionedCall/BigGAN/Generator/attention/Reshape_2/shape", "op": "Const", "attr": {"dtype": {"type": "DT_INT32"}, "value": {"tensor": {"dtype": "DT_INT32", "tensorShape": {"dim": [{"size": "3"}]}}}}}, {"name": "StatefulPartitionedCall/BigGAN/Generator/attention/sn/conv_theta/conv2d_93/Conv2D/ReadVariableOp", "op": "Const", "attr": {"value": {"tensor": {"dtype": "DT_FLOAT", "tensorShape": {"dim": [{"size": "1"}, {"size": "1"}, {"size": "512"}, {"size": "64"}]}}}, "dtype": {"type": "DT_FLOAT"}}}, {"name": "StatefulPartitionedCall/BigGAN/Generator/attention/Reshape/shape", "op": "Const", "attr": {"dtype": {"type": "DT_INT32"}, "value": {"tensor": {"dtype": "DT_INT32", "tensorShape": {"dim": [{"size": "3"}]}}}}}, {"name": "StatefulPartitionedCall/BigGAN/Generator/GBlock_7/BatchNorm_0/strided_slice/stack", "op": "Const", "attr": {"value": {"tensor": {"dtype": "DT_INT32", "tensorShape": {"dim": [{"size": "4"}]}}}, "dtype": {"type": "DT_INT32"}}}, {"name": "StatefulPartitionedCall/BigGAN/Generator/GBlock_7/BatchNorm_0/strided_slice/stack_1", "op": "Const", "attr": {"dtype": {"type": "DT_INT32"}, "value": {"tensor": {"dtype": "DT_INT32", "tensorShape": {"dim": [{"size": "4"}]}}}}}, {"name": "StatefulPartitionedCall/BigGAN/Generator/GBlock_7/BatchNorm_0/strided_slice/stack_2", "op": "Const", "attr": {"dtype": {"type": "DT_INT32"}, "value": {"tensor": {"dtype": "DT_INT32", "tensorShape": {"dim": [{"size": "4"}]}}}}}, {"name": "StatefulPartitionedCall/BigGAN/Generator/GBlock_7/BatchNorm_0/strided_slice_1/stack", "op": "Const", "attr": {"dtype": {"type": "DT_INT32"}, "value": {"tensor": {"dtype": "DT_INT32", "tensorShape": {"dim": [{"size": "4"}]}}}}}, {"name": "StatefulPartitionedCall/BigGAN/Generator/GBlock_7/BatchNorm_0/strided_slice_1/stack_1", "op": "Const", "attr": {"value": {"tensor": {"dtype": "DT_INT32", "tensorShape": {"dim": [{"size": "4"}]}}}, "dtype": {"type": "DT_INT32"}}}, {"name": "StatefulPartitionedCall/BigGAN/Generator/GBlock_7/BatchNorm_0/strided_slice_1/stack_2", "op": "Const", "attr": {"dtype": {"type": "DT_INT32"}, "value": {"tensor": {"dtype": "DT_INT32", "tensorShape": {"dim": [{"size": "4"}]}}}}}, {"name": "StatefulPartitionedCall/BigGAN/Generator/GBlock_7/BatchNorm_0/add_1/y", "op": "Const", "attr": {"dtype": {"type": "DT_FLOAT"}, "value": {"tensor": {"dtype": "DT_FLOAT", "tensorShape": {}}}}}, {"name": "StatefulPartitionedCall/BigGAN/Generator/GBlock_7/BatchNorm_0/add/x", "op": "Const", "attr": {"value": {"tensor": {"dtype": "DT_FLOAT", "tensorShape": {}}}, "dtype": {"type": "DT_FLOAT"}}}, {"name": "StatefulPartitionedCall/BigGAN/Generator/GBlock_7/BatchNorm_0/sn/scale/dense_170/MatMul/ReadVariableOp", "op": "Const", "attr": {"value": {"tensor": {"dtype": "DT_FLOAT", "tensorShape": {"dim": [{"size": "256"}, {"size": "1024"}]}}}, "dtype": {"type": "DT_FLOAT"}}}, {"name": "StatefulPartitionedCall/BigGAN/Generator/GBlock_7/BatchNorm_0/strided_slice_2/stack", "op": "Const", "attr": {"dtype": {"type": "DT_INT32"}, "value": {"tensor": {"dtype": "DT_INT32", "tensorShape": {"dim": [{"size": "4"}]}}}}}, {"name": "StatefulPartitionedCall/BigGAN/Generator/GBlock_7/BatchNorm_0/strided_slice_2/stack_1", "op": "Const", "attr": {"dtype": {"type": "DT_INT32"}, "value": {"tensor": {"dtype": "DT_INT32", "tensorShape": {"dim": [{"size": "4"}]}}}}}, {"name": "StatefulPartitionedCall/BigGAN/Generator/GBlock_7/BatchNorm_0/strided_slice_2/stack_2", "op": "Const", "attr": {"value": {"tensor": {"dtype": "DT_INT32", "tensorShape": {"dim": [{"size": "4"}]}}}, "dtype": {"type": "DT_INT32"}}}, {"name": "StatefulPartitionedCall/BigGAN/Generator/GBlock_7/BatchNorm_0/sn/offset/dense_171/MatMul/ReadVariableOp", "op": "Const", "attr": {"value": {"tensor": {"dtype": "DT_FLOAT", "tensorShape": {"dim": [{"size": "256"}, {"size": "1024"}]}}}, "dtype": {"type": "DT_FLOAT"}}}, {"name": "StatefulPartitionedCall/BigGAN/Generator/GBlock_7/BatchNorm_0/strided_slice_3/stack", "op": "Const", "attr": {"value": {"tensor": {"dtype": "DT_INT32", "tensorShape": {"dim": [{"size": "4"}]}}}, "dtype": {"type": "DT_INT32"}}}, {"name": "StatefulPartitionedCall/BigGAN/Generator/GBlock_7/BatchNorm_0/strided_slice_3/stack_1", "op": "Const", "attr": {"dtype": {"type": "DT_INT32"}, "value": {"tensor": {"dtype": "DT_INT32", "tensorShape": {"dim": [{"size": "4"}]}}}}}, {"name": "StatefulPartitionedCall/BigGAN/Generator/GBlock_7/BatchNorm_0/strided_slice_3/stack_2", "op": "Const", "attr": {"dtype": {"type": "DT_INT32"}, "value": {"tensor": {"dtype": "DT_INT32", "tensorShape": {"dim": [{"size": "4"}]}}}}}, {"name": "StatefulPartitionedCall/BigGAN/Generator/GBlock_7/sn/conv0/conv2d_89/Conv2D/ReadVariableOp", "op": "Const", "attr": {"dtype": {"type": "DT_FLOAT"}, "value": {"tensor": {"dtype": "DT_FLOAT", "tensorShape": {"dim": [{"size": "1"}, {"size": "1"}, {"size": "1024"}, {"size": "256"}]}}}}}, {"name": "StatefulPartitionedCall/BigGAN/Generator/GBlock_7/sn/conv0/conv2d_89/BiasAdd/ReadVariableOp", "op": "Const", "attr": {"value": {"tensor": {"dtype": "DT_FLOAT", "tensorShape": {"dim": [{"size": "256"}]}}}, "dtype": {"type": "DT_FLOAT"}}}, {"name": "StatefulPartitionedCall/BigGAN/Generator/GBlock_7/BatchNorm_1/strided_slice/stack", "op": "Const", "attr": {"value": {"tensor": {"dtype": "DT_INT32", "tensorShape": {"dim": [{"size": "4"}]}}}, "dtype": {"type": "DT_INT32"}}}, {"name": "StatefulPartitionedCall/BigGAN/Generator/GBlock_7/BatchNorm_1/strided_slice/stack_1", "op": "Const", "attr": {"dtype": {"type": "DT_INT32"}, "value": {"tensor": {"dtype": "DT_INT32", "tensorShape": {"dim": [{"size": "4"}]}}}}}, {"name": "StatefulPartitionedCall/BigGAN/Generator/GBlock_7/BatchNorm_1/strided_slice/stack_2", "op": "Const", "attr": {"value": {"tensor": {"dtype": "DT_INT32", "tensorShape": {"dim": [{"size": "4"}]}}}, "dtype": {"type": "DT_INT32"}}}, {"name": "StatefulPartitionedCall/BigGAN/Generator/GBlock_7/BatchNorm_1/strided_slice_1/stack", "op": "Const", "attr": {"dtype": {"type": "DT_INT32"}, "value": {"tensor": {"dtype": "DT_INT32", "tensorShape": {"dim": [{"size": "4"}]}}}}}, {"name": "StatefulPartitionedCall/BigGAN/Generator/GBlock_7/BatchNorm_1/strided_slice_1/stack_1", "op": "Const", "attr": {"dtype": {"type": "DT_INT32"}, "value": {"tensor": {"dtype": "DT_INT32", "tensorShape": {"dim": [{"size": "4"}]}}}}}, {"name": "StatefulPartitionedCall/BigGAN/Generator/GBlock_7/BatchNorm_1/strided_slice_1/stack_2", "op": "Const", "attr": {"dtype": {"type": "DT_INT32"}, "value": {"tensor": {"dtype": "DT_INT32", "tensorShape": {"dim": [{"size": "4"}]}}}}}, {"name": "StatefulPartitionedCall/BigGAN/Generator/GBlock_7/BatchNorm_1/add_1/y", "op": "Const", "attr": {"dtype": {"type": "DT_FLOAT"}, "value": {"tensor": {"dtype": "DT_FLOAT", "tensorShape": {}}}}}, {"name": "StatefulPartitionedCall/BigGAN/Generator/GBlock_7/BatchNorm_1/add/x", "op": "Const", "attr": {"value": {"tensor": {"dtype": "DT_FLOAT", "tensorShape": {}}}, "dtype": {"type": "DT_FLOAT"}}}, {"name": "StatefulPartitionedCall/BigGAN/Generator/GBlock_7/BatchNorm_1/sn/scale/dense_172/MatMul/ReadVariableOp", "op": "Const", "attr": {"dtype": {"type": "DT_FLOAT"}, "value": {"tensor": {"dtype": "DT_FLOAT", "tensorShape": {"dim": [{"size": "256"}, {"size": "256"}]}}}}}, {"name": "StatefulPartitionedCall/BigGAN/Generator/GBlock_7/BatchNorm_1/strided_slice_2/stack", "op": "Const", "attr": {"value": {"tensor": {"dtype": "DT_INT32", "tensorShape": {"dim": [{"size": "4"}]}}}, "dtype": {"type": "DT_INT32"}}}, {"name": "StatefulPartitionedCall/BigGAN/Generator/GBlock_7/BatchNorm_1/strided_slice_2/stack_1", "op": "Const", "attr": {"dtype": {"type": "DT_INT32"}, "value": {"tensor": {"dtype": "DT_INT32", "tensorShape": {"dim": [{"size": "4"}]}}}}}, {"name": "StatefulPartitionedCall/BigGAN/Generator/GBlock_7/BatchNorm_1/strided_slice_2/stack_2", "op": "Const", "attr": {"dtype": {"type": "DT_INT32"}, "value": {"tensor": {"dtype": "DT_INT32", "tensorShape": {"dim": [{"size": "4"}]}}}}}, {"name": "StatefulPartitionedCall/BigGAN/Generator/GBlock_7/BatchNorm_1/sn/offset/dense_173/MatMul/ReadVariableOp", "op": "Const", "attr": {"value": {"tensor": {"dtype": "DT_FLOAT", "tensorShape": {"dim": [{"size": "256"}, {"size": "256"}]}}}, "dtype": {"type": "DT_FLOAT"}}}, {"name": "StatefulPartitionedCall/BigGAN/Generator/GBlock_7/BatchNorm_1/strided_slice_3/stack", "op": "Const", "attr": {"dtype": {"type": "DT_INT32"}, "value": {"tensor": {"dtype": "DT_INT32", "tensorShape": {"dim": [{"size": "4"}]}}}}}, {"name": "StatefulPartitionedCall/BigGAN/Generator/GBlock_7/BatchNorm_1/strided_slice_3/stack_1", "op": "Const", "attr": {"dtype": {"type": "DT_INT32"}, "value": {"tensor": {"dtype": "DT_INT32", "tensorShape": {"dim": [{"size": "4"}]}}}}}, {"name": "StatefulPartitionedCall/BigGAN/Generator/GBlock_7/BatchNorm_1/strided_slice_3/stack_2", "op": "Const", "attr": {"dtype": {"type": "DT_INT32"}, "value": {"tensor": {"dtype": "DT_INT32", "tensorShape": {"dim": [{"size": "4"}]}}}}}, {"name": "StatefulPartitionedCall/BigGAN/Generator/GBlock_7/up_sampling2d_42/mul", "op": "Const", "attr": {"value": {"tensor": {"dtype": "DT_INT32", "tensorShape": {"dim": [{"size": "2"}]}}}, "dtype": {"type": "DT_INT32"}}}, {"name": "StatefulPartitionedCall/BigGAN/Generator/GBlock_7/sn/conv1/conv2d_90/Conv2D/ReadVariableOp", "op": "Const", "attr": {"value": {"tensor": {"dtype": "DT_FLOAT", "tensorShape": {"dim": [{"size": "3"}, {"size": "3"}, {"size": "256"}, {"size": "256"}]}}}, "dtype": {"type": "DT_FLOAT"}}}, {"name": "StatefulPartitionedCall/BigGAN/Generator/GBlock_7/sn/conv1/conv2d_90/BiasAdd/ReadVariableOp", "op": "Const", "attr": {"value": {"tensor": {"dtype": "DT_FLOAT", "tensorShape": {"dim": [{"size": "256"}]}}}, "dtype": {"type": "DT_FLOAT"}}}, {"name": "StatefulPartitionedCall/BigGAN/Generator/GBlock_7/BatchNorm_2/strided_slice/stack", "op": "Const", "attr": {"value": {"tensor": {"dtype": "DT_INT32", "tensorShape": {"dim": [{"size": "4"}]}}}, "dtype": {"type": "DT_INT32"}}}, {"name": "StatefulPartitionedCall/BigGAN/Generator/GBlock_7/BatchNorm_2/strided_slice/stack_1", "op": "Const", "attr": {"value": {"tensor": {"dtype": "DT_INT32", "tensorShape": {"dim": [{"size": "4"}]}}}, "dtype": {"type": "DT_INT32"}}}, {"name": "StatefulPartitionedCall/BigGAN/Generator/GBlock_7/BatchNorm_2/strided_slice/stack_2", "op": "Const", "attr": {"value": {"tensor": {"dtype": "DT_INT32", "tensorShape": {"dim": [{"size": "4"}]}}}, "dtype": {"type": "DT_INT32"}}}, {"name": "StatefulPartitionedCall/BigGAN/Generator/GBlock_7/BatchNorm_2/strided_slice_1/stack", "op": "Const", "attr": {"dtype": {"type": "DT_INT32"}, "value": {"tensor": {"dtype": "DT_INT32", "tensorShape": {"dim": [{"size": "4"}]}}}}}, {"name": "StatefulPartitionedCall/BigGAN/Generator/GBlock_7/BatchNorm_2/strided_slice_1/stack_1", "op": "Const", "attr": {"value": {"tensor": {"dtype": "DT_INT32", "tensorShape": {"dim": [{"size": "4"}]}}}, "dtype": {"type": "DT_INT32"}}}, {"name": "StatefulPartitionedCall/BigGAN/Generator/GBlock_7/BatchNorm_2/strided_slice_1/stack_2", "op": "Const", "attr": {"dtype": {"type": "DT_INT32"}, "value": {"tensor": {"dtype": "DT_INT32", "tensorShape": {"dim": [{"size": "4"}]}}}}}, {"name": "StatefulPartitionedCall/BigGAN/Generator/GBlock_7/BatchNorm_2/add_1/y", "op": "Const", "attr": {"dtype": {"type": "DT_FLOAT"}, "value": {"tensor": {"dtype": "DT_FLOAT", "tensorShape": {}}}}}, {"name": "StatefulPartitionedCall/BigGAN/Generator/GBlock_7/BatchNorm_2/add/x", "op": "Const", "attr": {"value": {"tensor": {"dtype": "DT_FLOAT", "tensorShape": {}}}, "dtype": {"type": "DT_FLOAT"}}}, {"name": "StatefulPartitionedCall/BigGAN/Generator/GBlock_7/BatchNorm_2/sn/scale/dense_174/MatMul/ReadVariableOp", "op": "Const", "attr": {"value": {"tensor": {"dtype": "DT_FLOAT", "tensorShape": {"dim": [{"size": "256"}, {"size": "256"}]}}}, "dtype": {"type": "DT_FLOAT"}}}, {"name": "StatefulPartitionedCall/BigGAN/Generator/GBlock_7/BatchNorm_2/strided_slice_2/stack", "op": "Const", "attr": {"value": {"tensor": {"dtype": "DT_INT32", "tensorShape": {"dim": [{"size": "4"}]}}}, "dtype": {"type": "DT_INT32"}}}, {"name": "StatefulPartitionedCall/BigGAN/Generator/GBlock_7/BatchNorm_2/strided_slice_2/stack_1", "op": "Const", "attr": {"dtype": {"type": "DT_INT32"}, "value": {"tensor": {"dtype": "DT_INT32", "tensorShape": {"dim": [{"size": "4"}]}}}}}, {"name": "StatefulPartitionedCall/BigGAN/Generator/GBlock_7/BatchNorm_2/strided_slice_2/stack_2", "op": "Const", "attr": {"value": {"tensor": {"dtype": "DT_INT32", "tensorShape": {"dim": [{"size": "4"}]}}}, "dtype": {"type": "DT_INT32"}}}, {"name": "StatefulPartitionedCall/BigGAN/Generator/GBlock_7/BatchNorm_2/sn/offset/dense_175/MatMul/ReadVariableOp", "op": "Const", "attr": {"dtype": {"type": "DT_FLOAT"}, "value": {"tensor": {"dtype": "DT_FLOAT", "tensorShape": {"dim": [{"size": "256"}, {"size": "256"}]}}}}}, {"name": "StatefulPartitionedCall/BigGAN/Generator/GBlock_7/BatchNorm_2/strided_slice_3/stack", "op": "Const", "attr": {"dtype": {"type": "DT_INT32"}, "value": {"tensor": {"dtype": "DT_INT32", "tensorShape": {"dim": [{"size": "4"}]}}}}}, {"name": "StatefulPartitionedCall/BigGAN/Generator/GBlock_7/BatchNorm_2/strided_slice_3/stack_1", "op": "Const", "attr": {"value": {"tensor": {"dtype": "DT_INT32", "tensorShape": {"dim": [{"size": "4"}]}}}, "dtype": {"type": "DT_INT32"}}}, {"name": "StatefulPartitionedCall/BigGAN/Generator/GBlock_7/BatchNorm_2/strided_slice_3/stack_2", "op": "Const", "attr": {"dtype": {"type": "DT_INT32"}, "value": {"tensor": {"dtype": "DT_INT32", "tensorShape": {"dim": [{"size": "4"}]}}}}}, {"name": "StatefulPartitionedCall/BigGAN/Generator/GBlock_7/sn/conv2/conv2d_91/Conv2D/ReadVariableOp", "op": "Const", "attr": {"dtype": {"type": "DT_FLOAT"}, "value": {"tensor": {"dtype": "DT_FLOAT", "tensorShape": {"dim": [{"size": "3"}, {"size": "3"}, {"size": "256"}, {"size": "256"}]}}}}}, {"name": "StatefulPartitionedCall/BigGAN/Generator/GBlock_7/sn/conv2/conv2d_91/BiasAdd/ReadVariableOp", "op": "Const", "attr": {"dtype": {"type": "DT_FLOAT"}, "value": {"tensor": {"dtype": "DT_FLOAT", "tensorShape": {"dim": [{"size": "256"}]}}}}}, {"name": "StatefulPartitionedCall/BigGAN/Generator/GBlock_7/BatchNorm_3/strided_slice/stack", "op": "Const", "attr": {"dtype": {"type": "DT_INT32"}, "value": {"tensor": {"dtype": "DT_INT32", "tensorShape": {"dim": [{"size": "4"}]}}}}}, {"name": "StatefulPartitionedCall/BigGAN/Generator/GBlock_7/BatchNorm_3/strided_slice/stack_1", "op": "Const", "attr": {"dtype": {"type": "DT_INT32"}, "value": {"tensor": {"dtype": "DT_INT32", "tensorShape": {"dim": [{"size": "4"}]}}}}}, {"name": "StatefulPartitionedCall/BigGAN/Generator/GBlock_7/BatchNorm_3/strided_slice/stack_2", "op": "Const", "attr": {"dtype": {"type": "DT_INT32"}, "value": {"tensor": {"dtype": "DT_INT32", "tensorShape": {"dim": [{"size": "4"}]}}}}}, {"name": "StatefulPartitionedCall/BigGAN/Generator/GBlock_7/BatchNorm_3/strided_slice_1/stack", "op": "Const", "attr": {"dtype": {"type": "DT_INT32"}, "value": {"tensor": {"dtype": "DT_INT32", "tensorShape": {"dim": [{"size": "4"}]}}}}}, {"name": "StatefulPartitionedCall/BigGAN/Generator/GBlock_7/BatchNorm_3/strided_slice_1/stack_1", "op": "Const", "attr": {"value": {"tensor": {"dtype": "DT_INT32", "tensorShape": {"dim": [{"size": "4"}]}}}, "dtype": {"type": "DT_INT32"}}}, {"name": "StatefulPartitionedCall/BigGAN/Generator/GBlock_7/BatchNorm_3/strided_slice_1/stack_2", "op": "Const", "attr": {"dtype": {"type": "DT_INT32"}, "value": {"tensor": {"dtype": "DT_INT32", "tensorShape": {"dim": [{"size": "4"}]}}}}}, {"name": "StatefulPartitionedCall/BigGAN/Generator/GBlock_7/BatchNorm_3/add_1/y", "op": "Const", "attr": {"value": {"tensor": {"dtype": "DT_FLOAT", "tensorShape": {}}}, "dtype": {"type": "DT_FLOAT"}}}, {"name": "StatefulPartitionedCall/BigGAN/Generator/GBlock_7/BatchNorm_3/add/x", "op": "Const", "attr": {"value": {"tensor": {"dtype": "DT_FLOAT", "tensorShape": {}}}, "dtype": {"type": "DT_FLOAT"}}}, {"name": "StatefulPartitionedCall/BigGAN/Generator/GBlock_7/BatchNorm_3/sn/scale/dense_176/MatMul/ReadVariableOp", "op": "Const", "attr": {"dtype": {"type": "DT_FLOAT"}, "value": {"tensor": {"dtype": "DT_FLOAT", "tensorShape": {"dim": [{"size": "256"}, {"size": "256"}]}}}}}, {"name": "StatefulPartitionedCall/BigGAN/Generator/GBlock_7/BatchNorm_3/strided_slice_2/stack", "op": "Const", "attr": {"dtype": {"type": "DT_INT32"}, "value": {"tensor": {"dtype": "DT_INT32", "tensorShape": {"dim": [{"size": "4"}]}}}}}, {"name": "StatefulPartitionedCall/BigGAN/Generator/GBlock_7/BatchNorm_3/strided_slice_2/stack_1", "op": "Const", "attr": {"value": {"tensor": {"dtype": "DT_INT32", "tensorShape": {"dim": [{"size": "4"}]}}}, "dtype": {"type": "DT_INT32"}}}, {"name": "StatefulPartitionedCall/BigGAN/Generator/GBlock_7/BatchNorm_3/strided_slice_2/stack_2", "op": "Const", "attr": {"dtype": {"type": "DT_INT32"}, "value": {"tensor": {"dtype": "DT_INT32", "tensorShape": {"dim": [{"size": "4"}]}}}}}, {"name": "StatefulPartitionedCall/BigGAN/Generator/GBlock_7/BatchNorm_3/sn/offset/dense_177/MatMul/ReadVariableOp", "op": "Const", "attr": {"value": {"tensor": {"dtype": "DT_FLOAT", "tensorShape": {"dim": [{"size": "256"}, {"size": "256"}]}}}, "dtype": {"type": "DT_FLOAT"}}}, {"name": "StatefulPartitionedCall/BigGAN/Generator/GBlock_7/BatchNorm_3/strided_slice_3/stack", "op": "Const", "attr": {"value": {"tensor": {"dtype": "DT_INT32", "tensorShape": {"dim": [{"size": "4"}]}}}, "dtype": {"type": "DT_INT32"}}}, {"name": "StatefulPartitionedCall/BigGAN/Generator/GBlock_7/BatchNorm_3/strided_slice_3/stack_1", "op": "Const", "attr": {"dtype": {"type": "DT_INT32"}, "value": {"tensor": {"dtype": "DT_INT32", "tensorShape": {"dim": [{"size": "4"}]}}}}}, {"name": "StatefulPartitionedCall/BigGAN/Generator/GBlock_7/BatchNorm_3/strided_slice_3/stack_2", "op": "Const", "attr": {"dtype": {"type": "DT_INT32"}, "value": {"tensor": {"dtype": "DT_INT32", "tensorShape": {"dim": [{"size": "4"}]}}}}}, {"name": "StatefulPartitionedCall/BigGAN/Generator/GBlock_7/sn/conv3/conv2d_92/Conv2D/ReadVariableOp", "op": "Const", "attr": {"value": {"tensor": {"dtype": "DT_FLOAT", "tensorShape": {"dim": [{"size": "1"}, {"size": "1"}, {"size": "256"}, {"size": "512"}]}}}, "dtype": {"type": "DT_FLOAT"}}}, {"name": "StatefulPartitionedCall/BigGAN/Generator/GBlock_7/sn/conv3/conv2d_92/BiasAdd/ReadVariableOp", "op": "Const", "attr": {"value": {"tensor": {"dtype": "DT_FLOAT", "tensorShape": {"dim": [{"size": "512"}]}}}, "dtype": {"type": "DT_FLOAT"}}}, {"name": "StatefulPartitionedCall/BigGAN/Generator/GBlock_6/BatchNorm_0/strided_slice/stack", "op": "Const", "attr": {"dtype": {"type": "DT_INT32"}, "value": {"tensor": {"dtype": "DT_INT32", "tensorShape": {"dim": [{"size": "4"}]}}}}}, {"name": "StatefulPartitionedCall/BigGAN/Generator/GBlock_6/BatchNorm_0/strided_slice/stack_1", "op": "Const", "attr": {"dtype": {"type": "DT_INT32"}, "value": {"tensor": {"dtype": "DT_INT32", "tensorShape": {"dim": [{"size": "4"}]}}}}}, {"name": "StatefulPartitionedCall/BigGAN/Generator/GBlock_6/BatchNorm_0/strided_slice/stack_2", "op": "Const", "attr": {"value": {"tensor": {"dtype": "DT_INT32", "tensorShape": {"dim": [{"size": "4"}]}}}, "dtype": {"type": "DT_INT32"}}}, {"name": "StatefulPartitionedCall/BigGAN/Generator/GBlock_6/BatchNorm_0/strided_slice_1/stack", "op": "Const", "attr": {"value": {"tensor": {"dtype": "DT_INT32", "tensorShape": {"dim": [{"size": "4"}]}}}, "dtype": {"type": "DT_INT32"}}}, {"name": "StatefulPartitionedCall/BigGAN/Generator/GBlock_6/BatchNorm_0/strided_slice_1/stack_1", "op": "Const", "attr": {"dtype": {"type": "DT_INT32"}, "value": {"tensor": {"dtype": "DT_INT32", "tensorShape": {"dim": [{"size": "4"}]}}}}}, {"name": "StatefulPartitionedCall/BigGAN/Generator/GBlock_6/BatchNorm_0/strided_slice_1/stack_2", "op": "Const", "attr": {"value": {"tensor": {"dtype": "DT_INT32", "tensorShape": {"dim": [{"size": "4"}]}}}, "dtype": {"type": "DT_INT32"}}}, {"name": "StatefulPartitionedCall/BigGAN/Generator/GBlock_6/BatchNorm_0/add_1/y", "op": "Const", "attr": {"dtype": {"type": "DT_FLOAT"}, "value": {"tensor": {"dtype": "DT_FLOAT", "tensorShape": {}}}}}, {"name": "StatefulPartitionedCall/BigGAN/Generator/GBlock_6/BatchNorm_0/add/x", "op": "Const", "attr": {"dtype": {"type": "DT_FLOAT"}, "value": {"tensor": {"dtype": "DT_FLOAT", "tensorShape": {}}}}}, {"name": "StatefulPartitionedCall/BigGAN/Generator/GBlock_6/BatchNorm_0/sn/scale/dense_162/MatMul/ReadVariableOp", "op": "Const", "attr": {"dtype": {"type": "DT_FLOAT"}, "value": {"tensor": {"dtype": "DT_FLOAT", "tensorShape": {"dim": [{"size": "256"}, {"size": "1024"}]}}}}}, {"name": "StatefulPartitionedCall/BigGAN/Generator/GBlock_6/BatchNorm_0/strided_slice_2/stack", "op": "Const", "attr": {"value": {"tensor": {"dtype": "DT_INT32", "tensorShape": {"dim": [{"size": "4"}]}}}, "dtype": {"type": "DT_INT32"}}}, {"name": "StatefulPartitionedCall/BigGAN/Generator/GBlock_6/BatchNorm_0/strided_slice_2/stack_1", "op": "Const", "attr": {"value": {"tensor": {"dtype": "DT_INT32", "tensorShape": {"dim": [{"size": "4"}]}}}, "dtype": {"type": "DT_INT32"}}}, {"name": "StatefulPartitionedCall/BigGAN/Generator/GBlock_6/BatchNorm_0/strided_slice_2/stack_2", "op": "Const", "attr": {"dtype": {"type": "DT_INT32"}, "value": {"tensor": {"dtype": "DT_INT32", "tensorShape": {"dim": [{"size": "4"}]}}}}}, {"name": "StatefulPartitionedCall/BigGAN/Generator/GBlock_6/BatchNorm_0/sn/offset/dense_163/MatMul/ReadVariableOp", "op": "Const", "attr": {"dtype": {"type": "DT_FLOAT"}, "value": {"tensor": {"dtype": "DT_FLOAT", "tensorShape": {"dim": [{"size": "256"}, {"size": "1024"}]}}}}}, {"name": "StatefulPartitionedCall/BigGAN/Generator/GBlock_6/BatchNorm_0/strided_slice_3/stack", "op": "Const", "attr": {"value": {"tensor": {"dtype": "DT_INT32", "tensorShape": {"dim": [{"size": "4"}]}}}, "dtype": {"type": "DT_INT32"}}}, {"name": "StatefulPartitionedCall/BigGAN/Generator/GBlock_6/BatchNorm_0/strided_slice_3/stack_1", "op": "Const", "attr": {"dtype": {"type": "DT_INT32"}, "value": {"tensor": {"dtype": "DT_INT32", "tensorShape": {"dim": [{"size": "4"}]}}}}}, {"name": "StatefulPartitionedCall/BigGAN/Generator/GBlock_6/BatchNorm_0/strided_slice_3/stack_2", "op": "Const", "attr": {"dtype": {"type": "DT_INT32"}, "value": {"tensor": {"dtype": "DT_INT32", "tensorShape": {"dim": [{"size": "4"}]}}}}}, {"name": "StatefulPartitionedCall/BigGAN/Generator/GBlock_6/sn/conv0/conv2d_85/Conv2D/ReadVariableOp", "op": "Const", "attr": {"value": {"tensor": {"dtype": "DT_FLOAT", "tensorShape": {"dim": [{"size": "1"}, {"size": "1"}, {"size": "1024"}, {"size": "256"}]}}}, "dtype": {"type": "DT_FLOAT"}}}, {"name": "StatefulPartitionedCall/BigGAN/Generator/GBlock_6/sn/conv0/conv2d_85/BiasAdd/ReadVariableOp", "op": "Const", "attr": {"dtype": {"type": "DT_FLOAT"}, "value": {"tensor": {"dtype": "DT_FLOAT", "tensorShape": {"dim": [{"size": "256"}]}}}}}, {"name": "StatefulPartitionedCall/BigGAN/Generator/GBlock_6/BatchNorm_1/strided_slice/stack", "op": "Const", "attr": {"dtype": {"type": "DT_INT32"}, "value": {"tensor": {"dtype": "DT_INT32", "tensorShape": {"dim": [{"size": "4"}]}}}}}, {"name": "StatefulPartitionedCall/BigGAN/Generator/GBlock_6/BatchNorm_1/strided_slice/stack_1", "op": "Const", "attr": {"dtype": {"type": "DT_INT32"}, "value": {"tensor": {"dtype": "DT_INT32", "tensorShape": {"dim": [{"size": "4"}]}}}}}, {"name": "StatefulPartitionedCall/BigGAN/Generator/GBlock_6/BatchNorm_1/strided_slice/stack_2", "op": "Const", "attr": {"value": {"tensor": {"dtype": "DT_INT32", "tensorShape": {"dim": [{"size": "4"}]}}}, "dtype": {"type": "DT_INT32"}}}, {"name": "StatefulPartitionedCall/BigGAN/Generator/GBlock_6/BatchNorm_1/strided_slice_1/stack", "op": "Const", "attr": {"dtype": {"type": "DT_INT32"}, "value": {"tensor": {"dtype": "DT_INT32", "tensorShape": {"dim": [{"size": "4"}]}}}}}, {"name": "StatefulPartitionedCall/BigGAN/Generator/GBlock_6/BatchNorm_1/strided_slice_1/stack_1", "op": "Const", "attr": {"value": {"tensor": {"dtype": "DT_INT32", "tensorShape": {"dim": [{"size": "4"}]}}}, "dtype": {"type": "DT_INT32"}}}, {"name": "StatefulPartitionedCall/BigGAN/Generator/GBlock_6/BatchNorm_1/strided_slice_1/stack_2", "op": "Const", "attr": {"value": {"tensor": {"dtype": "DT_INT32", "tensorShape": {"dim": [{"size": "4"}]}}}, "dtype": {"type": "DT_INT32"}}}, {"name": "StatefulPartitionedCall/BigGAN/Generator/GBlock_6/BatchNorm_1/add_1/y", "op": "Const", "attr": {"dtype": {"type": "DT_FLOAT"}, "value": {"tensor": {"dtype": "DT_FLOAT", "tensorShape": {}}}}}, {"name": "StatefulPartitionedCall/BigGAN/Generator/GBlock_6/BatchNorm_1/add/x", "op": "Const", "attr": {"dtype": {"type": "DT_FLOAT"}, "value": {"tensor": {"dtype": "DT_FLOAT", "tensorShape": {}}}}}, {"name": "StatefulPartitionedCall/BigGAN/Generator/GBlock_6/BatchNorm_1/sn/scale/dense_164/MatMul/ReadVariableOp", "op": "Const", "attr": {"dtype": {"type": "DT_FLOAT"}, "value": {"tensor": {"dtype": "DT_FLOAT", "tensorShape": {"dim": [{"size": "256"}, {"size": "256"}]}}}}}, {"name": "StatefulPartitionedCall/BigGAN/Generator/GBlock_6/BatchNorm_1/strided_slice_2/stack", "op": "Const", "attr": {"value": {"tensor": {"dtype": "DT_INT32", "tensorShape": {"dim": [{"size": "4"}]}}}, "dtype": {"type": "DT_INT32"}}}, {"name": "StatefulPartitionedCall/BigGAN/Generator/GBlock_6/BatchNorm_1/strided_slice_2/stack_1", "op": "Const", "attr": {"value": {"tensor": {"dtype": "DT_INT32", "tensorShape": {"dim": [{"size": "4"}]}}}, "dtype": {"type": "DT_INT32"}}}, {"name": "StatefulPartitionedCall/BigGAN/Generator/GBlock_6/BatchNorm_1/strided_slice_2/stack_2", "op": "Const", "attr": {"dtype": {"type": "DT_INT32"}, "value": {"tensor": {"dtype": "DT_INT32", "tensorShape": {"dim": [{"size": "4"}]}}}}}, {"name": "StatefulPartitionedCall/BigGAN/Generator/GBlock_6/BatchNorm_1/sn/offset/dense_165/MatMul/ReadVariableOp", "op": "Const", "attr": {"dtype": {"type": "DT_FLOAT"}, "value": {"tensor": {"dtype": "DT_FLOAT", "tensorShape": {"dim": [{"size": "256"}, {"size": "256"}]}}}}}, {"name": "StatefulPartitionedCall/BigGAN/Generator/GBlock_6/BatchNorm_1/strided_slice_3/stack", "op": "Const", "attr": {"dtype": {"type": "DT_INT32"}, "value": {"tensor": {"dtype": "DT_INT32", "tensorShape": {"dim": [{"size": "4"}]}}}}}, {"name": "StatefulPartitionedCall/BigGAN/Generator/GBlock_6/BatchNorm_1/strided_slice_3/stack_1", "op": "Const", "attr": {"dtype": {"type": "DT_INT32"}, "value": {"tensor": {"dtype": "DT_INT32", "tensorShape": {"dim": [{"size": "4"}]}}}}}, {"name": "StatefulPartitionedCall/BigGAN/Generator/GBlock_6/BatchNorm_1/strided_slice_3/stack_2", "op": "Const", "attr": {"dtype": {"type": "DT_INT32"}, "value": {"tensor": {"dtype": "DT_INT32", "tensorShape": {"dim": [{"size": "4"}]}}}}}, {"name": "StatefulPartitionedCall/BigGAN/Generator/GBlock_6/sn/conv1/conv2d_86/Conv2D/ReadVariableOp", "op": "Const", "attr": {"value": {"tensor": {"dtype": "DT_FLOAT", "tensorShape": {"dim": [{"size": "3"}, {"size": "3"}, {"size": "256"}, {"size": "256"}]}}}, "dtype": {"type": "DT_FLOAT"}}}, {"name": "StatefulPartitionedCall/BigGAN/Generator/GBlock_6/sn/conv1/conv2d_86/BiasAdd/ReadVariableOp", "op": "Const", "attr": {"dtype": {"type": "DT_FLOAT"}, "value": {"tensor": {"dtype": "DT_FLOAT", "tensorShape": {"dim": [{"size": "256"}]}}}}}, {"name": "StatefulPartitionedCall/BigGAN/Generator/GBlock_6/BatchNorm_2/strided_slice/stack", "op": "Const", "attr": {"dtype": {"type": "DT_INT32"}, "value": {"tensor": {"dtype": "DT_INT32", "tensorShape": {"dim": [{"size": "4"}]}}}}}, {"name": "StatefulPartitionedCall/BigGAN/Generator/GBlock_6/BatchNorm_2/strided_slice/stack_1", "op": "Const", "attr": {"dtype": {"type": "DT_INT32"}, "value": {"tensor": {"dtype": "DT_INT32", "tensorShape": {"dim": [{"size": "4"}]}}}}}, {"name": "StatefulPartitionedCall/BigGAN/Generator/GBlock_6/BatchNorm_2/strided_slice/stack_2", "op": "Const", "attr": {"value": {"tensor": {"dtype": "DT_INT32", "tensorShape": {"dim": [{"size": "4"}]}}}, "dtype": {"type": "DT_INT32"}}}, {"name": "StatefulPartitionedCall/BigGAN/Generator/GBlock_6/BatchNorm_2/strided_slice_1/stack", "op": "Const", "attr": {"value": {"tensor": {"dtype": "DT_INT32", "tensorShape": {"dim": [{"size": "4"}]}}}, "dtype": {"type": "DT_INT32"}}}, {"name": "StatefulPartitionedCall/BigGAN/Generator/GBlock_6/BatchNorm_2/strided_slice_1/stack_1", "op": "Const", "attr": {"dtype": {"type": "DT_INT32"}, "value": {"tensor": {"dtype": "DT_INT32", "tensorShape": {"dim": [{"size": "4"}]}}}}}, {"name": "StatefulPartitionedCall/BigGAN/Generator/GBlock_6/BatchNorm_2/strided_slice_1/stack_2", "op": "Const", "attr": {"value": {"tensor": {"dtype": "DT_INT32", "tensorShape": {"dim": [{"size": "4"}]}}}, "dtype": {"type": "DT_INT32"}}}, {"name": "StatefulPartitionedCall/BigGAN/Generator/GBlock_6/BatchNorm_2/add_1/y", "op": "Const", "attr": {"dtype": {"type": "DT_FLOAT"}, "value": {"tensor": {"dtype": "DT_FLOAT", "tensorShape": {}}}}}, {"name": "StatefulPartitionedCall/BigGAN/Generator/GBlock_6/BatchNorm_2/add/x", "op": "Const", "attr": {"dtype": {"type": "DT_FLOAT"}, "value": {"tensor": {"dtype": "DT_FLOAT", "tensorShape": {}}}}}, {"name": "StatefulPartitionedCall/BigGAN/Generator/GBlock_6/BatchNorm_2/sn/scale/dense_166/MatMul/ReadVariableOp", "op": "Const", "attr": {"value": {"tensor": {"dtype": "DT_FLOAT", "tensorShape": {"dim": [{"size": "256"}, {"size": "256"}]}}}, "dtype": {"type": "DT_FLOAT"}}}, {"name": "StatefulPartitionedCall/BigGAN/Generator/GBlock_6/BatchNorm_2/strided_slice_2/stack", "op": "Const", "attr": {"value": {"tensor": {"dtype": "DT_INT32", "tensorShape": {"dim": [{"size": "4"}]}}}, "dtype": {"type": "DT_INT32"}}}, {"name": "StatefulPartitionedCall/BigGAN/Generator/GBlock_6/BatchNorm_2/strided_slice_2/stack_1", "op": "Const", "attr": {"dtype": {"type": "DT_INT32"}, "value": {"tensor": {"dtype": "DT_INT32", "tensorShape": {"dim": [{"size": "4"}]}}}}}, {"name": "StatefulPartitionedCall/BigGAN/Generator/GBlock_6/BatchNorm_2/strided_slice_2/stack_2", "op": "Const", "attr": {"dtype": {"type": "DT_INT32"}, "value": {"tensor": {"dtype": "DT_INT32", "tensorShape": {"dim": [{"size": "4"}]}}}}}, {"name": "StatefulPartitionedCall/BigGAN/Generator/GBlock_6/BatchNorm_2/sn/offset/dense_167/MatMul/ReadVariableOp", "op": "Const", "attr": {"dtype": {"type": "DT_FLOAT"}, "value": {"tensor": {"dtype": "DT_FLOAT", "tensorShape": {"dim": [{"size": "256"}, {"size": "256"}]}}}}}, {"name": "StatefulPartitionedCall/BigGAN/Generator/GBlock_6/BatchNorm_2/strided_slice_3/stack", "op": "Const", "attr": {"dtype": {"type": "DT_INT32"}, "value": {"tensor": {"dtype": "DT_INT32", "tensorShape": {"dim": [{"size": "4"}]}}}}}, {"name": "StatefulPartitionedCall/BigGAN/Generator/GBlock_6/BatchNorm_2/strided_slice_3/stack_1", "op": "Const", "attr": {"dtype": {"type": "DT_INT32"}, "value": {"tensor": {"dtype": "DT_INT32", "tensorShape": {"dim": [{"size": "4"}]}}}}}, {"name": "StatefulPartitionedCall/BigGAN/Generator/GBlock_6/BatchNorm_2/strided_slice_3/stack_2", "op": "Const", "attr": {"dtype": {"type": "DT_INT32"}, "value": {"tensor": {"dtype": "DT_INT32", "tensorShape": {"dim": [{"size": "4"}]}}}}}, {"name": "StatefulPartitionedCall/BigGAN/Generator/GBlock_6/sn/conv2/conv2d_87/Conv2D/ReadVariableOp", "op": "Const", "attr": {"dtype": {"type": "DT_FLOAT"}, "value": {"tensor": {"dtype": "DT_FLOAT", "tensorShape": {"dim": [{"size": "3"}, {"size": "3"}, {"size": "256"}, {"size": "256"}]}}}}}, {"name": "StatefulPartitionedCall/BigGAN/Generator/GBlock_6/sn/conv2/conv2d_87/BiasAdd/ReadVariableOp", "op": "Const", "attr": {"dtype": {"type": "DT_FLOAT"}, "value": {"tensor": {"dtype": "DT_FLOAT", "tensorShape": {"dim": [{"size": "256"}]}}}}}, {"name": "StatefulPartitionedCall/BigGAN/Generator/GBlock_6/BatchNorm_3/strided_slice/stack", "op": "Const", "attr": {"value": {"tensor": {"dtype": "DT_INT32", "tensorShape": {"dim": [{"size": "4"}]}}}, "dtype": {"type": "DT_INT32"}}}, {"name": "StatefulPartitionedCall/BigGAN/Generator/GBlock_6/BatchNorm_3/strided_slice/stack_1", "op": "Const", "attr": {"dtype": {"type": "DT_INT32"}, "value": {"tensor": {"dtype": "DT_INT32", "tensorShape": {"dim": [{"size": "4"}]}}}}}, {"name": "StatefulPartitionedCall/BigGAN/Generator/GBlock_6/BatchNorm_3/strided_slice/stack_2", "op": "Const", "attr": {"value": {"tensor": {"dtype": "DT_INT32", "tensorShape": {"dim": [{"size": "4"}]}}}, "dtype": {"type": "DT_INT32"}}}, {"name": "StatefulPartitionedCall/BigGAN/Generator/GBlock_6/BatchNorm_3/strided_slice_1/stack", "op": "Const", "attr": {"dtype": {"type": "DT_INT32"}, "value": {"tensor": {"dtype": "DT_INT32", "tensorShape": {"dim": [{"size": "4"}]}}}}}, {"name": "StatefulPartitionedCall/BigGAN/Generator/GBlock_6/BatchNorm_3/strided_slice_1/stack_1", "op": "Const", "attr": {"dtype": {"type": "DT_INT32"}, "value": {"tensor": {"dtype": "DT_INT32", "tensorShape": {"dim": [{"size": "4"}]}}}}}, {"name": "StatefulPartitionedCall/BigGAN/Generator/GBlock_6/BatchNorm_3/strided_slice_1/stack_2", "op": "Const", "attr": {"value": {"tensor": {"dtype": "DT_INT32", "tensorShape": {"dim": [{"size": "4"}]}}}, "dtype": {"type": "DT_INT32"}}}, {"name": "StatefulPartitionedCall/BigGAN/Generator/GBlock_6/BatchNorm_3/add_1/y", "op": "Const", "attr": {"value": {"tensor": {"dtype": "DT_FLOAT", "tensorShape": {}}}, "dtype": {"type": "DT_FLOAT"}}}, {"name": "StatefulPartitionedCall/BigGAN/Generator/GBlock_6/BatchNorm_3/add/x", "op": "Const", "attr": {"value": {"tensor": {"dtype": "DT_FLOAT", "tensorShape": {}}}, "dtype": {"type": "DT_FLOAT"}}}, {"name": "StatefulPartitionedCall/BigGAN/Generator/GBlock_6/BatchNorm_3/sn/scale/dense_168/MatMul/ReadVariableOp", "op": "Const", "attr": {"dtype": {"type": "DT_FLOAT"}, "value": {"tensor": {"dtype": "DT_FLOAT", "tensorShape": {"dim": [{"size": "256"}, {"size": "256"}]}}}}}, {"name": "StatefulPartitionedCall/BigGAN/Generator/GBlock_6/BatchNorm_3/strided_slice_2/stack", "op": "Const", "attr": {"dtype": {"type": "DT_INT32"}, "value": {"tensor": {"dtype": "DT_INT32", "tensorShape": {"dim": [{"size": "4"}]}}}}}, {"name": "StatefulPartitionedCall/BigGAN/Generator/GBlock_6/BatchNorm_3/strided_slice_2/stack_1", "op": "Const", "attr": {"dtype": {"type": "DT_INT32"}, "value": {"tensor": {"dtype": "DT_INT32", "tensorShape": {"dim": [{"size": "4"}]}}}}}, {"name": "StatefulPartitionedCall/BigGAN/Generator/GBlock_6/BatchNorm_3/strided_slice_2/stack_2", "op": "Const", "attr": {"dtype": {"type": "DT_INT32"}, "value": {"tensor": {"dtype": "DT_INT32", "tensorShape": {"dim": [{"size": "4"}]}}}}}, {"name": "StatefulPartitionedCall/BigGAN/Generator/GBlock_6/BatchNorm_3/sn/offset/dense_169/MatMul/ReadVariableOp", "op": "Const", "attr": {"dtype": {"type": "DT_FLOAT"}, "value": {"tensor": {"dtype": "DT_FLOAT", "tensorShape": {"dim": [{"size": "256"}, {"size": "256"}]}}}}}, {"name": "StatefulPartitionedCall/BigGAN/Generator/GBlock_6/BatchNorm_3/strided_slice_3/stack", "op": "Const", "attr": {"dtype": {"type": "DT_INT32"}, "value": {"tensor": {"dtype": "DT_INT32", "tensorShape": {"dim": [{"size": "4"}]}}}}}, {"name": "StatefulPartitionedCall/BigGAN/Generator/GBlock_6/BatchNorm_3/strided_slice_3/stack_1", "op": "Const", "attr": {"dtype": {"type": "DT_INT32"}, "value": {"tensor": {"dtype": "DT_INT32", "tensorShape": {"dim": [{"size": "4"}]}}}}}, {"name": "StatefulPartitionedCall/BigGAN/Generator/GBlock_6/BatchNorm_3/strided_slice_3/stack_2", "op": "Const", "attr": {"value": {"tensor": {"dtype": "DT_INT32", "tensorShape": {"dim": [{"size": "4"}]}}}, "dtype": {"type": "DT_INT32"}}}, {"name": "StatefulPartitionedCall/BigGAN/Generator/GBlock_6/sn/conv3/conv2d_88/Conv2D/ReadVariableOp", "op": "Const", "attr": {"value": {"tensor": {"dtype": "DT_FLOAT", "tensorShape": {"dim": [{"size": "1"}, {"size": "1"}, {"size": "256"}, {"size": "1024"}]}}}, "dtype": {"type": "DT_FLOAT"}}}, {"name": "StatefulPartitionedCall/BigGAN/Generator/GBlock_6/sn/conv3/conv2d_88/BiasAdd/ReadVariableOp", "op": "Const", "attr": {"dtype": {"type": "DT_FLOAT"}, "value": {"tensor": {"dtype": "DT_FLOAT", "tensorShape": {"dim": [{"size": "1024"}]}}}}}, {"name": "StatefulPartitionedCall/BigGAN/Generator/GBlock_5/BatchNorm_0/strided_slice/stack", "op": "Const", "attr": {"dtype": {"type": "DT_INT32"}, "value": {"tensor": {"dtype": "DT_INT32", "tensorShape": {"dim": [{"size": "4"}]}}}}}, {"name": "StatefulPartitionedCall/BigGAN/Generator/GBlock_5/BatchNorm_0/strided_slice/stack_1", "op": "Const", "attr": {"dtype": {"type": "DT_INT32"}, "value": {"tensor": {"dtype": "DT_INT32", "tensorShape": {"dim": [{"size": "4"}]}}}}}, {"name": "StatefulPartitionedCall/BigGAN/Generator/GBlock_5/BatchNorm_0/strided_slice/stack_2", "op": "Const", "attr": {"dtype": {"type": "DT_INT32"}, "value": {"tensor": {"dtype": "DT_INT32", "tensorShape": {"dim": [{"size": "4"}]}}}}}, {"name": "StatefulPartitionedCall/BigGAN/Generator/GBlock_5/BatchNorm_0/strided_slice_1/stack", "op": "Const", "attr": {"dtype": {"type": "DT_INT32"}, "value": {"tensor": {"dtype": "DT_INT32", "tensorShape": {"dim": [{"size": "4"}]}}}}}, {"name": "StatefulPartitionedCall/BigGAN/Generator/GBlock_5/BatchNorm_0/strided_slice_1/stack_1", "op": "Const", "attr": {"dtype": {"type": "DT_INT32"}, "value": {"tensor": {"dtype": "DT_INT32", "tensorShape": {"dim": [{"size": "4"}]}}}}}, {"name": "StatefulPartitionedCall/BigGAN/Generator/GBlock_5/BatchNorm_0/strided_slice_1/stack_2", "op": "Const", "attr": {"value": {"tensor": {"dtype": "DT_INT32", "tensorShape": {"dim": [{"size": "4"}]}}}, "dtype": {"type": "DT_INT32"}}}, {"name": "StatefulPartitionedCall/BigGAN/Generator/GBlock_5/BatchNorm_0/add_1/y", "op": "Const", "attr": {"value": {"tensor": {"dtype": "DT_FLOAT", "tensorShape": {}}}, "dtype": {"type": "DT_FLOAT"}}}, {"name": "StatefulPartitionedCall/BigGAN/Generator/GBlock_5/BatchNorm_0/add/x", "op": "Const", "attr": {"dtype": {"type": "DT_FLOAT"}, "value": {"tensor": {"dtype": "DT_FLOAT", "tensorShape": {}}}}}, {"name": "StatefulPartitionedCall/BigGAN/Generator/GBlock_5/BatchNorm_0/sn/scale/dense_154/MatMul/ReadVariableOp", "op": "Const", "attr": {"dtype": {"type": "DT_FLOAT"}, "value": {"tensor": {"dtype": "DT_FLOAT", "tensorShape": {"dim": [{"size": "256"}, {"size": "1024"}]}}}}}, {"name": "StatefulPartitionedCall/BigGAN/Generator/GBlock_5/BatchNorm_0/strided_slice_2/stack", "op": "Const", "attr": {"dtype": {"type": "DT_INT32"}, "value": {"tensor": {"dtype": "DT_INT32", "tensorShape": {"dim": [{"size": "4"}]}}}}}, {"name": "StatefulPartitionedCall/BigGAN/Generator/GBlock_5/BatchNorm_0/strided_slice_2/stack_1", "op": "Const", "attr": {"value": {"tensor": {"dtype": "DT_INT32", "tensorShape": {"dim": [{"size": "4"}]}}}, "dtype": {"type": "DT_INT32"}}}, {"name": "StatefulPartitionedCall/BigGAN/Generator/GBlock_5/BatchNorm_0/strided_slice_2/stack_2", "op": "Const", "attr": {"dtype": {"type": "DT_INT32"}, "value": {"tensor": {"dtype": "DT_INT32", "tensorShape": {"dim": [{"size": "4"}]}}}}}, {"name": "StatefulPartitionedCall/BigGAN/Generator/GBlock_5/BatchNorm_0/sn/offset/dense_155/MatMul/ReadVariableOp", "op": "Const", "attr": {"dtype": {"type": "DT_FLOAT"}, "value": {"tensor": {"dtype": "DT_FLOAT", "tensorShape": {"dim": [{"size": "256"}, {"size": "1024"}]}}}}}, {"name": "StatefulPartitionedCall/BigGAN/Generator/GBlock_5/BatchNorm_0/strided_slice_3/stack", "op": "Const", "attr": {"dtype": {"type": "DT_INT32"}, "value": {"tensor": {"dtype": "DT_INT32", "tensorShape": {"dim": [{"size": "4"}]}}}}}, {"name": "StatefulPartitionedCall/BigGAN/Generator/GBlock_5/BatchNorm_0/strided_slice_3/stack_1", "op": "Const", "attr": {"value": {"tensor": {"dtype": "DT_INT32", "tensorShape": {"dim": [{"size": "4"}]}}}, "dtype": {"type": "DT_INT32"}}}, {"name": "StatefulPartitionedCall/BigGAN/Generator/GBlock_5/BatchNorm_0/strided_slice_3/stack_2", "op": "Const", "attr": {"value": {"tensor": {"dtype": "DT_INT32", "tensorShape": {"dim": [{"size": "4"}]}}}, "dtype": {"type": "DT_INT32"}}}, {"name": "StatefulPartitionedCall/BigGAN/Generator/GBlock_5/sn/conv0/conv2d_81/Conv2D/ReadVariableOp", "op": "Const", "attr": {"value": {"tensor": {"dtype": "DT_FLOAT", "tensorShape": {"dim": [{"size": "1"}, {"size": "1"}, {"size": "1024"}, {"size": "256"}]}}}, "dtype": {"type": "DT_FLOAT"}}}, {"name": "StatefulPartitionedCall/BigGAN/Generator/GBlock_5/sn/conv0/conv2d_81/BiasAdd/ReadVariableOp", "op": "Const", "attr": {"value": {"tensor": {"dtype": "DT_FLOAT", "tensorShape": {"dim": [{"size": "256"}]}}}, "dtype": {"type": "DT_FLOAT"}}}, {"name": "StatefulPartitionedCall/BigGAN/Generator/GBlock_5/BatchNorm_1/strided_slice/stack", "op": "Const", "attr": {"dtype": {"type": "DT_INT32"}, "value": {"tensor": {"dtype": "DT_INT32", "tensorShape": {"dim": [{"size": "4"}]}}}}}, {"name": "StatefulPartitionedCall/BigGAN/Generator/GBlock_5/BatchNorm_1/strided_slice/stack_1", "op": "Const", "attr": {"value": {"tensor": {"dtype": "DT_INT32", "tensorShape": {"dim": [{"size": "4"}]}}}, "dtype": {"type": "DT_INT32"}}}, {"name": "StatefulPartitionedCall/BigGAN/Generator/GBlock_5/BatchNorm_1/strided_slice/stack_2", "op": "Const", "attr": {"value": {"tensor": {"dtype": "DT_INT32", "tensorShape": {"dim": [{"size": "4"}]}}}, "dtype": {"type": "DT_INT32"}}}, {"name": "StatefulPartitionedCall/BigGAN/Generator/GBlock_5/BatchNorm_1/strided_slice_1/stack", "op": "Const", "attr": {"value": {"tensor": {"dtype": "DT_INT32", "tensorShape": {"dim": [{"size": "4"}]}}}, "dtype": {"type": "DT_INT32"}}}, {"name": "StatefulPartitionedCall/BigGAN/Generator/GBlock_5/BatchNorm_1/strided_slice_1/stack_1", "op": "Const", "attr": {"dtype": {"type": "DT_INT32"}, "value": {"tensor": {"dtype": "DT_INT32", "tensorShape": {"dim": [{"size": "4"}]}}}}}, {"name": "StatefulPartitionedCall/BigGAN/Generator/GBlock_5/BatchNorm_1/strided_slice_1/stack_2", "op": "Const", "attr": {"dtype": {"type": "DT_INT32"}, "value": {"tensor": {"dtype": "DT_INT32", "tensorShape": {"dim": [{"size": "4"}]}}}}}, {"name": "StatefulPartitionedCall/BigGAN/Generator/GBlock_5/BatchNorm_1/add_1/y", "op": "Const", "attr": {"dtype": {"type": "DT_FLOAT"}, "value": {"tensor": {"dtype": "DT_FLOAT", "tensorShape": {}}}}}, {"name": "StatefulPartitionedCall/BigGAN/Generator/GBlock_5/BatchNorm_1/add/x", "op": "Const", "attr": {"dtype": {"type": "DT_FLOAT"}, "value": {"tensor": {"dtype": "DT_FLOAT", "tensorShape": {}}}}}, {"name": "StatefulPartitionedCall/BigGAN/Generator/GBlock_5/BatchNorm_1/sn/scale/dense_156/MatMul/ReadVariableOp", "op": "Const", "attr": {"value": {"tensor": {"dtype": "DT_FLOAT", "tensorShape": {"dim": [{"size": "256"}, {"size": "256"}]}}}, "dtype": {"type": "DT_FLOAT"}}}, {"name": "StatefulPartitionedCall/BigGAN/Generator/GBlock_5/BatchNorm_1/strided_slice_2/stack", "op": "Const", "attr": {"value": {"tensor": {"dtype": "DT_INT32", "tensorShape": {"dim": [{"size": "4"}]}}}, "dtype": {"type": "DT_INT32"}}}, {"name": "StatefulPartitionedCall/BigGAN/Generator/GBlock_5/BatchNorm_1/strided_slice_2/stack_1", "op": "Const", "attr": {"dtype": {"type": "DT_INT32"}, "value": {"tensor": {"dtype": "DT_INT32", "tensorShape": {"dim": [{"size": "4"}]}}}}}, {"name": "StatefulPartitionedCall/BigGAN/Generator/GBlock_5/BatchNorm_1/strided_slice_2/stack_2", "op": "Const", "attr": {"dtype": {"type": "DT_INT32"}, "value": {"tensor": {"dtype": "DT_INT32", "tensorShape": {"dim": [{"size": "4"}]}}}}}, {"name": "StatefulPartitionedCall/BigGAN/Generator/GBlock_5/BatchNorm_1/sn/offset/dense_157/MatMul/ReadVariableOp", "op": "Const", "attr": {"dtype": {"type": "DT_FLOAT"}, "value": {"tensor": {"dtype": "DT_FLOAT", "tensorShape": {"dim": [{"size": "256"}, {"size": "256"}]}}}}}, {"name": "StatefulPartitionedCall/BigGAN/Generator/GBlock_5/BatchNorm_1/strided_slice_3/stack", "…
", "shape": [], "dtype": "bool"}, {"name": "StatefulPartitionedCall/BigGAN/Generator/GBlock_11/BatchNorm_1/cond/pivot_f/_897", "shape": [], "dtype": "bool"}, {"name": "StatefulPartitionedCall/BigGAN/Generator/GBlock_11/BatchNorm_1/cond/pivot_t/_898", "shape": [], "dtype": "bool"}, {"name": "StatefulPartitionedCall/BigGAN/Generator/GBlock_5/BatchNorm_2/cond/pivot_f/_621", "shape": [], "dtype": "bool"}, {"name": "StatefulPartitionedCall/BigGAN/Generator/GBlock_5/BatchNorm_2/cond/pivot_t/_622", "shape": [], "dtype": "bool"}, {"name": "StatefulPartitionedCall/BigGAN/Generator/GBlock_13/BatchNorm_2/cond/pivot_f/_1005", "shape": [], "dtype": "bool"}, {"name": "StatefulPartitionedCall/BigGAN/Generator/GBlock_13/BatchNorm_2/cond/pivot_t/_1006", "shape": [], "dtype": "bool"}, {"name": "StatefulPartitionedCall/BigGAN/Generator/GBlock_11/BatchNorm_2/cond/pivot_f/_909", "shape": [], "dtype": "bool"}, {"name": "StatefulPartitionedCall/BigGAN/Generator/GBlock_11/BatchNorm_2/cond/pivot_t/_910", "shape": [], "dtype": "bool"}, {"name": "StatefulPartitionedCall/BigGAN/Generator/GBlock_4/BatchNorm_2/cond/pivot_f/_573", "shape": [], "dtype": "bool"}, {"name": "StatefulPartitionedCall/BigGAN/Generator/GBlock_4/BatchNorm_2/cond/pivot_t/_574", "shape": [], "dtype": "bool"}, {"name": "StatefulPartitionedCall/BigGAN/Generator/GBlock_3/BatchNorm_0/cond/pivot_f/_501", "shape": [], "dtype": "bool"}, {"name": "StatefulPartitionedCall/BigGAN/Generator/GBlock_3/BatchNorm_0/cond/pivot_t/_502", "shape": [], "dtype": "bool"}, {"name": "StatefulPartitionedCall/BigGAN/Generator/GBlock_11/BatchNorm_3/cond/pivot_f/_921", "shape": [], "dtype": "bool"}, {"name": "StatefulPartitionedCall/BigGAN/Generator/GBlock_11/BatchNorm_3/cond/pivot_t/_922", "shape": [], "dtype": "bool"}, {"name": "StatefulPartitionedCall/BigGAN/Generator/GBlock_13/BatchNorm_3/cond/pivot_f/_1017", "shape": [], "dtype": "bool"}, {"name": "StatefulPartitionedCall/BigGAN/Generator/GBlock_13/BatchNorm_3/cond/pivot_t/_1018", "shape": [], "dtype": "bool"}, {"name": "StatefulPartitionedCall/BigGAN/Generator/GBlock_1/BatchNorm_0/cond/pivot_f/_405", "shape": [], "dtype": "bool"}, {"name": "StatefulPartitionedCall/BigGAN/Generator/GBlock_1/BatchNorm_0/cond/pivot_t/_406", "shape": [], "dtype": "bool"}, {"name": "StatefulPartitionedCall/BigGAN/Generator/GBlock_6/BatchNorm_1/cond/pivot_f/_657", "shape": [], "dtype": "bool"}, {"name": "StatefulPartitionedCall/BigGAN/Generator/GBlock_6/BatchNorm_1/cond/pivot_t/_658", "shape": [], "dtype": "bool"}, {"name": "StatefulPartitionedCall/BigGAN/Generator/GBlock_8/BatchNorm_1/cond/pivot_f/_753", "shape": [], "dtype": "bool"}, {"name": "StatefulPartitionedCall/BigGAN/Generator/GBlock_8/BatchNorm_1/cond/pivot_t/_754", "shape": [], "dtype": "bool"}, {"name": "StatefulPartitionedCall/BigGAN/Generator/GBlock_1/BatchNorm_1/cond/pivot_f/_417", "shape": [], "dtype": "bool"}, {"name": "StatefulPartitionedCall/BigGAN/Generator/GBlock_1/BatchNorm_1/cond/pivot_t/_418", "shape": [], "dtype": "bool"}, {"name": "StatefulPartitionedCall/BigGAN/Generator/GBlock_3/BatchNorm_1/cond/pivot_f/_513", "shape": [], "dtype": "bool"}, {"name": "StatefulPartitionedCall/BigGAN/Generator/GBlock_3/BatchNorm_1/cond/pivot_t/_514", "shape": [], "dtype": "bool"}, {"name": "StatefulPartitionedCall/BigGAN/Generator/GBlock_4/BatchNorm_3/cond/pivot_f/_585", "shape": [], "dtype": "bool"}, {"name": "StatefulPartitionedCall/BigGAN/Generator/GBlock_4/BatchNorm_3/cond/pivot_t/_586", "shape": [], "dtype": "bool"}, {"name": "StatefulPartitionedCall/BigGAN/Generator/GBlock_1/BatchNorm_2/cond/pivot_f/_429", "shape": [], "dtype": "bool"}, {"name": "StatefulPartitionedCall/BigGAN/Generator/GBlock_1/BatchNorm_2/cond/pivot_t/_430", "shape": [], "dtype": "bool"}, {"name": "StatefulPartitionedCall/BigGAN/Generator/GBlock_5/BatchNorm_3/cond/pivot_f/_633", "shape": [], "dtype": "bool"}, {"name": "StatefulPartitionedCall/BigGAN/Generator/GBlock_5/BatchNorm_3/cond/pivot_t/_634", "shape": [], "dtype": "bool"}, {"name": "StatefulPartitionedCall/BigGAN/Generator/GBlock_3/BatchNorm_2/cond/pivot_f/_525", "shape": [], "dtype": "bool"}, {"name": "StatefulPartitionedCall/BigGAN/Generator/GBlock_3/BatchNorm_2/cond/pivot_t/_526", "shape": [], "dtype": "bool"}, {"name": "StatefulPartitionedCall/BigGAN/Generator/GBlock_1/BatchNorm_3/cond/pivot_f/_441", "shape": [], "dtype": "bool"}, {"name": "StatefulPartitionedCall/BigGAN/Generator/GBlock_1/BatchNorm_3/cond/pivot_t/_442", "shape": [], "dtype": "bool"}, {"name": "StatefulPartitionedCall/BigGAN/Generator/GBlock_7/BatchNorm_3/cond/pivot_f/_729", "shape": [], "dtype": "bool"}, {"name": "StatefulPartitionedCall/BigGAN/Generator/GBlock_7/BatchNorm_3/cond/pivot_t/_730", "shape": [], "dtype": "bool"}, {"name": "StatefulPartitionedCall/BigGAN/Generator/GBlock_6/BatchNorm_2/cond/pivot_f/_669", "shape": [], "dtype": "bool"}, {"name": "StatefulPartitionedCall/BigGAN/Generator/GBlock_6/BatchNorm_2/cond/pivot_t/_670", "shape": [], "dtype": "bool"}, {"name": "StatefulPartitionedCall/BigGAN/Generator/GBlock_3/BatchNorm_3/cond/pivot_f/_537", "shape": [], "dtype": "bool"}, {"name": "StatefulPartitionedCall/BigGAN/Generator/GBlock_3/BatchNorm_3/cond/pivot_t/_538", "shape": [], "dtype": "bool"}, {"name": "StatefulPartitionedCall/BigGAN/Generator/GBlock_12/BatchNorm_0/cond/pivot_f/_933", "shape": [], "dtype": "bool"}, {"name": "StatefulPartitionedCall/BigGAN/Generator/GBlock_12/BatchNorm_0/cond/pivot_t/_934", "shape": [], "dtype": "bool"}, {"name": "StatefulPartitionedCall/BigGAN/Generator/GBlock_8/BatchNorm_3/cond/pivot_f/_777", "shape": [], "dtype": "bool"}, {"name": "StatefulPartitionedCall/BigGAN/Generator/GBlock_8/BatchNorm_3/cond/pivot_t/_778", "shape": [], "dtype": "bool"}, {"name": "StatefulPartitionedCall/BigGAN/Generator/GBlock_2/BatchNorm_0/cond/pivot_f/_453", "shape": [], "dtype": "bool"}, {"name": "StatefulPartitionedCall/BigGAN/Generator/GBlock_2/BatchNorm_0/cond/pivot_t/_454", "shape": [], "dtype": "bool"}, {"name": "StatefulPartitionedCall/BigGAN/Generator/GBlock_12/BatchNorm_1/cond/pivot_f/_945", "shape": [], "dtype": "bool"}, {"name": "StatefulPartitionedCall/BigGAN/Generator/GBlock_12/BatchNorm_1/cond/pivot_t/_946", "shape": [], "dtype": "bool"}, {"name": "StatefulPartitionedCall/BigGAN/Generator/GBlock_7/BatchNorm_0/cond/pivot_f/_693", "shape": [], "dtype": "bool"}, {"name": "StatefulPartitionedCall/BigGAN/Generator/GBlock_7/BatchNorm_0/cond/pivot_t/_694", "shape": [], "dtype": "bool"}, {"name": "StatefulPartitionedCall/BigGAN/Generator/GBlock_6/BatchNorm_3/cond/pivot_f/_681", "shape": [], "dtype": "bool"}, {"name": "StatefulPartitionedCall/BigGAN/Generator/GBlock_6/BatchNorm_3/cond/pivot_t/_682", "shape": [], "dtype": "bool"}, {"name": "StatefulPartitionedCall/BigGAN/Generator/GBlock_12/BatchNorm_2/cond/pivot_f/_957", "shape": [], "dtype": "bool"}, {"name": "StatefulPartitionedCall/BigGAN/Generator/GBlock_12/BatchNorm_2/cond/pivot_t/_958", "shape": [], "dtype": "bool"}, {"name": "StatefulPartitionedCall/BigGAN/Generator/GBlock_10/BatchNorm_0/cond/pivot_f/_837", "shape": [], "dtype": "bool"}, {"name": "StatefulPartitionedCall/BigGAN/Generator/GBlock_10/BatchNorm_0/cond/pivot_t/_838", "shape": [], "dtype": "bool"}, {"name": "StatefulPartitionedCall/BigGAN/Generator/GBlock_2/BatchNorm_1/cond/pivot_f/_465", "shape": [], "dtype": "bool"}, {"name": "StatefulPartitionedCall/BigGAN/Generator/GBlock_2/BatchNorm_1/cond/pivot_t/_466", "shape": [], "dtype": "bool"}, {"name": "StatefulPartitionedCall/BigGAN/Generator/GBlock_9/BatchNorm_2/cond/pivot_f/_813", "shape": [], "dtype": "bool"}, {"name": "StatefulPartitionedCall/BigGAN/Generator/GBlock_9/BatchNorm_2/cond/pivot_t/_814", "shape": [], "dtype": "bool"}, {"name": "StatefulPartitionedCall/BigGAN/Generator/GBlock_10/BatchNorm_1/cond/pivot_f/_849", "shape": [], "dtype": "bool"}, {"name": "StatefulPartitionedCall/BigGAN/Generator/GBlock_10/BatchNorm_1/cond/pivot_t/_850", "shape": [], "dtype": "bool"}, {"name": "StatefulPartitionedCall/BigGAN/Generator/GBlock_12/BatchNorm_3/cond/pivot_f/_969", "shape": [], "dtype": "bool"}, {"name": "StatefulPartitionedCall/BigGAN/Generator/GBlock_12/BatchNorm_3/cond/pivot_t/_970", "shape": [], "dtype": "bool"}, {"name": "StatefulPartitionedCall/BigGAN/Generator/GBlock_8/BatchNorm_2/cond/pivot_f/_765", "shape": [], "dtype": "bool"}, {"name": "StatefulPartitionedCall/BigGAN/Generator/GBlock_8/BatchNorm_2/cond/pivot_t/_766", "shape": [], "dtype": "bool"}, {"name": "StatefulPartitionedCall/BigGAN/Generator/GBlock_10/BatchNorm_2/cond/pivot_f/_861", "shape": [], "dtype": "bool"}, {"name": "StatefulPartitionedCall/BigGAN/Generator/GBlock_10/BatchNorm_2/cond/pivot_t/_862", "shape": [], "dtype": "bool"}, {"name": "StatefulPartitionedCall/BigGAN/Generator/GBlock_2/BatchNorm_2/cond/pivot_f/_477", "shape": [], "dtype": "bool"}, {"name": "StatefulPartitionedCall/BigGAN/Generator/GBlock_2/BatchNorm_2/cond/pivot_t/_478", "shape": [], "dtype": "bool"}, {"name": "StatefulPartitionedCall/BigGAN/Generator/GBlock_7/BatchNorm_1/cond/pivot_f/_705", "shape": [], "dtype": "bool"}, {"name": "StatefulPartitionedCall/BigGAN/Generator/GBlock_7/BatchNorm_1/cond/pivot_t/_706", "shape": [], "dtype": "bool"}, {"name": "StatefulPartitionedCall/BigGAN/Generator/GBlock_10/BatchNorm_3/cond/pivot_f/_873", "shape": [], "dtype": "bool"}, {"name": "StatefulPartitionedCall/BigGAN/Generator/GBlock_10/BatchNorm_3/cond/pivot_t/_874", "shape": [], "dtype": "bool"}, {"name": "StatefulPartitionedCall/BigGAN/Generator/GBlock_8/BatchNorm_0/cond/pivot_f/_741", "shape": [], "dtype": "bool"}, {"name": "StatefulPartitionedCall/BigGAN/Generator/GBlock_8/BatchNorm_0/cond/pivot_t/_742", "shape": [], "dtype": "bool"}, {"name": "StatefulPartitionedCall/BigGAN/Generator/GBlock_2/BatchNorm_3/cond/pivot_f/_489", "shape": [], "dtype": "bool"}, {"name": "StatefulPartitionedCall/BigGAN/Generator/GBlock_2/BatchNorm_3/cond/pivot_t/_490", "shape": [], "dtype": "bool"}, {"name": "StatefulPartitionedCall/BigGAN/Generator/GBlock_5/BatchNorm_0/cond/pivot_f/_597", "shape": [], "dtype": "bool"}, {"name": "StatefulPartitionedCall/BigGAN/Generator/GBlock_5/BatchNorm_0/cond/pivot_t/_598", "shape": [], "dtype": "bool"}, {"name": "StatefulPartitionedCall/BigGAN/Generator/GBlock_9/BatchNorm_0/cond/pivot_f/_789", "shape": [], "dtype": "bool"}, {"name": "StatefulPartitionedCall/BigGAN/Generator/GBlock_9/BatchNorm_0/cond/pivot_t/_790", "shape": [], "dtype": "bool"}, {"name": "StatefulPartitionedCall/BigGAN/Generator/GBlock_6/BatchNorm_0/cond/pivot_f/_645", "shape": [], "dtype": "bool"}, {"name": "StatefulPartitionedCall/BigGAN/Generator/GBlock_6/BatchNorm_0/cond/pivot_t/_646", "shape": [], "dtype": "bool"}, {"name": "StatefulPartitionedCall/BigGAN/Generator/big_gan_batch_norm_1/cond/then/_1026/BigGAN/Generator/big_gan_batch_norm_1/cond/sub/x", "shape": [], "dtype": "float32"}, {"name": "StatefulPartitionedCall/BigGAN/Generator/big_gan_batch_norm_1/cond/then/_1026/BigGAN/Generator/big_gan_batch_norm_1/cond/sub_1/x", "shape": [], "dtype": "float32"}, {"name": "StatefulPartitionedCall/BigGAN/Generator/big_gan_batch_norm_1/cond/then/_1026/BigGAN/Generator/big_gan_batch_norm_1/cond/add_2/y", "shape": [], "dtype": "int32"}, {"name": "StatefulPartitionedCall/BigGAN/Generator/big_gan_batch_norm_1/cond/then/_1026/BigGAN/Generator/big_gan_batch_norm_1/cond/add/y", "shape": [], "dtype": "int32"}, {"name": "StatefulPartitionedCall/BigGAN/Generator/GBlock_9/BatchNorm_3/cond/then/_822/BigGAN/Generator/GBlock_9/BatchNorm_3/cond/sub/x", "shape": [], "dtype": "float32"}, {"name": "StatefulPartitionedCall/BigGAN/Generator/GBlock_9/BatchNorm_3/cond/then/_822/BigGAN/Generator/GBlock_9/BatchNorm_3/cond/sub_1/x", "shape": [], "dtype": "float32"}, {"name": "StatefulPartitionedCall/BigGAN/Generator/GBlock_9/BatchNorm_3/cond/then/_822/BigGAN/Generator/GBlock_9/BatchNorm_3/cond/add_2/y", "shape": [], "dtype": "int32"}, {"name": "StatefulPartitionedCall/BigGAN/Generator/GBlock_9/BatchNorm_3/cond/then/_822/BigGAN/Generator/GBlock_9/BatchNorm_3/cond/add/y", "shape": [], "dtype": "int32"}, {"name": "StatefulPartitionedCall/BigGAN/Generator/GBlock_0/BatchNorm_0/cond/then/_354/BigGAN/Generator/GBlock_0/BatchNorm_0/cond/sub/x", "shape": [], "dtype": "float32"}, {"name": "StatefulPartitionedCall/BigGAN/Generator/GBlock_0/BatchNorm_0/cond/then/_354/BigGAN/Generator/GBlock_0/BatchNorm_0/cond/sub_1/x", "shape": [], "dtype": "float32"}, {"name": "StatefulPartitionedCall/BigGAN/Generator/GBlock_0/BatchNorm_0/cond/then/_354/BigGAN/Generator/GBlock_0/BatchNorm_0/cond/add_2/y", "shape": [], "dtype": "int32"}, {"name": "StatefulPartitionedCall/BigGAN/Generator/GBlock_0/BatchNorm_0/cond/then/_354/BigGAN/Generator/GBlock_0/BatchNorm_0/cond/add/y", "shape": [], "dtype": "int32"}, {"name": "StatefulPartitionedCall/BigGAN/Generator/GBlock_4/BatchNorm_0/cond/then/_546/BigGAN/Generator/GBlock_4/BatchNorm_0/cond/sub/x", "shape": [], "dtype": "float32"}, {"name": "StatefulPartitionedCall/BigGAN/Generator/GBlock_4/BatchNorm_0/cond/then/_546/BigGAN/Generator/GBlock_4/BatchNorm_0/cond/sub_1/x", "shape": [], "dtype": "float32"}, {"name": "StatefulPartitionedCall/BigGAN/Generator/GBlock_4/BatchNorm_0/cond/then/_546/BigGAN/Generator/GBlock_4/BatchNorm_0/cond/add_2/y", "shape": [], "dtype": "int32"}, {"name": "StatefulPartitionedCall/BigGAN/Generator/GBlock_4/BatchNorm_0/cond/then/_546/BigGAN/Generator/GBlock_4/BatchNorm_0/cond/add/y", "shape": [], "dtype": "int32"}, {"name": "StatefulPartitionedCall/BigGAN/Generator/GBlock_5/BatchNorm_1/cond/then/_606/BigGAN/Generator/GBlock_5/BatchNorm_1/cond/sub/x", "shape": [], "dtype": "float32"}, {"name": "StatefulPartitionedCall/BigGAN/Generator/GBlock_5/BatchNorm_1/cond/then/_606/BigGAN/Generator/GBlock_5/BatchNorm_1/cond/sub_1/x", "shape": [], "dtype": "float32"}, {"name": "StatefulPartitionedCall/BigGAN/Generator/GBlock_5/BatchNorm_1/cond/then/_606/BigGAN/Generator/GBlock_5/BatchNorm_1/cond/add_2/y", "shape": [], "dtype": "int32"}, {"name": "StatefulPartitionedCall/BigGAN/Generator/GBlock_5/BatchNorm_1/cond/then/_606/BigGAN/Generator/GBlock_5/BatchNorm_1/cond/add/y", "shape": [], "dtype": "int32"}, {"name": "StatefulPartitionedCall/BigGAN/Generator/GBlock_0/BatchNorm_1/cond/then/_366/BigGAN/Generator/GBlock_0/BatchNorm_1/cond/sub/x", "shape": [], "dtype": "float32"}, {"name": "StatefulPartitionedCall/BigGAN/Generator/GBlock_0/BatchNorm_1/cond/then/_366/BigGAN/Generator/GBlock_0/BatchNorm_1/cond/sub_1/x", "shape": [], "dtype": "float32"}, {"name": "StatefulPartitionedCall/BigGAN/Generator/GBlock_0/BatchNorm_1/cond/then/_366/BigGAN/Generator/GBlock_0/BatchNorm_1/cond/add_2/y", "shape": [], "dtype": "int32"}, {"name": "StatefulPartitionedCall/BigGAN/Generator/GBlock_0/BatchNorm_1/cond/then/_366/BigGAN/Generator/GBlock_0/BatchNorm_1/cond/add/y", "shape": [], "dtype": "int32"}, {"name": "StatefulPartitionedCall/BigGAN/Generator/GBlock_13/BatchNorm_0/cond/then/_978/BigGAN/Generator/GBlock_13/BatchNorm_0/cond/sub/x", "shape": [], "dtype": "float32"}, {"name": "StatefulPartitionedCall/BigGAN/Generator/GBlock_13/BatchNorm_0/cond/then/_978/BigGAN/Generator/GBlock_13/BatchNorm_0/cond/sub_1/x", "shape": [], "dtype": "float32"}, {"name": "StatefulPartitionedCall/BigGAN/Generator/GBlock_13/BatchNorm_0/cond/then/_978/BigGAN/Generator/GBlock_13/BatchNorm_0/cond/add_2/y", "shape": [], "dtype": "int32"}, {"name": "StatefulPartitionedCall/BigGAN/Generator/GBlock_13/BatchNorm_0/cond/then/_978/BigGAN/Generator/GBlock_13/BatchNorm_0/cond/add/y", "shape": [], "dtype": "int32"}, {"name": "StatefulPartitionedCall/BigGAN/Generator/GBlock_7/BatchNorm_2/cond/then/_714/BigGAN/Generator/GBlock_7/BatchNorm_2/cond/sub/x", "shape": [], "dtype": "float32"}, {"name": "StatefulPartitionedCall/BigGAN/Generator/GBlock_7/BatchNorm_2/cond/then/_714/BigGAN/Generator/GBlock_7/BatchNorm_2/cond/sub_1/x", "shape": [], "dtype": "float32"}, {"name": "StatefulPartitionedCall/BigGAN/Generator/GBlock_7/BatchNorm_2/cond/then/_714/BigGAN/Generator/GBlock_7/BatchNorm_2/cond/add_2/y", "shape": [], "dtype": "int32"}, {"name": "StatefulPartitionedCall/BigGAN/Generator/GBlock_7/BatchNorm_2/cond/then/_714/BigGAN/Generator/GBlock_7/BatchNorm_2/cond/add/y", "shape": [], "dtype": "int32"}, {"name": "StatefulPartitionedCall/BigGAN/Generator/GBlock_0/BatchNorm_2/cond/then/_378/BigGAN/Generator/GBlock_0/BatchNorm_2/cond/sub/x", "shape": [], "dtype": "float32"}, {"name": "StatefulPartitionedCall/BigGAN/Generator/GBlock_0/BatchNorm_2/cond/then/_378/BigGAN/Generator/GBlock_0/BatchNorm_2/cond/sub_1/x", "shape": [], "dtype": "float32"}, {"name": "StatefulPartitionedCall/BigGAN/Generator/GBlock_0/BatchNorm_2/cond/then/_378/BigGAN/Generator/GBlock_0/BatchNorm_2/cond/add_2/y", "shape": [], "dtype": "int32"}, {"name": "StatefulPartitionedCall/BigGAN/Generator/GBlock_0/BatchNorm_2/cond/then/_378/BigGAN/Generator/GBlock_0/BatchNorm_2/cond/add/y", "shape": [], "dtype": "int32"}, {"name": "StatefulPartitionedCall/BigGAN/Generator/GBlock_4/BatchNorm_1/cond/then/_558/BigGAN/Generator/GBlock_4/BatchNorm_1/cond/sub/x", "shape": [], "dtype": "float32"}, {"name": "StatefulPartitionedCall/BigGAN/Generator/GBlock_4/BatchNorm_1/cond/then/_558/BigGAN/Generator/GBlock_4/BatchNorm_1/cond/sub_1/x", "shape": [], "dtype": "float32"}, {"name": "StatefulPartitionedCall/BigGAN/Generator/GBlock_4/BatchNorm_1/cond/then/_558/BigGAN/Generator/GBlock_4/BatchNorm_1/cond/add_2/y", "shape": [], "dtype": "int32"}, {"name": "StatefulPartitionedCall/BigGAN/Generator/GBlock_4/BatchNorm_1/cond/then/_558/BigGAN/Generator/GBlock_4/BatchNorm_1/cond/add/y", "shape": [], "dtype": "int32"}, {"name": "StatefulPartitionedCall/BigGAN/Generator/GBlock_11/BatchNorm_0/cond/then/_882/BigGAN/Generator/GBlock_11/BatchNorm_0/cond/sub/x", "shape": [], "dtype": "float32"}, {"name": "StatefulPartitionedCall/BigGAN/Generator/GBlock_11/BatchNorm_0/cond/then/_882/BigGAN/Generator/GBlock_11/BatchNorm_0/cond/sub_1/x", "shape": [], "dtype": "float32"}, {"name": "StatefulPartitionedCall/BigGAN/Generator/GBlock_11/BatchNorm_0/cond/then/_882/BigGAN/Generator/GBlock_11/BatchNorm_0/cond/add_2/y", "shape": [], "dtype": "int32"}, {"name": "StatefulPartitionedCall/BigGAN/Generator/GBlock_11/BatchNorm_0/cond/then/_882/BigGAN/Generator/GBlock_11/BatchNorm_0/cond/add/y", "shape": [], "dtype": "int32"}, {"name": "StatefulPartitionedCall/BigGAN/Generator/GBlock_0/BatchNorm_3/cond/then/_390/BigGAN/Generator/GBlock_0/BatchNorm_3/cond/sub/x", "shape": [], "dtype": "float32"}, {"name": "StatefulPartitionedCall/BigGAN/Generator/GBlock_0/BatchNorm_3/cond/then/_390/BigGAN/Generator/GBlock_0/BatchNorm_3/cond/sub_1/x", "shape": [], "dtype": "float32"}, {"name": "StatefulPartitionedCall/BigGAN/Generator/GBlock_0/BatchNorm_3/cond/then/_390/BigGAN/Generator/GBlock_0/BatchNorm_3/cond/add_2/y", "shape": [], "dtype": "int32"}, {"name": "StatefulPartitionedCall/BigGAN/Generator/GBlock_0/BatchNorm_3/cond/then/_390/BigGAN/Generator/GBlock_0/BatchNorm_3/cond/add/y", "shape": [], "dtype": "int32"}, {"name": "StatefulPartitionedCall/BigGAN/Generator/GBlock_13/BatchNorm_1/cond/then/_990/BigGAN/Generator/GBlock_13/BatchNorm_1/cond/sub/x", "shape": [], "dtype": "float32"}, {"name": "StatefulPartitionedCall/BigGAN/Generator/GBlock_13/BatchNorm_1/cond/then/_990/BigGAN/Generator/GBlock_13/BatchNorm_1/cond/sub_1/x", "shape": [], "dtype": "float32"}, {"name": "StatefulPartitionedCall/BigGAN/Generator/GBlock_13/BatchNorm_1/cond/then/_990/BigGAN/Generator/GBlock_13/BatchNorm_1/cond/add_2/y", "shape": [], "dtype": "int32"}, {"name": "StatefulPartitionedCall/BigGAN/Generator/GBlock_13/BatchNorm_1/cond/then/_990/BigGAN/Generator/GBlock_13/BatchNorm_1/cond/add/y", "shape": [], "dtype": "int32"}, {"name": "StatefulPartitionedCall/BigGAN/Generator/GBlock_9/BatchNorm_1/cond/then/_798/BigGAN/Generator/GBlock_9/BatchNorm_1/cond/sub/x", "shape": [], "dtype": "float32"}, {"name": "StatefulPartitionedCall/BigGAN/Generator/GBlock_9/BatchNorm_1/cond/then/_798/BigGAN/Generator/GBlock_9/BatchNorm_1/cond/sub_1/x", "shape": [], "dtype": "float32"}, {"name": "StatefulPartitionedCall/BigGAN/Generator/GBlock_9/BatchNorm_1/cond/then/_798/BigGAN/Generator/GBlock_9/BatchNorm_1/cond/add_2/y", "shape": [], "dtype": "int32"}, {"name": "StatefulPartitionedCall/BigGAN/Generator/GBlock_9/BatchNorm_1/cond/then/_798/BigGAN/Generator/GBlock_9/BatchNorm_1/cond/add/y", "shape": [], "dtype": "int32"}, {"name": "StatefulPartitionedCall/BigGAN/Generator/GBlock_11/BatchNorm_1/cond/then/_894/BigGAN/Generator/GBlock_11/BatchNorm_1/cond/sub/x", "shape": [], "dtype": "float32"}, {"name": "StatefulPartitionedCall/BigGAN/Generator/GBlock_11/BatchNorm_1/cond/then/_894/BigGAN/Generator/GBlock_11/BatchNorm_1/cond/sub_1/x", "shape": [], "dtype": "float32"}, {"name": "StatefulPartitionedCall/BigGAN/Generator/GBlock_11/BatchNorm_1/cond/then/_894/BigGAN/Generator/GBlock_11/BatchNorm_1/cond/add_2/y", "shape": [], "dtype": "int32"}, {"name": "StatefulPartitionedCall/BigGAN/Generator/GBlock_11/BatchNorm_1/cond/then/_894/BigGAN/Generator/GBlock_11/BatchNorm_1/cond/add/y", "shape": [], "dtype": "int32"}, {"name": "StatefulPartitionedCall/BigGAN/Generator/GBlock_5/BatchNorm_2/cond/then/_618/BigGAN/Generator/GBlock_5/BatchNorm_2/cond/sub/x", "shape": [], "dtype": "float32"}, {"name": "StatefulPartitionedCall/BigGAN/Generator/GBlock_5/BatchNorm_2/cond/then/_618/BigGAN/Generator/GBlock_5/BatchNorm_2/cond/sub_1/x", "shape": [], "dtype": "float32"}, {"name": "StatefulPartitionedCall/BigGAN/Generator/GBlock_5/BatchNorm_2/cond/then/_618/BigGAN/Generator/GBlock_5/BatchNorm_2/cond/add_2/y", "shape": [], "dtype": "int32"}, {"name": "StatefulPartitionedCall/BigGAN/Generator/GBlock_5/BatchNorm_2/cond/then/_618/BigGAN/Generator/GBlock_5/BatchNorm_2/cond/add/y", "shape": [], "dtype": "int32"}, {"name": "StatefulPartitionedCall/BigGAN/Generator/GBlock_13/BatchNorm_2/cond/then/_1002/BigGAN/Generator/GBlock_13/BatchNorm_2/cond/sub/x", "shape": [], "dtype": "float32"}, {"name": "StatefulPartitionedCall/BigGAN/Generator/GBlock_13/BatchNorm_2/cond/then/_1002/BigGAN/Generator/GBlock_13/BatchNorm_2/cond/sub_1/x", "shape": [], "dtype": "float32"}, {"name": "StatefulPartitionedCall/BigGAN/Generator/GBlock_13/BatchNorm_2/cond/then/_1002/BigGAN/Generator/GBlock_13/BatchNorm_2/cond/add_2/y", "shape": [], "dtype": "int32"}, {"name": "StatefulPartitionedCall/BigGAN/Generator/GBlock_13/BatchNorm_2/cond/then/_1002/BigGAN/Generator/GBlock_13/BatchNorm_2/cond/add/y", "shape": [], "dtype": "int32"}, {"name": "StatefulPartitionedCall/BigGAN/Generator/GBlock_11/BatchNorm_2/cond/then/_906/BigGAN/Generator/GBlock_11/BatchNorm_2/cond/sub/x", "shape": [], "dtype": "float32"}, {"name": "StatefulPartitionedCall/BigGAN/Generator/GBlock_11/BatchNorm_2/cond/then/_906/BigGAN/Generator/GBlock_11/BatchNorm_2/cond/sub_1/x", "shape": [], "dtype": "float32"}, {"name": "StatefulPartitionedCall/BigGAN/Generator/GBlock_11/BatchNorm_2/cond/then/_906/BigGAN/Generator/GBlock_11/BatchNorm_2/cond/add_2/y", "shape": [], "dtype": "int32"}, {"name": "StatefulPartitionedCall/BigGAN/Generator/GBlock_11/BatchNorm_2/cond/then/_906/BigGAN/Generator/GBlock_11/BatchNorm_2/cond/add/y", "shape": [], "dtype": "int32"}, {"name": "StatefulPartitionedCall/BigGAN/Generator/GBlock_4/BatchNorm_2/cond/then/_570/BigGAN/Generator/GBlock_4/BatchNorm_2/cond/sub/x", "shape": [], "dtype": "float32"}, {"name": "StatefulPartitionedCall/BigGAN/Generator/GBlock_4/BatchNorm_2/cond/then/_570/BigGAN/Generator/GBlock_4/BatchNorm_2/cond/sub_1/x", "shape": [], "dtype": "float32"}, {"name": "StatefulPartitionedCall/BigGAN/Generator/GBlock_4/BatchNorm_2/cond/then/_570/BigGAN/Generator/GBlock_4/BatchNorm_2/cond/add_2/y", "shape": [], "dtype": "int32"}, {"name": "StatefulPartitionedCall/BigGAN/Generator/GBlock_4/BatchNorm_2/cond/then/_570/BigGAN/Generator/GBlock_4/BatchNorm_2/cond/add/y", "shape": [], "dtype": "int32"}, {"name": "StatefulPartitionedCall/BigGAN/Generator/GBlock_3/BatchNorm_0/cond/then/_498/BigGAN/Generator/GBlock_3/BatchNorm_0/cond/sub/x", "shape": [], "dtype": "float32"}, {"name": "StatefulPartitionedCall/BigGAN/Generator/GBlock_3/BatchNorm_0/cond/then/_498/BigGAN/Generator/GBlock_3/BatchNorm_0/cond/sub_1/x", "shape": [], "dtype": "float32"}, {"name": "StatefulPartitionedCall/BigGAN/Generator/GBlock_3/BatchNorm_0/cond/then/_498/BigGAN/Generator/GBlock_3/BatchNorm_0/cond/add_2/y", "shape": [], "dtype": "int32"}, {"name": "StatefulPartitionedCall/BigGAN/Generator/GBlock_3/BatchNorm_0/cond/then/_498/BigGAN/Generator/GBlock_3/BatchNorm_0/cond/add/y", "shape": [], "dtype": "int32"}, {"name": "StatefulPartitionedCall/BigGAN/Generator/GBlock_11/BatchNorm_3/cond/then/_918/BigGAN/Generator/GBlock_11/BatchNorm_3/cond/sub/x", "shape": [], "dtype": "float32"}, {"name": "StatefulPartitionedCall/BigGAN/Generator/GBlock_11/BatchNorm_3/cond/then/_918/BigGAN/Generator/GBlock_11/BatchNorm_3/cond/sub_1/x", "shape": [], "dtype": "float32"}, {"name": "StatefulPartitionedCall/BigGAN/Generator/GBlock_11/BatchNorm_3/cond/then/_918/BigGAN/Generator/GBlock_11/BatchNorm_3/cond/add_2/y", "shape": [], "dtype": "int32"}, {"name": "StatefulPartitionedCall/BigGAN/Generator/GBlock_11/BatchNorm_3/cond/then/_918/BigGAN/Generator/GBlock_11/BatchNorm_3/cond/add/y", "shape": [], "dtype": "int32"}, {"name": "StatefulPartitionedCall/BigGAN/Generator/GBlock_13/BatchNorm_3/cond/then/_1014/BigGAN/Generator/GBlock_13/BatchNorm_3/cond/sub/x", "shape": [], "dtype": "float32"}, {"name": "StatefulPartitionedCall/BigGAN/Generator/GBlock_13/BatchNorm_3/cond/then/_1014/BigGAN/Generator/GBlock_13/BatchNorm_3/cond/sub_1/x", "shape": [], "dtype": "float32"}, {"name": "StatefulPartitionedCall/BigGAN/Generator/GBlock_13/BatchNorm_3/cond/then/_1014/BigGAN/Generator/GBlock_13/BatchNorm_3/cond/add_2/y", "shape": [], "dtype": "int32"}, {"name": "StatefulPartitionedCall/BigGAN/Generator/GBlock_13/BatchNorm_3/cond/then/_1014/BigGAN/Generator/GBlock_13/BatchNorm_3/cond/add/y", "shape": [], "dtype": "int32"}, {"name": "StatefulPartitionedCall/BigGAN/Generator/GBlock_1/BatchNorm_0/cond/then/_402/BigGAN/Generator/GBlock_1/BatchNorm_0/cond/sub/x", "shape": [], "dtype": "float32"}, {"name": "StatefulPartitionedCall/BigGAN/Generator/GBlock_1/BatchNorm_0/cond/then/_402/BigGAN/Generator/GBlock_1/BatchNorm_0/cond/sub_1/x", "shape": [], "dtype": "float32"}, {"name": "StatefulPartitionedCall/BigGAN/Generator/GBlock_1/BatchNorm_0/cond/then/_402/BigGAN/Generator/GBlock_1/BatchNorm_0/cond/add_2/y", "shape": [], "dtype": "int32"}, {"name": "StatefulPartitionedCall/BigGAN/Generator/GBlock_1/BatchNorm_0/cond/then/_402/BigGAN/Generator/GBlock_1/BatchNorm_0/cond/add/y", "shape": [], "dtype": "int32"}, {"name": "StatefulPartitionedCall/BigGAN/Generator/GBlock_6/BatchNorm_1/cond/then/_654/BigGAN/Generator/GBlock_6/BatchNorm_1/cond/sub/x", "shape": [], "dtype": "float32"}, {"name": "StatefulPartitionedCall/BigGAN/Generator/GBlock_6/BatchNorm_1/cond/then/_654/BigGAN/Generator/GBlock_6/BatchNorm_1/cond/sub_1/x", "shape": [], "dtype": "float32"}, {"name": "StatefulPartitionedCall/BigGAN/Generator/GBlock_6/BatchNorm_1/cond/then/_654/BigGAN/Generator/GBlock_6/BatchNorm_1/cond/add_2/y", "shape": [], "dtype": "int32"}, {"name": "StatefulPartitionedCall/BigGAN/Generator/GBlock_6/BatchNorm_1/cond/then/_654/BigGAN/Generator/GBlock_6/BatchNorm_1/cond/add/y", "shape": [], "dtype": "int32"}, {"name": "StatefulPartitionedCall/BigGAN/Generator/GBlock_8/BatchNorm_1/cond/then/_750/BigGAN/Generator/GBlock_8/BatchNorm_1/cond/sub/x", "shape": [], "dtype": "float32"}, {"name": "StatefulPartitionedCall/BigGAN/Generator/GBlock_8/BatchNorm_1/cond/then/_750/BigGAN/Generator/GBlock_8/BatchNorm_1/cond/sub_1/x", "shape": [], "dtype": "float32"}, {"name": "StatefulPartitionedCall/BigGAN/Generator/GBlock_8/BatchNorm_1/cond/then/_750/BigGAN/Generator/GBlock_8/BatchNorm_1/cond/add_2/y", "shape": [], "dtype": "int32"}, {"name": "StatefulPartitionedCall/BigGAN/Generator/GBlock_8/BatchNorm_1/cond/then/_750/BigGAN/Generator/GBlock_8/BatchNorm_1/cond/add/y", "shape": [], "dtype": "int32"}, {"name": "StatefulPartitionedCall/BigGAN/Generator/GBlock_1/BatchNorm_1/cond/then/_414/BigGAN/Generator/GBlock_1/BatchNorm_1/cond/sub/x", "shape": [], "dtype": "float32"}, {"name": "StatefulPartitionedCall/BigGAN/Generator/GBlock_1/BatchNorm_1/cond/then/_414/BigGAN/Generator/GBlock_1/BatchNorm_1/cond/sub_1/x", "shape": [], "dtype": "float32"}, {"name": "StatefulPartitionedCall/BigGAN/Generator/GBlock_1/BatchNorm_1/cond/then/_414/BigGAN/Generator/GBlock_1/BatchNorm_1/cond/add_2/y", "shape": [], "dtype": "int32"}, {"name": "StatefulPartitionedCall/BigGAN/Generator/GBlock_1/BatchNorm_1/cond/then/_414/BigGAN/Generator/GBlock_1/BatchNorm_1/cond/add/y", "shape": [], "dtype": "int32"}, {"name": "StatefulPartitionedCall/BigGAN/Generator/GBlock_3/BatchNorm_1/cond/then/_510/BigGAN/Generator/GBlock_3/BatchNorm_1/cond/sub/x", "shape": [], "dtype": "float32"}, {"name": "StatefulPartitionedCall/BigGAN/Generator/GBlock_3/BatchNorm_1/cond/then/_510/BigGAN/Generator/GBlock_3/BatchNorm_1/cond/sub_1/x", "shape": [], "dtype": "float32"}, {"name": "StatefulPartitionedCall/BigGAN/Generator/GBlock_3/BatchNorm_1/cond/then/_510/BigGAN/Generator/GBlock_3/BatchNorm_1/cond/add_2/y", "shape": [], "dtype": "int32"}, {"name": "StatefulPartitionedCall/BigGAN/Generator/GBlock_3/BatchNorm_1/cond/then/_510/BigGAN/Generator/GBlock_3/BatchNorm_1/cond/add/y", "shape": [], "dtype": "int32"}, {"name": "StatefulPartitionedCall/BigGAN/Generator/GBlock_4/BatchNorm_3/cond/then/_582/BigGAN/Generator/GBlock_4/BatchNorm_3/cond/sub/x", "shape": [], "dtype": "float32"}, {"name": "StatefulPartitionedCall/BigGAN/Generator/GBlock_4/BatchNorm_3/cond/then/_582/BigGAN/Generator/GBlock_4/BatchNorm_3/cond/sub_1/x", "shape": [], "dtype": "float32"}, {"name": "StatefulPartitionedCall/BigGAN/Generator/GBlock_4/BatchNorm_3/cond/then/_582/BigGAN/Generator/GBlock_4/BatchNorm_3/cond/add_2/y", "shape": [], "dtype": "int32"}, {"name": "StatefulPartitionedCall/BigGAN/Generator/GBlock_4/BatchNorm_3/cond/then/_582/BigGAN/Generator/GBlock_4/BatchNorm_3/cond/add/y", "shape": [], "dtype": "int32"}, {"name": "StatefulPartitionedCall/BigGAN/Generator/GBlock_1/BatchNorm_2/cond/then/_426/BigGAN/Generator/GBlock_1/BatchNorm_2/cond/sub/x", "shape": [], "dtype": "float32"}, {"name": "StatefulPartitionedCall/BigGAN/Generator/GBlock_1/BatchNorm_2/cond/then/_426/BigGAN/Generator/GBlock_1/BatchNorm_2/cond/sub_1/x", "shape": [], "dtype": "float32"}, {"name": "StatefulPartitionedCall/BigGAN/Generator/GBlock_1/BatchNorm_2/cond/then/_426/BigGAN/Generator/GBlock_1/BatchNorm_2/cond/add_2/y", "shape": [], "dtype": "int32"}, {"name": "StatefulPartitionedCall/BigGAN/Generator/GBlock_1/BatchNorm_2/cond/then/_426/BigGAN/Generator/GBlock_1/BatchNorm_2/cond/add/y", "shape": [], "dtype": "int32"}, {"name": "StatefulPartitionedCall/BigGAN/Generator/GBlock_5/BatchNorm_3/cond/then/_630/BigGAN/Generator/GBlock_5/BatchNorm_3/cond/sub/x", "shape": [], "dtype": "float32"}, {"name": "StatefulPartitionedCall/BigGAN/Generator/GBlock_5/BatchNorm_3/cond/then/_630/BigGAN/Generator/GBlock_5/BatchNorm_3/cond/sub_1/x", "shape": [], "dtype": "float32"}, {"name": "StatefulPartitionedCall/BigGAN/Generator/GBlock_5/BatchNorm_3/cond/then/_630/BigGAN/Generator/GBlock_5/BatchNorm_3/cond/add_2/y", "shape": [], "dtype": "int32"}, {"name": "StatefulPartitionedCall/BigGAN/Generator/GBlock_5/BatchNorm_3/cond/then/_630/BigGAN/Generator/GBlock_5/BatchNorm_3/cond/add/y", "shape": [], "dtype": "int32"}, {"name": "StatefulPartitionedCall/BigGAN/Generator/GBlock_3/BatchNorm_2/cond/then/_522/BigGAN/Generator/GBlock_3/BatchNorm_2/cond/sub/x", "shape": [], "dtype": "float32"}, {"name": "StatefulPartitionedCall/BigGAN/Generator/GBlock_3/BatchNorm_2/cond/then/_522/BigGAN/Generator/GBlock_3/BatchNorm_2/cond/sub_1/x", "shape": [], "dtype": "float32"}, {"name": "StatefulPartitionedCall/BigGAN/Generator/GBlock_3/BatchNorm_2/cond/then/_522/BigGAN/Generator/GBlock_3/BatchNorm_2/cond/add_2/y", "shape": [], "dtype": "int32"}, {"name": "StatefulPartitionedCall/BigGAN/Generator/GBlock_3/BatchNorm_2/cond/then/_522/BigGAN/Generator/GBlock_3/BatchNorm_2/cond/add/y", "shape": [], "dtype": "int32"}, {"name": "StatefulPartitionedCall/BigGAN/Generator/GBlock_1/BatchNorm_3/cond/then/_438/BigGAN/Generator/GBlock_1/BatchNorm_3/cond/sub/x", "shape": [], "dtype": "float32"}, {"name": "StatefulPartitionedCall/BigGAN/Generator/GBlock_1/BatchNorm_3/cond/then/_438/BigGAN/Generator/GBlock_1/BatchNorm_3/cond/sub_1/x", "shape": [], "dtype": "float32"}, {"name": "StatefulPartitionedCall/BigGAN/Generator/GBlock_1/BatchNorm_3/cond/then/_438/BigGAN/Generator/GBlock_1/BatchNorm_3/cond/add_2/y", "shape": [], "dtype": "int32"}, {"name": "StatefulPartitionedCall/BigGAN/Generator/GBlock_1/BatchNorm_3/cond/then/_438/BigGAN/Generator/GBlock_1/BatchNorm_3/cond/add/y", "shape": [], "dtype": "int32"}, {"name": "StatefulPartitionedCall/BigGAN/Generator/GBlock_7/BatchNorm_3/cond/then/_726/BigGAN/Generator/GBlock_7/BatchNorm_3/cond/sub/x", "shape": [], "dtype": "float32"}, {"name": "StatefulPartitionedCall/BigGAN/Generator/GBlock_7/BatchNorm_3/cond/then/_726/BigGAN/Generator/GBlock_7/BatchNorm_3/cond/sub_1/x", "shape": [], "dtype": "float32"}, {"name": "StatefulPartitionedCall/BigGAN/Generator/GBlock_7/BatchNorm_3/cond/then/_726/BigGAN/Generator/GBlock_7/BatchNorm_3/cond/add_2/y", "shape": [], "dtype": "int32"}, {"name": "StatefulPartitionedCall/BigGAN/Generator/GBlock_7/BatchNorm_3/cond/then/_726/BigGAN/Generator/GBlock_7/BatchNorm_3/cond/add/y", "shape": [], "dtype": "int32"}, {"name": "StatefulPartitionedCall/BigGAN/Generator/GBlock_6/BatchNorm_2/cond/then/_666/BigGAN/Generator/GBlock_6/BatchNorm_2/cond/sub/x", "shape": [], "dtype": "float32"}, {"name": "StatefulPartitionedCall/BigGAN/Generator/GBlock_6/BatchNorm_2/cond/then/_666/BigGAN/Generator/GBlock_6/BatchNorm_2/cond/sub_1/x", "shape": [], "dtype": "float32"}, {"name": "StatefulPartitionedCall/BigGAN/Generator/GBlock_6/BatchNorm_2/cond/then/_666/BigGAN/Generator/GBlock_6/BatchNorm_2/cond/add_2/y", "shape": [], "dtype": "int32"}, {"name": "StatefulPartitionedCall/BigGAN/Generator/GBlock_6/BatchNorm_2/cond/then/_666/BigGAN/Generator/GBlock_6/BatchNorm_2/cond/add/y", "shape": [], "dtype": "int32"}, {"name": "StatefulPartitionedCall/BigGAN/Generator/GBlock_3/BatchNorm_3/cond/then/_534/BigGAN/Generator/GBlock_3/BatchNorm_3/cond/sub/x", "shape": [], "dtype": "float32"}, {"name": "StatefulPartitionedCall/BigGAN/Generator/GBlock_3/BatchNorm_3/cond/then/_534/BigGAN/Generator/GBlock_3/BatchNorm_3/cond/sub_1/x", "shape": [], "dtype": "float32"}, {"name": "StatefulPartitionedCall/BigGAN/Generator/GBlock_3/BatchNorm_3/cond/then/_534/BigGAN/Generator/GBlock_3/BatchNorm_3/cond/add_2/y", "shape": [], "dtype": "int32"}, {"name": "StatefulPartitionedCall/BigGAN/Generator/GBlock_3/BatchNorm_3/cond/then/_534/BigGAN/Generator/GBlock_3/BatchNorm_3/cond/add/y", "shape": [], "dtype": "int32"}, {"name": "StatefulPartitionedCall/BigGAN/Generator/GBlock_12/BatchNorm_0/cond/then/_930/BigGAN/Generator/GBlock_12/BatchNorm_0/cond/sub/x", "shape": [], "dtype": "float32"}, {"name": "StatefulPartitionedCall/BigGAN/Generator/GBlock_12/BatchNorm_0/cond/then/_930/BigGAN/Generator/GBlock_12/BatchNorm_0/cond/sub_1/x", "shape": [], "dtype": "float32"}, {"name": "StatefulPartitionedCall/BigGAN/Generator/GBlock_12/BatchNorm_0/cond/then/_930/BigGAN/Generator/GBlock_12/BatchNorm_0/cond/add_2/y", "shape": [], "dtype": "int32"}, {"name": "StatefulPartitionedCall/BigGAN/Generator/GBlock_12/BatchNorm_0/cond/then/_930/BigGAN/Generator/GBlock_12/BatchNorm_0/cond/add/y", "shape": [], "dtype": "int32"}, {"name": "StatefulPartitionedCall/BigGAN/Generator/GBlock_8/BatchNorm_3/cond/then/_774/BigGAN/Generator/GBlock_8/BatchNorm_3/cond/sub/x", "shape": [], "dtype": "float32"}, {"name": "StatefulPartitionedCall/BigGAN/Generator/GBlock_8/BatchNorm_3/cond/then/_774/BigGAN/Generator/GBlock_8/BatchNorm_3/cond/sub_1/x", "shape": [], "dtype": "float32"}, {"name": "StatefulPartitionedCall/BigGAN/Generator/GBlock_8/BatchNorm_3/cond/then/_774/BigGAN/Generator/GBlock_8/BatchNorm_3/cond/add_2/y", "shape": [], "dtype": "int32"}, {"name": "StatefulPartitionedCall/BigGAN/Generator/GBlock_8/BatchNorm_3/cond/then/_774/BigGAN/Generator/GBlock_8/BatchNorm_3/cond/add/y", "shape": [], "dtype": "int32"}, {"name": "StatefulPartitionedCall/BigGAN/Generator/GBlock_2/BatchNorm_0/cond/then/_450/BigGAN/Generator/GBlock_2/BatchNorm_0/cond/sub/x", "shape": [], "dtype": "float32"}, {"name": "StatefulPartitionedCall/BigGAN/Generator/GBlock_2/BatchNorm_0/cond/then/_450/BigGAN/Generator/GBlock_2/BatchNorm_0/cond/sub_1/x", "shape": [], "dtype": "float32"}, {"name": "StatefulPartitionedCall/BigGAN/Generator/GBlock_2/BatchNorm_0/cond/then/_450/BigGAN/Generator/GBlock_2/BatchNorm_0/cond/add_2/y", "shape": [], "dtype": "int32"}, {"name": "StatefulPartitionedCall/BigGAN/Generator/GBlock_2/BatchNorm_0/cond/then/_450/BigGAN/Generator/GBlock_2/BatchNorm_0/cond/add/y", "shape": [], "dtype": "int32"}, {"name": "StatefulPartitionedCall/BigGAN/Generator/GBlock_12/BatchNorm_1/cond/then/_942/BigGAN/Generator/GBlock_12/BatchNorm_1/cond/sub/x", "shape": [], "dtype": "float32"}, {"name": "StatefulPartitionedCall/BigGAN/Generator/GBlock_12/BatchNorm_1/cond/then/_942/BigGAN/Generator/GBlock_12/BatchNorm_1/cond/sub_1/x", "shape": [], "dtype": "float32"}, {"name": "StatefulPartitionedCall/BigGAN/Generator/GBlock_12/BatchNorm_1/cond/then/_942/BigGAN/Generator/GBlock_12/BatchNorm_1/cond/add_2/y", "shape": [], "dtype": "int32"}, {"name": "StatefulPartitionedCall/BigGAN/Generator/GBlock_12/BatchNorm_1/cond/then/_942/BigGAN/Generator/GBlock_12/BatchNorm_1/cond/add/y", "shape": [], "dtype": "int32"}, {"name": "StatefulPartitionedCall/BigGAN/Generator/GBlock_7/BatchNorm_0/cond/then/_690/BigGAN/Generator/GBlock_7/BatchNorm_0/cond/sub/x", "shape": [], "dtype": "float32"}, {"name": "StatefulPartitionedCall/BigGAN/Generator/GBlock_7/BatchNorm_0/cond/then/_690/BigGAN/Generator/GBlock_7/BatchNorm_0/cond/sub_1/x", "shape": [], "dtype": "float32"}, {"name": "StatefulPartitionedCall/BigGAN/Generator/GBlock_7/BatchNorm_0/cond/then/_690/BigGAN/Generator/GBlock_7/BatchNorm_0/cond/add_2/y", "shape": [], "dtype": "int32"}, {"name": "StatefulPartitionedCall/BigGAN/Generator/GBlock_7/BatchNorm_0/cond/then/_690/BigGAN/Generator/GBlock_7/BatchNorm_0/cond/add/y", "shape": [], "dtype": "int32"}, {"name": "StatefulPartitionedCall/BigGAN/Generator/GBlock_6/BatchNorm_3/cond/then/_678/BigGAN/Generator/GBlock_6/BatchNorm_3/cond/sub/x", "shape": [], "dtype": "float32"}, {"name": "StatefulPartitionedCall/BigGAN/Generator/GBlock_6/BatchNorm_3/cond/then/_678/BigGAN/Generator/GBlock_6/BatchNorm_3/cond/sub_1/x", "shape": [], "dtype": "float32"}, {"name": "StatefulPartitionedCall/BigGAN/Generator/GBlock_6/BatchNorm_3/cond/then/_678/BigGAN/Generator/GBlock_6/BatchNorm_3/cond/add_2/y", "shape": [], "dtype": "int32"}, {"name": "StatefulPartitionedCall/BigGAN/Generator/GBlock_6/BatchNorm_3/cond/then/_678/BigGAN/Generator/GBlock_6/BatchNorm_3/cond/add/y", "shape": [], "dtype": "int32"}, {"name": "StatefulPartitionedCall/BigGAN/Generator/GBlock_12/BatchNorm_2/cond/then/_954/BigGAN/Generator/GBlock_12/BatchNorm_2/cond/sub/x", "shape": [], "dtype": "float32"}, {"name": "StatefulPartitionedCall/BigGAN/Generator/GBlock_12/BatchNorm_2/cond/then/_954/BigGAN/Generator/GBlock_12/BatchNorm_2/cond/sub_1/x", "shape": [], "dtype": "float32"}, {"name": "StatefulPartitionedCall/BigGAN/Generator/GBlock_12/BatchNorm_2/cond/then/_954/BigGAN/Generator/GBlock_12/BatchNorm_2/cond/add_2/y", "shape": [], "dtype": "int32"}, {"name": "StatefulPartitionedCall/BigGAN/Generator/GBlock_12/BatchNorm_2/cond/then/_954/BigGAN/Generator/GBlock_12/BatchNorm_2/cond/add/y", "shape": [], "dtype": "int32"}, {"name": "StatefulPartitionedCall/BigGAN/Generator/GBlock_10/BatchNorm_0/cond/then/_834/BigGAN/Generator/GBlock_10/BatchNorm_0/cond/sub/x", "shape": [], "dtype": "float32"}, {"name": "StatefulPartitionedCall/BigGAN/Generator/GBlock_10/BatchNorm_0/cond/then/_834/BigGAN/Generator/GBlock_10/BatchNorm_0/cond/sub_1/x", "shape": [], "dtype": "float32"}, {"name": "StatefulPartitionedCall/BigGAN/Generator/GBlock_10/BatchNorm_0/cond/then/_834/BigGAN/Generator/GBlock_10/BatchNorm_0/cond/add_2/y", "shape": [], "dtype": "int32"}, {"name": "StatefulPartitionedCall/BigGAN/Generator/GBlock_10/BatchNorm_0/cond/then/_834/BigGAN/Generator/GBlock_10/BatchNorm_0/cond/add/y", "shape": [], "dtype": "int32"}, {"name": "StatefulPartitionedCall/BigGAN/Generator/GBlock_2/BatchNorm_1/cond/then/_462/BigGAN/Generator/GBlock_2/BatchNorm_1/cond/sub/x", "shape": [], "dtype": "float32"}, {"name": "StatefulPartitionedCall/BigGAN/Generator/GBlock_2/BatchNorm_1/cond/then/_462/BigGAN/Generator/GBlock_2/BatchNorm_1/cond/sub_1/x", "shape": [], "dtype": "float32"}, {"name": "StatefulPartitionedCall/BigGAN/Generator/GBlock_2/BatchNorm_1/cond/then/_462/BigGAN/Generator/GBlock_2/BatchNorm_1/cond/add_2/y", "shape": [], "dtype": "int32"}, {"name": "StatefulPartitionedCall/BigGAN/Generator/GBlock_2/BatchNorm_1/cond/then/_462/BigGAN/Generator/GBlock_2/BatchNorm_1/cond/add/y", "shape": [], "dtype": "int32"}, {"name": "StatefulPartitionedCall/BigGAN/Generator/GBlock_9/BatchNorm_2/cond/then/_810/BigGAN/Generator/GBlock_9/BatchNorm_2/cond/sub/x", "shape": [], "dtype": "float32"}, {"name": "StatefulPartitionedCall/BigGAN/Generator/GBlock_9/BatchNorm_2/cond/then/_810/BigGAN/Generator/GBlock_9/BatchNorm_2/cond/sub_1/x", "shape": [], "dtype": "float32"}, {"name": "StatefulPartitionedCall/BigGAN/Generator/GBlock_9/BatchNorm_2/cond/then/_810/BigGAN/Generator/GBlock_9/BatchNorm_2/cond/add_2/y", "shape": [], "dtype": "int32"}, {"name": "StatefulPartitionedCall/BigGAN/Generator/GBlock_9/BatchNorm_2/cond/then/_810/BigGAN/Generator/GBlock_9/BatchNorm_2/cond/add/y", "shape": [], "dtype": "int32"}, {"name": "StatefulPartitionedCall/BigGAN/Generator/GBlock_10/BatchNorm_1/cond/then/_846/BigGAN/Generator/GBlock_10/BatchNorm_1/cond/sub/x", "shape": [], "dtype": "float32"}, {"name": "StatefulPartitionedCall/BigGAN/Generator/GBlock_10/BatchNorm_1/cond/then/_846/BigGAN/Generator/GBlock_10/BatchNorm_1/cond/sub_1/x", "shape": [], "dtype": "float32"}, {"name": "StatefulPartitionedCall/BigGAN/Generator/GBlock_10/BatchNorm_1/cond/then/_846/BigGAN/Generator/GBlock_10/BatchNorm_1/cond/add_2/y", "shape": [], "dtype": "int32"}, {"name": "StatefulPartitionedCall/BigGAN/Generator/GBlock_10/BatchNorm_1/cond/then/_846/BigGAN/Generator/GBlock_10/BatchNorm_1/cond/add/y", "shape": [], "dtype": "int32"}, {"name": "StatefulPartitionedCall/BigGAN/Generator/GBlock_12/BatchNorm_3/cond/then/_966/BigGAN/Generator/GBlock_12/BatchNorm_3/cond/sub/x", "shape": [], "dtype": "float32"}, {"name": "StatefulPartitionedCall/BigGAN/Generator/GBlock_12/BatchNorm_3/cond/then/_966/BigGAN/Generator/GBlock_12/BatchNorm_3/cond/sub_1/x", "shape": [], "dtype": "float32"}, {"name": "StatefulPartitionedCall/BigGAN/Generator/GBlock_12/BatchNorm_3/cond/then/_966/BigGAN/Generator/GBlock_12/BatchNorm_3/cond/add_2/y", "shape": [], "dtype": "int32"}, {"name": "StatefulPartitionedCall/BigGAN/Generator/GBlock_12/BatchNorm_3/cond/then/_966/BigGAN/Generator/GBlock_12/BatchNorm_3/cond/add/y", "shape": [], "dtype": "int32"}, {"name": "StatefulPartitionedCall/BigGAN/Generator/GBlock_8/BatchNorm_2/cond/then/_762/BigGAN/Generator/GBlock_8/BatchNorm_2/cond/sub/x", "shape": [], "dtype": "float32"}, {"name": "StatefulPartitionedCall/BigGAN/Generator/GBlock_8/BatchNorm_2/cond/then/_762/BigGAN/Generator/GBlock_8/BatchNorm_2/cond/sub_1/x", "shape": [], "dtype": "float32"}, {"name": "StatefulPartitionedCall/BigGAN/Generator/GBlock_8/BatchNorm_2/cond/then/_762/BigGAN/Generator/GBlock_8/BatchNorm_2/cond/add_2/y", "shape": [], "dtype": "int32"}, {"name": "StatefulPartitionedCall/BigGAN/Generator/GBlock_8/BatchNorm_2/cond/then/_762/BigGAN/Generator/GBlock_8/BatchNorm_2/cond/add/y", "shape": [], "dtype": "int32"}, {"name": "StatefulPartitionedCall/BigGAN/Generator/GBlock_10/BatchNorm_2/cond/then/_858/BigGAN/Generator/GBlock_10/BatchNorm_2/cond/sub/x", "shape": [], "dtype": "float32"}, {"name": "StatefulPartitionedCall/BigGAN/Generator/GBlock_10/BatchNorm_2/cond/then/_858/BigGAN/Generator/GBlock_10/BatchNorm_2/cond/sub_1/x", "shape": [], "dtype": "float32"}, {"name": "StatefulPartitionedCall/BigGAN/Generator/GBlock_10/BatchNorm_2/cond/then/_858/BigGAN/Generator/GBlock_10/BatchNorm_2/cond/add_2/y", "shape": [], "dtype": "int32"}, {"name": "StatefulPartitionedCall/BigGAN/Generator/GBlock_10/BatchNorm_2/cond/then/_858/BigGAN/Generator/GBlock_10/BatchNorm_2/cond/add/y", "shape": [], "dtype": "int32"}, {"name": "StatefulPartitionedCall/BigGAN/Generator/GBlock_2/BatchNorm_2/cond/then/_474/BigGAN/Generator/GBlock_2/BatchNorm_2/cond/sub/x", "shape": [], "dtype": "float32"}, {"name": "StatefulPartitionedCall/BigGAN/Generator/GBlock_2/BatchNorm_2/cond/then/_474/BigGAN/Generator/GBlock_2/BatchNorm_2/cond/sub_1/x", "shape": [], "dtype": "float32"}, {"name": "StatefulPartitionedCall/BigGAN/Generator/GBlock_2/BatchNorm_2/cond/then/_474/BigGAN/Generator/GBlock_2/BatchNorm_2/cond/add_2/y", "shape": [], "dtype": "int32"}, {"name": "StatefulPartitionedCall/BigGAN/Generator/GBlock_2/BatchNorm_2/cond/then/_474/BigGAN/Generator/GBlock_2/BatchNorm_2/cond/add/y", "shape": [], "dtype": "int32"}, {"name": "StatefulPartitionedCall/BigGAN/Generator/GBlock_7/BatchNorm_1/cond/then/_702/BigGAN/Generator/GBlock_7/BatchNorm_1/cond/sub/x", "shape": [], "dtype": "float32"}, {"name": "StatefulPartitionedCall/BigGAN/Generator/GBlock_7/BatchNorm_1/cond/then/_702/BigGAN/Generator/GBlock_7/BatchNorm_1/cond/sub_1/x", "shape": [], "dtype": "float32"}, {"name": "StatefulPartitionedCall/BigGAN/Generator/GBlock_7/BatchNorm_1/cond/then/_702/BigGAN/Generator/GBlock_7/BatchNorm_1/cond/add_2/y", "shape": [], "dtype": "int32"}, {"name": "StatefulPartitionedCall/BigGAN/Generator/GBlock_7/BatchNorm_1/cond/then/_702/BigGAN/Generator/GBlock_7/BatchNorm_1/cond/add/y", "shape": [], "dtype": "int32"}, {"name": "StatefulPartitionedCall/BigGAN/Generator/GBlock_10/BatchNorm_3/cond/then/_870/BigGAN/Generator/GBlock_10/BatchNorm_3/cond/sub/x", "shape": [], "dtype": "float32"}, {"name": "StatefulPartitionedCall/BigGAN/Generator/GBlock_10/BatchNorm_3/cond/then/_870/BigGAN/Generator/GBlock_10/BatchNorm_3/cond/sub_1/x", "shape": [], "dtype": "float32"}, {"name": "StatefulPartitionedCall/BigGAN/Generator/GBlock_10/BatchNorm_3/cond/then/_870/BigGAN/Generator/GBlock_10/BatchNorm_3/cond/add_2/y", "shape": [], "dtype": "int32"}, {"name": "StatefulPartitionedCall/BigGAN/Generator/GBlock_10/BatchNorm_3/cond/then/_870/BigGAN/Generator/GBlock_10/BatchNorm_3/cond/add/y", "shape": [], "dtype": "int32"}, {"name": "StatefulPartitionedCall/BigGAN/Generator/GBlock_8/BatchNorm_0/cond/then/_738/BigGAN/Generator/GBlock_8/BatchNorm_0/cond/sub/x", "shape": [], "dtype": "float32"}, {"name": "StatefulPartitionedCall/BigGAN/Generator/GBlock_8/BatchNorm_0/cond/then/_738/BigGAN/Generator/GBlock_8/BatchNorm_0/cond/sub_1/x", "shape": [], "dtype": "float32"}, {"name": "StatefulPartitionedCall/BigGAN/Generator/GBlock_8/BatchNorm_0/cond/then/_738/BigGAN/Generator/GBlock_8/BatchNorm_0/cond/add_2/y", "shape": [], "dtype": "int32"}, {"name": "StatefulPartitionedCall/BigGAN/Generator/GBlock_8/BatchNorm_0/cond/then/_738/BigGAN/Generator/GBlock_8/BatchNorm_0/cond/add/y", "shape": [], "dtype": "int32"}, {"name": "StatefulPartitionedCall/BigGAN/Generator/GBlock_2/BatchNorm_3/cond/then/_486/BigGAN/Generator/GBlock_2/BatchNorm_3/cond/sub/x", "shape": [], "dtype": "float32"}, {"name": "StatefulPartitionedCall/BigGAN/Generator/GBlock_2/BatchNorm_3/cond/then/_486/BigGAN/Generator/GBlock_2/BatchNorm_3/cond/sub_1/x", "shape": [], "dtype": "float32"}, {"name": "StatefulPartitionedCall/BigGAN/Generator/GBlock_2/BatchNorm_3/cond/then/_486/BigGAN/Generator/GBlock_2/BatchNorm_3/cond/add_2/y", "shape": [], "dtype": "int32"}, {"name": "StatefulPartitionedCall/BigGAN/Generator/GBlock_2/BatchNorm_3/cond/then/_486/BigGAN/Generator/GBlock_2/BatchNorm_3/cond/add/y", "shape": [], "dtype": "int32"}, {"name": "StatefulPartitionedCall/BigGAN/Generator/GBlock_5/BatchNorm_0/cond/then/_594/BigGAN/Generator/GBlock_5/BatchNorm_0/cond/sub/x", "shape": [], "dtype": "float32"}, {"name": "StatefulPartitionedCall/BigGAN/Generator/GBlock_5/BatchNorm_0/cond/then/_594/BigGAN/Generator/GBlock_5/BatchNorm_0/cond/sub_1/x", "shape": [], "dtype": "float32"}, {"name": "StatefulPartitionedCall/BigGAN/Generator/GBlock_5/BatchNorm_0/cond/then/_594/BigGAN/Generator/GBlock_5/BatchNorm_0/cond/add_2/y", "shape": [], "dtype": "int32"}, {"name": "StatefulPartitionedCall/BigGAN/Generator/GBlock_5/BatchNorm_0/cond/then/_594/BigGAN/Generator/GBlock_5/BatchNorm_0/cond/add/y", "shape": [], "dtype": "int32"}, {"name": "StatefulPartitionedCall/BigGAN/Generator/GBlock_9/BatchNorm_0/cond/then/_786/BigGAN/Generator/GBlock_9/BatchNorm_0/cond/sub/x", "shape": [], "dtype": "float32"}, {"name": "StatefulPartitionedCall/BigGAN/Generator/GBlock_9/BatchNorm_0/cond/then/_786/BigGAN/Generator/GBlock_9/BatchNorm_0/cond/sub_1/x", "shape": [], "dtype": "float32"}, {"name": "StatefulPartitionedCall/BigGAN/Generator/GBlock_9/BatchNorm_0/cond/then/_786/BigGAN/Generator/GBlock_9/BatchNorm_0/cond/add_2/y", "shape": [], "dtype": "int32"}, {"name": "StatefulPartitionedCall/BigGAN/Generator/GBlock_9/BatchNorm_0/cond/then/_786/BigGAN/Generator/GBlock_9/BatchNorm_0/cond/add/y", "shape": [], "dtype": "int32"}, {"name": "StatefulPartitionedCall/BigGAN/Generator/GBlock_6/BatchNorm_0/cond/then/_642/BigGAN/Generator/GBlock_6/BatchNorm_0/cond/sub/x", "shape": [], "dtype": "float32"}, {"name": "StatefulPartitionedCall/BigGAN/Generator/GBlock_6/BatchNorm_0/cond/then/_642/BigGAN/Generator/GBlock_6/BatchNorm_0/cond/sub_1/x", "shape": [], "dtype": "float32"}, {"name": "StatefulPartitionedCall/BigGAN/Generator/GBlock_6/BatchNorm_0/cond/then/_642/BigGAN/Generator/GBlock_6/BatchNorm_0/cond/add_2/y", "shape": [], "dtype": "int32"}, {"name": "StatefulPartitionedCall/BigGAN/Generator/GBlock_6/BatchNorm_0/cond/then/_642/BigGAN/Generator/GBlock_6/BatchNorm_0/cond/add/y", "shape": [], "dtype": "int32"}]}]}